results/models/CNN.pth (torch, 278638 bytes, 22 tensors)

encoder.enc_blocks.0.conv1.weight f4 [32, 1, 9]
000000 b1 85 93 3d 45 60 a2 3d 88 4a e1 3d 7a ce d7 be
       0.07203234 0.07928518 0.11000544 -0.42149717
000010 c7 e6 c6 be 9b ac be be e9 51 b3 bb 7e 38 5d bd
       -0.38847944 -0.37241063 -0.005472411 -0.054008953
000020 68 85 97 3e 8e 0b 9b 3e 90 ac 20 bc 21 fa 7a be
       0.29593968 0.30282253 -0.009806767 -0.24509479
000030 3f 58 d5 3d 64 9c bd bd e8 44 dd bd 84 aa ac 3d
       0.10417222 -0.09258345 -0.108041584 0.08430961
000040 9a a3 27 be 4e 0c bc 3e cb 1e 0c bf de 7d 94 be
       -0.16371003 0.36728138 -0.54734486 -0.2900228
000050 f6 2f 9d 3d 62 5b 4e be 5d dc 27 3e 26 20 98 3e
       0.076751634 -0.20152047 0.16392656 0.29712027
000060 2e 0d 12 3a 10 f0 07 3e 7c a6 de 3c 60 57 31 be
       0.0005571422 0.1327517 0.027178995 -0.17318487
000070 b2 1d e4 3d de b5 08 3e 71 2e 66 3e 4e 02 67 3e
       0.111384764 0.13350627 0.22478653 0.22559473
000080 19 62 55 bd df ae b9 3c 34 f7 c4 bd 78 5a d8 3d
       -0.052095506 0.022666393 -0.09617463 0.105641305
000090 05 39 4b bd 38 aa a8 3e d4 0f 9e be 6d 0b 79 be
       -0.049614925 0.32942367 -0.3087145 -0.24320765
0000a0 5b c4 10 3e 94 d4 c1 3d 14 a8 73 3e 60 30 e5 bd
       0.14137404 0.09464374 0.23794585 -0.111908674
0000b0 d3 62 04 be 98 63 a5 3d bd 1f 96 3e f0 21 ec 3d
       -0.12928323 0.080756366 0.2932109 0.115299106
0000c0 f5 88 3a bd 67 62 7b bd 96 0c 7b bc 20 2a 6d be
       -0.04554077 -0.06137314 -0.015322825 -0.231606
0000d0 36 db 37 3e 75 ce ff be a1 13 05 3e 11 a4 84 3c
       0.17954716 -0.49962202 0.12995769 0.016191514
0000e0 78 84 49 3e 72 00 f5 be 5e 4c ec bd b9 3e ea bd
       0.19679439 -0.47851902 -0.115380034 -0.11437745
0000f0 e6 84 52 3e 6d af 71 3e 36 16 3d 3e c9 52 0e 3e
       0.20558509 0.23602076 0.18465504 0.13898768
000100 8b a8 05 be 18 14 13 bf d0 f7 c3 3e ea a8 ca 3e
       -0.13052575 -0.57452536 0.38275003 0.39581996
000110 19 a0 03 be 98 7f a3 bd e0 83 4c be fe af 0a 3e
       -0.12854041 -0.07983321 -0.19972181 0.13543698
000120 95 92 53 3d eb 58 8c be 0c 21 10 bf ca fa 34 3e
       0.051653463 -0.2741159 -0.56300426 0.17673793
000130 37 24 8a 3e 66 2f ce 3d 2f 27 83 be cb f3 1e 3e
       0.26980755 0.10067634 -0.25615832 0.15522687
000140 97 74 2e bd 9c 6d 0b 3e 80 2b c5 bd 4f 66 b0 3e
       -0.042591657 0.13616031 -0.096274376 0.34453055
000150 3b 0a 15 3e 93 e5 36 3d 30 d0 16 3e ea 61 f1 bc
       0.14554684 0.044652533 0.14727855 -0.029465634
000160 7b ec 8f 3d 03 6e 20 bc c9 cb 5d bc 32 48 18 be
       0.07027527 -0.009791854 -0.013537356 -0.1487129
000170 8a d5 15 3e ea d4 87 3e 9c 77 f7 3e 4b f9 d9 3d
       0.1463224 0.26529628 0.48333442 0.10643252
000180 af 42 ff 3e 78 8d 97 3d 86 38 09 3e 55 30 45 3e
       0.49855563 0.0740003 0.13400468 0.19256718
000190 e8 e1 4a 3e 3e a8 22 be 32 a9 45 be 51 ce 13 be
       0.19812739 -0.15884492 -0.19302824 -0.14434172
0001a0 46 d2 51 3e 70 e1 ae bd 84 b8 a9 3e 95 d4 15 bd
       0.20490369 -0.085390925 0.33148587 -0.036579687
0001b0 4a a4 53 bc ba bb 96 bd 4c f4 1d 3d 53 e6 41 3d
       -0.0129175875 -0.07360025 0.038563058 0.047338795
0001c0 04 74 83 3e 1e e4 0b bc 2f 65 f3 3d 52 7b c8 bd
       0.2567445 -0.008538274 0.118845336 -0.097891465
0001d0 8d d5 37 bf 86 ac e3 3d b6 be 3f be 20 ea 00 bf
       -0.7181023 0.111168906 -0.18725094 -0.50357246
0001e0 33 f9 8d 3d 6d 03 e7 3d ec a8 db 3e 77 6a 07 be
       0.069322966 0.1127995 0.42902315 -0.13224207
0001f0 ba 21 89 be 9d 4a 02 3e f5 5f f0 3d 5e 84 7d 3e
       -0.26783544 0.12723775 0.11737052 0.24757525
000200 0b 4d 79 3e 2f 3c e2 be 9c 45 d9 be fb 60 34 3e
       0.24345796 -0.4418654 -0.4243592 0.1761512
000210 1f 3d b4 3e 07 74 74 3e a7 94 c8 bd 55 0a 65 3d
       0.35202882 0.23872386 -0.09793978 0.055918057
000220 b5 1f 94 be 35 39 3a bf 1d 2c 9c 3d 73 ea 04 3f
       -0.2893044 -0.7274354 0.076256014 0.5192024
000230 44 3a 02 3d f7 dd 65 be d1 03 32 3d 4a e9 30 3c
       0.031793848 -0.22447954 0.04346067 0.010797808
000240 2d 06 ab 3c 34 20 9d bd f9 4e 20 3d fc 5e 0b 38
       0.020876968 -0.07672158 0.039137814 3.3228644e-05
000250 3e 9e 17 be 07 77 00 bf a8 00 2c 3d f9 38 dd 3d
       -0.14806458 -0.5018162 0.041992813 0.10801882
000260 cf 16 9c be 98 25 4e 3e 76 8e e7 3d b3 79 10 3e
       -0.30486152 0.20131528 0.11306469 0.14108925
000270 ea 9f 1a bd 6d 64 0e be ae ba ac be a4 cd 35 3e
       -0.037750162 -0.13905497 -0.33736175 0.17754227
000280 74 df 55 3e 9f 62 17 3e 72 fa 8e 3e 58 b9 5c 3e
       0.20886022 0.14783715 0.2792545 0.21555078
000290 90 ea 45 bd ac 29 82 be 11 80 c2 be 48 6e 55 3d
       -0.0483194 -0.25422418 -0.37988332 0.052107126
0002a0 e0 52 6d 3d c8 d1 54 be 1c 8e ce bd e9 81 d8 3d
       0.057940364 -0.2078315 -0.10085699 0.105716534
0002b0 80 00 81 3e e9 6a e1 bd 51 27 83 bd 21 40 4c 3e
       0.25195694 -0.110067196 -0.064039834 0.19946338
0002c0 5b 11 56 be a0 a0 dd 3d 85 6f 1e be 2a 30 cd 3e
       -0.20905058 0.108216524 -0.15472229 0.4007581
0002d0 a4 e6 bb bc d4 25 51 3d 3f 60 91 be 35 41 cc 3e
       -0.022937126 0.051061466 -0.28393742 0.398935
0002e0 97 cb a4 3e e6 18 41 be 5f b6 09 be 80 34 e4 3d
       0.32186577 -0.18857154 -0.13448475 0.11142826
0002f0 69 53 1c bf 20 40 98 be cc 02 2a 3e 0e f0 0c 3e
       -0.61064774 -0.29736423 0.1660263 0.13763449
000300 a4 ae 33 be 41 b7 57 3e df 1f c3 3d c1 4f d3 3e
       -0.17547089 0.21066 0.09527563 0.41271785
000310 34 9c 74 3e 19 eb 80 bd ff 0d 6f 3e 29 69 92 be
       0.23887712 -0.06294841 0.23345183 -0.28595856
000320 67 1e 85 be 74 df 19 3d e9 a0 6f 3e 86 fc 7a 3e
       -0.25999758 0.037566617 0.23401226 0.24510393
000330 8c da 7e 3e 7a da 8e be 3b c0 8b be 32 d0 cb bd
       0.24888057 -0.2790106 -0.27295098 -0.099518195
000340 98 82 c1 bd 70 4d 3a 3e 69 15 97 3d 97 c0 05 3d
       -0.09448737 0.18193603 0.073771305 0.03265437
000350 fb 98 92 3e 19 f2 38 be e1 73 31 3d a2 6e 02 bf
       0.2863234 -0.18061103 0.0433234 -0.5095006
000360 9a af 08 be f2 02 ec b9 89 22 eb 3d e6 66 a3 3e
       -0.13348237 -0.00045015622 0.114811964 0.31914443
000370 37 8e 19 3f b9 fe c8 3e 49 55 bb 3e c7 6c 10 3e
       0.5998263 0.39256838 0.36588505 0.14103995
000380 55 d6 8a 3e 17 e6 b0 be f4 72 05 3d a3 ff d7 bc
       0.27116647 -0.34550545 0.03258033 -0.026367014
000390 48 01 09 bf e7 f8 b0 be 2c 08 bb be 36 be 7a be
       -0.5351758 -0.34564897 -0.36529672 -0.24486622
0003a0 53 10 cd bd da b8 cb 3d 99 a2 30 be de 28 01 bf
       -0.10012879 0.09947367 -0.17249526 -0.50452983
0003b0 f0 4a 22 3e a9 cd a7 bd 53 d1 16 3e 32 74 fa 3c
       0.15848899 -0.081935234 0.14728288 0.030572984
0003c0 9f 2b 47 be 25 6e 4e 3e 26 c6 82 bd 6a 55 87 bd
       -0.19450234 0.20159204 -0.0638545 -0.06608088
0003d0 54 0f 5d 3e e2 0c 4a 3e 8f c5 f4 bd 1b 1c 8a bd
       0.21587878 0.19731477 -0.11951744 -0.06743642
0003e0 bf 46 8d bd 4c 25 a8 be 62 e0 46 3e 45 08 a5 3e
       -0.06898259 -0.32840955 0.19421533 0.32232872
0003f0 fb 99 fc 3d 04 3e 99 be b0 bd ad 3d f4 54 a1 3e
       0.12334057 -0.29930127 0.08483446 0.31510127

encoder.enc_blocks.0.conv1.bias f4 [32]
000000 67 5b 6f 3e 6a 91 41 be 17 d4 a1 be de a9 8d be
       0.23374711 -0.18903127 -0.31607124 -0.2766866
000010 8f 4e 6f 3e 36 26 65 be b0 a8 94 3d 2c 50 f7 be
       0.23369811 -0.22377858 0.07258737 -0.48303354
000020 f1 5a 64 be 4a d8 2d be 00 24 63 3d 27 c3 b7 3c
       -0.22300316 -0.16977039 0.055454254 0.022431923
000030 49 bd 23 be 2b 96 d0 3d 3e b7 99 3e 40 77 75 3e
       -0.15990175 0.10184892 0.30022615 0.23971272
000040 15 a1 02 3e 96 c4 9c 3c 8b 18 8a 3e ba 4f 67 3b
       0.1275676 0.019136708 0.2697185 0.0035295323
000050 7b 35 91 3c de 6a 91 bd da de a3 3e 57 24 08 be
       0.017725697 -0.071004614 0.3200596 -0.13295113
000060 c4 10 bf 3d 48 b4 dd bd f1 81 09 bd 4b 18 95 3e
       0.0932937 -0.108254015 -0.033571187 0.29120097
000070 b7 9b 04 3e 19 d0 56 3e a4 e9 f1 3e cc e2 d0 3d
       0.12950025 0.2097782 0.47248566 0.10199508

encoder.enc_blocks.0.batch_norm.weight f4 [32]
000000 86 7e 4a 3f 47 c8 17 3f 5f e4 92 3f 47 d6 a4 3e
       0.7909931 0.59289974 1.1475943 0.3219473
000010 6c 96 89 3f 1c ce 49 3f 88 89 cc 3e 53 7f a7 3f
       1.074903 0.7883012 0.39948678 1.3085731
000020 55 cb 83 3f 76 ac 95 3e 5c 6a b1 3e 04 ab b3 3e
       1.0296427 0.2923314 0.34651458 0.35091412
000030 c6 5d 1c 3f d5 19 87 3f 65 d6 d3 3e 8c 20 59 3f
       0.61080587 1.0554758 0.41374508 0.8481529
000040 2a 41 06 3f d6 70 e1 3e 85 59 71 3f 76 67 dd 3e
       0.5244318 0.440314 0.9427722 0.43242997
000050 fc 51 97 3f 28 b7 e4 3e fe ba 9d 3f e0 f4 3f 3f
       1.1821895 0.44670987 1.232269 0.74983025
000060 05 48 a8 3e f2 a1 44 3f 89 13 66 3f 1e 85 d3 3e
       0.32867447 0.7680961 0.8987356 0.41312498
000070 82 79 93 3f 25 60 dd 3e fd 19 85 3f e8 fb 3d 3f
       1.1521456 0.43237415 1.0398556 0.74212503

encoder.enc_blocks.0.batch_norm.bias f4 [32]
000000 fe 3d c1 be 3d e3 b7 be d6 dc 86 be 8b 63 1e bf
       -0.3774261 -0.35915557 -0.2634036 -0.6187064
000010 f0 01 dc bd 08 4f a0 be 86 35 37 bf 3d 8c c5 bd
       -0.10742557 -0.31310296 -0.71566045 -0.09645889
000020 ae aa 48 be a4 4f 0d bf cd d0 2b bf 67 76 0f bf
       -0.19596359 -0.55199647 -0.6711548 -0.5604004
000030 c8 4b a7 be d1 01 59 be 73 c5 db be 6c 91 7d be
       -0.32675004 -0.21192099 -0.4292408 -0.24762505
000040 80 dd 95 be 23 a5 fd be c3 11 e5 bd de 00 d0 be
       -0.29270554 -0.49540052 -0.111850284 -0.40625662
000050 d8 83 1a be b2 59 1b bf b4 6c c8 bd 4e d9 a0 be
       -0.15089357 -0.6068374 -0.097863585 -0.3141579
000060 44 f2 1f bf 8d ac 78 be 1a 36 af be a7 0f 05 bf
       -0.62479043 -0.24284573 -0.34220964 -0.5197701
000070 43 f9 59 be de 1d 19 bf 31 44 40 be a6 09 8a be
       -0.21286492 -0.598112 -0.18776013 -0.26960486

encoder.enc_blocks.0.batch_norm.running_mean f4 [32]
000000 a6 c1 7b 3d bd 6d 02 be 8c b4 ce be 9a 41 19 be
       0.061463974 -0.12737174 -0.4037212 -0.14966431
000010 82 ff 64 3e a5 97 8a be 35 4d 0f 3e e6 4c ff be
       0.22363093 -0.2706882 0.13994296 -0.49863356
000020 d3 0c a4 be 88 de ad 3c 03 ea e4 3e 29 f6 cf 3d
       -0.32041034 0.021224275 0.44709787 0.10154373
000030 1e f4 8c be b7 5c 24 3d 02 9a cf 3e 9b dd e3 3d
       -0.27529997 0.040127482 0.40547186 0.11126252
000040 89 52 a5 bd e9 56 10 3e ef a1 30 3e 99 c1 0d 3e
       -0.08072383 0.14095654 0.17249273 0.13843383
000050 7a ab 97 bd f3 c1 e6 3d 85 98 96 3e 7d 7c 4e be
       -0.074057534 0.11267462 0.29413238 -0.20164676
000060 f8 2f 1e 3f 7f 87 12 bf 41 ac 1f be 9b d1 b9 3e
       0.61791945 -0.57238 -0.15593053 0.3629273
000070 7f 99 5e 3d 3d 55 be 3e 2b dd e9 3e ef 0c 68 3e
       0.054345604 0.37174407 0.4567655 0.22661184

encoder.enc_blocks.0.batch_norm.running_var f4 [32]
000000 77 f9 98 3d fe bd f4 3b 61 3e d6 3c bb a4 1b 3d
       0.07469457 0.007468938 0.026152791 0.037998896
000010 01 53 83 39 95 0b 4e 3c 6b 42 25 3c f4 88 20 3a
       0.0002504811 0.012576004 0.010086636 0.0006123923
000020 65 85 b6 3c 71 f8 aa 3d 6b 23 b6 3e f5 af 53 3c
       0.022280404 0.08348168 0.35573897 0.012920369
000030 71 a9 02 3d d7 ea 12 3c 45 2d be 3c 3c c5 1d 3d
       0.031899873 0.008967123 0.023214946 0.038518175
000040 2c a6 cb 3d 9e f7 fa 3c c7 1f de 3c 73 4d 1d 3d
       0.09943804 0.030635651 0.027114762 0.03840394
000050 0c cf ab 3c bd 9c a7 3d 88 a5 d6 3a 04 30 38 3c
       0.020972751 0.08184192 0.0016376236 0.011241917
000060 5a 5b 23 3f d4 01 fd 3e c8 20 0e 3d af fc 2b 3c
       0.63811266 0.49415457 0.03469923 0.010497256
000070 2d 73 71 3c 2e fb 61 3d 25 4f 29 3a a3 a5 01 3d
       0.014736933 0.055171184 0.0006458632 0.031652104

encoder.enc_blocks.1.conv1.weight f4 [64, 32, 5]
000000 15 36 42 bc f1 6a d1 bd 24 39 a3 be 1c 12 5f bc
       -0.0118537145 -0.102254756 -0.31879532 -0.013615157
000010 16 bf 74 bd 4e ea 99 bd b4 1a 39 3c 11 eb 02 bd
       -0.059752546 -0.07515393 0.01129787 -0.031962458
000020 7d 8c 4d 3d ea 51 0e 3d ba f8 5f bd a8 8f a3 3d
       0.05018281 0.034746088 -0.054680564 0.07986385
000030 9c e6 00 be 5a e1 98 3d 53 0d 2d bd 2e 72 1e 3c
       -0.1258797 0.074648574 -0.042249035 0.009670777
000040 d4 49 c4 bd 19 00 6e bc d4 e0 a6 3d e9 53 a3 bc
       -0.09584394 -0.0145263905 0.08148351 -0.019937472
000050 b1 82 a1 3d 63 7e d8 bc 8d 1d cb be 33 4b bb bd
       0.078862555 -0.026427453 -0.39670983 -0.091452025
000060 bb a7 f0 3b 2a 49 d4 3c 43 a1 5e 3d e4 dc 3a be
       0.007344214 0.025913794 0.05435301 -0.18248326
000070 8e 5e 4c 3d c9 62 c8 bc 6a fa e5 3c 28 7d 8d 3c
       0.049894862 -0.024461167 0.028073508 0.017271593
000080 c0 48 29 3d 22 d7 bf 3d 18 f0 6e 3c 10 f6 b4 3c
       0.041329145 0.09367205 0.01458361 0.022089988
000090 f7 9d 18 3e ba 6e f1 be eb 6c 20 3e db 54 05 3d
       0.14904009 -0.4715479 0.15666549 0.032551628
0000a0 75 9d 9c 3d 92 d0 87 bd 71 a4 a8 be 25 59 0c 3d
       0.0764722 -0.066315785 -0.3293796 0.034264702
0000b0 da 57 3e 3c fd 2c 6a bd e7 8e dc bd 20 54 5b be
       0.011617625 -0.05717181 -0.10769444 -0.2141881
0000c0 f0 7d ff 3c 34 ad 0f bc 29 9d 77 3d f0 a0 c0 3c
       0.031187981 -0.008769322 0.060452614 0.023514241
0000d0 54 68 f4 bd 99 f0 a5 bb 9d 3e ae 3b bf cc 44 3d
       -0.119339615 -0.005064082 0.0053175227 0.048046824
0000e0 33 4e c1 3c f5 d7 e0 bd 7d 03 cf 3c 6d ed 64 3d
       0.023596859 -0.109786905 0.025270218 0.05589049
0000f0 37 91 3c 3d 96 e2 ea bc 53 60 c3 be 64 b8 f6 bd
       0.046036925 -0.028672498 -0.38159427 -0.120468885
000100 fe 96 97 bd 8d 5f 87 3d d7 59 57 3c bf 19 c2 be
       -0.07401846 0.06610022 0.013143978 -0.37910268
000110 84 3b 1b bd d7 28 54 3d 7a 72 58 3d a2 5e 18 3d
       -0.037898555 0.05179676 0.05284355 0.037199624
000120 66 c6 f2 3b fa bc a3 bb 68 0a 99 3b 1d 5c 5d 3d
       0.007408905 -0.004996893 0.00467043 0.054042924
000130 1d 1c 92 3d 82 ee e7 be 37 86 d5 bc 0b 3a 7c bd
       0.071342684 -0.45299155 -0.026064975 -0.06157879
000140 b0 a1 1d 3d cf e0 87 bc 6f 66 cd be 76 df 80 bd
       0.038484275 -0.01658669 -0.40117213 -0.06292622
000150 df 4f 2d bd 6c ce 86 3d 7f f1 10 bd 75 4e 8a bd
       -0.0423125 0.065823406 -0.03538656 -0.06753246
000160 16 46 00 bd 5e f8 21 bd b5 83 24 3d 49 e5 46 3d
       -0.03131684 -0.039543502 0.040164668 0.048558507
000170 d7 ef be be 07 56 81 bd 29 a7 20 bb 04 e3 48 bd
       -0.37292358 -0.063152365 -0.0024513698 -0.049044624
000180 f1 c9 c3 bc 8d f6 f9 bd 3c 38 10 bd 5d 29 d7 bc
       -0.023900004 -0.12205229 -0.03520988 -0.02626484
000190 c3 26 9b bd 32 78 ee bd 3a 58 e1 be 28 1e 0f be
       -0.075757526 -0.11644019 -0.44012624 -0.13976347
0001a0 2b 8f 05 3d 48 d2 70 bd 6c 7c 23 bd 5c 40 a0 bd
       0.03260724 -0.05879429 -0.03991358 -0.078247756
0001b0 38 e3 c5 3c 13 6d 96 bd 68 53 9b bd 49 bc e9 bd
       0.024156198 -0.07345023 -0.07584268 -0.11412866
0001c0 15 b0 d6 be e8 d2 d8 bc 2e 14 96 3d 8a 82 aa 3c
       -0.41931215 -0.026467755 0.07328068 0.020814199
0001d0 e1 14 84 bd b5 e5 ea be 88 aa c2 3c 49 25 c3 bc
       -0.06449295 -0.45878378 0.023762956 -0.02382149
0001e0 1f b7 ef bc c2 1d a7 3d e3 ce ab bd 0e 42 6d bc
       -0.029262124 0.08159973 -0.0838907 -0.014481081
0001f0 46 33 dc bc 29 ed 29 bc 70 32 e7 3a c3 c3 b5 be
       -0.026879918 -0.010371485 0.0017638933 -0.35500917
000200 08 bb 8b bd 77 3d 4c bd 30 04 0f 3d 0a 49 ed bc
       -0.06822783 -0.049863305 0.034916103 -0.028965492
000210 be 02 dd be a3 4b 12 3d 6b 36 e9 bc af e8 51 3d
       -0.43166155 0.035716664 -0.028468331 0.051247295
000220 e7 44 63 bd 2d 24 cb bd 73 47 32 3d c7 64 81 3d
       -0.055485632 -0.09919009 0.04352517 0.0631805
000230 5f db 7b 3d 45 f2 3f be a2 b8 bc be 82 66 c9 bd
       0.061488505 -0.18744762 -0.36859614 -0.09834005
000240 44 55 68 bc 88 0b 1f bd 36 97 87 bc af 2c 4c bd
       -0.014180485 -0.038829356 -0.016551595 -0.0498473
000250 2c eb 50 bd aa 2b 52 3c 99 e0 27 3d 56 eb 86 3d
       -0.051005527 0.012827793 0.040985677 0.065878555
000260 ae 60 9c be 2d 6f 9b 3d 9c e1 fb bb e1 bc 9e bd
       -0.3054251 0.075895645 -0.007686807 -0.077508695
000270 b7 40 c4 3d a2 89 19 bd 3a c2 83 3b 16 aa 7a 3c
       0.09582656 -0.037484773 0.0040209563 0.015299341
000280 fd 26 40 3d 99 37 be bc 23 c0 e1 bd 99 8c 22 3d
       0.046912182 -0.02321987 -0.11022975 0.039684866
000290 fb 63 18 bd 93 c4 1f bd 2e ce 43 3d b8 11 ac bb
       -0.037204724 -0.039005827 0.04780405 -0.0052511357
0002a0 bc fc a6 3c d8 8a 97 3d 27 82 72 bc fe 19 48 bd
       0.020384185 0.07399529 -0.014801539 -0.048852913
0002b0 3a 69 dc 3c 10 69 af 3c 78 25 8a 3c 42 8d 8e bd
       0.026905645 0.021412402 0.01686357 -0.069605365
0002c0 b4 17 09 3e 63 6b 2a 3e 56 bc a1 bd b4 a0 76 3d
       0.13387948 0.16642527 -0.0789725 0.060211852
0002d0 9e 7e 76 3c 04 c0 7d be 71 a1 50 be 14 8b e0 bd
       0.015044836 -0.2478028 -0.20374085 -0.10964027
0002e0 05 18 52 39 33 1a 1b 3d 89 27 e1 bc e9 25 d0 bd
       0.00020036109 0.037866782 -0.027484672 -0.10163481
0002f0 d2 a1 e5 be 5f 5b 26 bd 54 aa ae bc 5f 5f a3 3d
       -0.44850022 -0.040614482 -0.021321453 0.07977175
000300 d7 89 14 3e 9e 27 2b be 63 15 db bc 0c f3 5f 3d
       0.14505707 -0.16714332 -0.026743596 0.054675147
000310 2e 79 5d 3d 1e 17 29 3e 8a ae 2c 3d d4 3b 33 3d
       0.054070644 0.16512725 0.04215864 0.04375823
000320 17 71 94 3c 36 25 8d bc da 94 d3 bd 6a da 90 3c
       0.018120332 -0.017229658 -0.103311256 0.017682273
000330 e0 5f 8f 3d 74 19 b4 3b 21 8e ba bd 52 a2 fd bd
       0.070007086 0.0054961983 -0.0910914 -0.12384476
000340 4e eb 2e 3d d9 0a 59 bd 0b 7b e6 b9 b7 c4 0a 3e
       0.042704873 -0.05298886 -0.00043960693 0.13551603
000350 c2 33 7d 3e a9 7f 7c bd e0 81 6f 3d 10 df b5 bc
       0.24726775 -0.061645184 0.058473468 -0.022201091
000360 46 4f 27 bd 0a 5a 6e bc 50 f9 1f bd e5 98 82 bd
       -0.040847085 -0.014547834 -0.039056122 -0.063768186
000370 e9 8d 1b bd 40 7e d8 bd 40 1c 63 be c6 7c c7 3d
       -0.037977133 -0.10570955 -0.22178745 0.097405955
000380 0a 9d 9c 3d ca da 51 3d 15 9c 5f 3d 0f e5 64 bd
       0.0764714 0.051234044 0.05459221 -0.05588251
000390 2a 62 10 3d 51 a2 94 3d a5 20 ea 3c 94 51 80 3d
       0.035249867 0.07257522 0.02858002 0.0626556
0003a0 d5 39 64 3d 91 5f 52 3d 60 f1 9c 3d 54 08 b2 3c
       0.055719215 0.05136067 0.07663226 0.021732487
0003b0 73 66 bf bd 16 46 04 be 71 c1 fa 3c 18 da 25 3d
       -0.093457125 -0.1291736 0.030609818 0.040491194
0003c0 e7 d0 8d 3c ea c7 7b bd 07 61 33 be 41 5a ac bc
       0.017311526 -0.06146995 -0.17517482 -0.02103913
0003d0 1b 2b 36 bd 5a 16 eb bc 18 0c 46 3c 0f 6a 9a 3d
       -0.044474702 -0.028697181 0.012087844 0.0753976
0003e0 9f 4d 3f 3d 8b 60 0d bd fe 5e d2 3c 8f 38 d6 bd
       0.046704885 -0.0345159 0.025680061 -0.104600064
0003f0 ce 5b 57 be 1f 0f a2 bd f9 bf 13 3d c9 45 79 3d
       -0.21031114 -0.0791304 0.03607175 0.060857568

encoder.enc_blocks.1.conv1.bias f4 [64]
000000 b2 ea 13 bd 81 a7 a9 bc de 16 86 3d 62 e4 57 bd
       -0.036112495 -0.020709755 0.0654733 -0.052708037
000010 05 df cf bc a8 70 50 bd c1 ac a0 3d 10 51 2d 3d
       -0.025374899 -0.050888687 0.0784545 0.042313635
000020 b8 f3 5e bd 29 00 ae 3c ba a2 a0 bd d2 01 4d bb
       -0.054431647 0.02124031 -0.07843538 -0.0031281603
000030 cd 46 95 3c b4 9f 1b bd 85 63 3a 3c 54 6d 94 3d
       0.018222237 -0.0379941 0.011376266 0.07247415
000040 7f c1 91 3d 31 bd 46 bd 6f 5a e8 3c d7 44 96 3d
       0.071169846 -0.04852027 0.028363435 0.07337349
000050 41 f3 ee bc 5e 12 19 bb 94 0f 69 bd 7f a5 51 3c
       -0.029168727 -0.0023356895 -0.056899622 0.012795805
000060 af 07 60 3d c6 ab a1 3d fe ec 91 bd 0b 26 67 3d
       0.054694828 0.07894091 -0.07125281 0.056432765
000070 30 b3 ed 3c b8 8c 1b bd 0d dc 98 3d c3 2e 40 3d
       0.029016107 -0.037975997 0.07463846 0.046919595
000080 8c 93 69 3d ce 2d 96 bd b0 b4 ea bc 50 92 80 3d
       0.057025477 -0.07332955 -0.028650612 0.06277907
000090 21 b9 5c 3c be 06 13 bd 48 3d 45 bd 6f b8 3f 3d
       0.013471873 -0.0358951 -0.048154145 0.04680675
0000a0 5f b8 3b bb 30 d7 7f 3d 5e 34 bf 3c 47 bf 69 bd
       -0.002864383 0.06246108 0.0233404 -0.057067182
0000b0 3d cd 50 bb c0 8a 27 3c 07 16 9d 3c b6 b9 70 3c
       -0.0031860613 0.010225952 0.019175543 0.014692714
0000c0 63 15 2f bd b4 b3 6c 3d 20 08 e2 bc ec 39 84 bd
       -0.042745005 0.057788566 -0.027591765 -0.0645636
0000d0 31 ac 8f 3c 35 8d ce 3c da 9b 42 3d 42 bb 9f 3d
       0.017538162 0.025213817 0.047511913 0.077993885
0000e0 8b fa 08 bc e9 bc 64 3d ab e9 48 3d 93 a6 16 bd
       -0.008360515 0.05584422 0.04905097 -0.03677995
0000f0 43 85 4d bd 1b c7 af bc b6 30 00 3d 49 3e 9d bc
       -0.050175916 -0.021457246 0.031296454 -0.019194739

encoder.enc_blocks.1.batch_norm.weight f4 [64]
000000 e9 73 11 3f 7a be 36 3f fe c3 09 3f 1c 3a b1 3f
       0.5681749 0.71384394 0.53814685 1.3845859
000010 d6 9a 15 3f 1d f6 1f 3f b9 94 79 3f 89 7b 4e 3f
       0.58439386 0.62484914 0.9749256 0.8065725
000020 63 4b 35 3f f9 15 1d 3f 66 ec 6c 3f 59 68 43 3f
       0.70818156 0.6136165 0.92548215 0.76331097
000030 9a 1b 83 3f e9 14 97 3f 03 0d 1d 3f f8 5f c8 3f
       1.0242798 1.1803256 0.6134798 1.5654287
000040 9c de 1e 3f 99 02 3e 3f d7 6c 48 3f 9d b0 0c 3f
       0.62058425 0.74222714 0.78291076 0.5495699
000050 bf 69 11 3f e3 d9 4d 3f c5 e4 25 3f 8e 9f 13 3f
       0.5680198 0.80410594 0.648022 0.57665336
000060 39 64 37 3f b8 22 0d 3f a2 42 68 3f ed 31 8a 3f
       0.716373 0.551311 0.90726674 1.0796486
000070 dd 0f 0f 3f da 78 13 3f 4f ec 14 3f e9 3b 08 3f
       0.5588358 0.5760628 0.5817308 0.53216416
000080 d4 b3 78 3f 38 9f 2a 3f f6 7d 4f 3f f1 66 16 3f
       0.97149396 0.666492 0.81051576 0.58750826
000090 49 74 13 3f 95 0b 0d 3f 49 78 88 3f 40 63 0a 3f
       0.5759931 0.550958 1.0661708 0.54057693
0000a0 a4 92 1a 3f 04 74 2d 3f fc 01 16 3f 28 d6 2e 3f
       0.60380006 0.6775515 0.5859678 0.68295527
0000b0 df 29 19 3f fb 74 4f 3f 3d ad 83 3f 8e 6d 0f 3f
       0.59829515 0.81037873 1.0287243 0.5602654
0000c0 0d 9e 48 3f e2 5d 1a 3f e4 17 8b 3f 2b cf 14 3f
       0.78366166 0.60299504 1.0866666 0.58128613
0000d0 24 78 10 3f 0b a6 8d 3f b1 be 18 3f 2c 87 2c 3f
       0.5643332 1.1066297 0.5966597 0.67393756
0000e0 39 a2 43 3f 72 b4 22 3f 0a 66 16 3f 83 00 16 3f
       0.7641941 0.6355659 0.5874945 0.5859453
0000f0 fa 54 62 3f 6d c3 1f 3f b2 e6 15 3f 77 aa 15 3f
       0.88410914 0.6240757 0.5855514 0.58463234

encoder.enc_blocks.1.batch_norm.bias f4 [64]
000000 96 79 cb be cc 20 cc be 81 0b d2 be 18 08 c8 bd
       -0.397412 -0.39868772 -0.41024402 -0.09767169
000010 c1 58 cb be 47 27 d3 be 08 89 70 be 9d 3a a6 be
       -0.3971615 -0.41240904 -0.23489773 -0.32466593
000020 f0 d5 de be e4 4a 13 bf 13 a1 72 be 23 b1 9b be
       -0.43522596 -0.5753615 -0.23694257 -0.30408582
000030 de 6c 97 be f3 ba 09 be 00 ad ba be fd a1 45 bd
       -0.29575247 -0.13450222 -0.36460114 -0.048250187
000040 60 c9 c2 be a0 9b e2 be 81 4e ab be 46 a3 e7 be
       -0.38044262 -0.44259357 -0.3345833 -0.45241755
000050 43 61 c8 be fe 05 cd be f5 71 e4 be 29 b8 e5 be
       -0.39136705 -0.40043634 -0.44618192 -0.44867066
000060 c9 0e 99 be 61 de cb be 1b 06 e3 be a0 7b 45 be
       -0.29894093 -0.398181 -0.44340596 -0.1928544
000070 51 50 de be 83 15 d4 be 23 c8 e5 be ee b2 f3 be
       -0.43420652 -0.41422662 -0.44879255 -0.4759745
000080 8a 75 3c be 07 55 b8 be 1b 56 e3 be 0e e5 d6 be
       -0.18404213 -0.3600237 -0.4440163 -0.4197163
000090 d4 fc dc be c4 a8 e1 be ca 5f 6e be 46 de f6 be
       -0.43161643 -0.4407407 -0.23278728 -0.48216456
0000a0 69 e5 0f bf c3 5b b8 be fa 23 c9 be 6f e5 d7 be
       -0.5620943 -0.3600751 -0.3928526 -0.4216723
0000b0 f0 5a be be 28 eb 05 bf d4 60 6f be 9e 1e e6 be
       -0.37178755 -0.52311945 -0.23376781 -0.44945234
0000c0 50 85 ce be f0 23 ce be 02 e4 dd bd c1 b4 da be
       -0.40336084 -0.40261793 -0.10834505 -0.4271603
0000d0 37 28 d3 be 43 e7 e4 be b4 53 c3 be b1 a0 cc be
       -0.4124162 -0.4470769 -0.38149798 -0.39966348
0000e0 3e 08 9c be e4 03 f2 be 83 50 df be 91 06 b7 be
       -0.30475038 -0.47268593 -0.43616113 -0.35747197
0000f0 99 8e 8b be e6 a3 db be 9c f6 c9 be f7 27 da be
       -0.2725723 -0.42898482 -0.3944596 -0.42608616

encoder.enc_blocks.1.batch_norm.running_mean f4 [64]
000000 2d 78 02 c0 73 75 9b bf d3 37 ab bf e1 07 59 be
       -2.038585 -1.2145218 -1.3376411 -0.21194412
000010 ce bd 1b c0 3a 17 7f bf ad 4a 94 be 66 25 38 bf
       -2.4334598 -0.99644816 -0.28963223 -0.71932065
000020 5f 59 3d bf d3 d6 96 3d 75 16 c7 bf 08 f4 a3 bf
       -0.73964494 0.07365193 -1.5553728 -1.2808847
000030 c1 3d 15 3c 26 29 86 3d 6d 6e 12 c0 2a f3 32 be
       0.009108962 0.06550817 -2.2879899 -0.17475572
000040 b1 55 97 bf bb c2 cf be 48 33 bc be 12 cd 7f bf
       -1.1823026 -0.40578255 -0.36757874 -0.9992229
000050 46 f2 f8 bf 3f 43 5e bc 60 32 e7 be b9 e8 94 bf
       -1.9448936 -0.013565837 -0.4515562 -1.1633521
000060 d8 9e 6f bf 42 a5 80 bf 39 42 d9 be cd 44 52 bf
       -0.9360175 -1.0050433 -0.42433336 -0.8213623
000070 99 10 b2 bf ac c2 fa bf d0 59 89 bf bb fb ec bf
       -1.3911315 -1.9590659 -1.0730534 -1.8514322
000080 ff ab b6 be cf 25 cf bf 22 29 2d bf c9 e2 a7 bf
       -0.35678098 -1.6183413 -0.6764089 -1.3116084
000090 c8 10 cf bf a9 0f 13 c0 9f ce 35 be 0f 1b 84 bf
       -1.6176996 -2.2978308 -0.17754601 -1.0320758
0000a0 d2 0c f1 3e 83 00 6c bf 33 26 b1 bf 33 e7 c7 bf
       0.47080094 -0.9218828 -1.3839782 -1.5617431
0000b0 88 29 15 c0 f3 16 e4 bd 08 c0 98 be d3 09 ba bf
       -2.3306599 -0.1113719 -0.29834008 -1.4534248
0000c0 9e 00 53 be 59 85 14 c0 72 fa f8 be f6 9c a3 bf
       -0.20605704 -2.320639 -0.48628575 -1.2782276
0000d0 02 67 08 c0 ab 62 6c be 41 cd b8 bf ae 14 6f bf
       -2.131287 -0.23084514 -1.4437639 -0.9339093
0000e0 c4 e9 e4 3c d5 36 6b bf be e0 9c bf c9 9c e2 bf
       0.0279435 -0.9188054 -1.2256086 -1.7704097
0000f0 26 5b bc bf 3a f9 47 bf 30 9a 86 bf d4 08 18 c0
       -1.4715316 -0.78114665 -1.0515804 -2.3755388

encoder.enc_blocks.1.batch_norm.running_var f4 [64]
000000 87 5c 3c 41 76 66 6d 3f 15 94 d7 40 6b 53 ce 3d
       11.77259 0.9273447 6.7368264 0.100745045
000010 1d a4 69 41 8a e5 57 3f 9e 89 cd 3d 5d 5d a3 3e
       14.602567 0.84334624 0.10036014 0.31907168
000020 b9 bc f8 3f 38 42 b3 3d 07 b2 2f 3f ae 59 e1 3f
       1.9432594 0.087528646 0.68631023 1.7605493
000030 51 4c ab 3d f1 44 40 3e c1 76 18 41 40 ed 05 3d
       0.083641656 0.18776299 9.528993 0.032696962
000040 d5 7b 06 40 ed 57 63 3e 5f 8e c0 3f 03 cd 87 40
       2.101308 0.2220151 1.5043448 4.243776
000050 1b 2e 33 41 5d 82 35 3e 89 88 2a 3f 58 4d b2 40
       11.198756 0.17725511 0.66614586 5.5719414
000060 f0 cf f1 3f e6 76 82 40 cd 94 61 3e b6 1a 19 3f
       1.8891582 4.077014 0.22029419 0.5980638
000070 5f 1c 9b 40 20 3a 09 41 11 bf cd 3f 66 9c 28 41
       4.8472133 8.576691 1.6073934 10.538183
000080 18 7e 19 3e fa 87 be 40 38 ff ad 3e 66 d3 df 40
       0.14989507 5.9540987 0.3398378 6.9945555
000090 c3 4f 18 41 ed 85 a3 40 08 21 2c 3e 8e 32 a3 40
       9.519473 5.1100984 0.16809475 5.099921
0000a0 3a a9 ce 3c b3 07 e9 40 86 e7 dc 40 db 38 63 3f
       0.025227178 7.28219 6.903262 0.8875863
0000b0 9d 80 d0 40 60 57 f0 3c e4 e0 39 3e 38 71 02 41
       6.5157 0.029338539 0.18152195 8.152641
0000c0 ad 70 95 3d 12 2f 18 41 4f 87 13 3e 58 95 a5 40
       0.07296882 9.511492 0.14407085 5.1744804
0000d0 72 69 3b 41 6b fb 38 3e 5b d4 18 40 9e da 75 40
       11.7132435 0.18064658 2.3879611 3.8414683
0000e0 e8 34 77 3d 5b ed c4 3e 75 7e cd 40 63 5f 44 41
       0.06035319 0.38462338 6.4216866 12.273288
0000f0 31 9b f0 3f 99 4d b1 3f 40 01 49 40 b4 42 09 41
       1.8797361 1.3851806 3.1407013 8.578785

encoder.enc_blocks.2.conv1.weight f4 [64, 64, 3]
000000 2c 25 c2 3d 4d eb 1f 3d dd 92 18 3d a3 03 24 be
       0.09479746 0.03904276 0.037249435 -0.16017012
000010 8b 6a 49 3e 57 5f 37 bd 96 36 ba bb 03 91 2d bd
       0.19669549 -0.044768658 -0.0056827767 -0.042374622
000020 7d 71 7e bc 3b f7 93 bc 03 78 69 3e 2c 92 0e bd
       -0.015529987 -0.018062225 0.22799687 -0.03480737
000030 47 40 39 3d d7 21 76 bc db 2d 95 bd a6 bc dc 3d
       0.045227315 -0.0150227165 -0.07284137 0.10778169
000040 de e8 00 be a1 d6 4b 3d ad 61 92 3d f3 f4 89 be
       -0.12588832 0.049765233 0.071475364 -0.26944694
000050 c8 f6 d4 bd 4d 04 96 3d 8a 7c 37 be b6 2e c7 3d
       -0.10398632 0.07325039 -0.17918602 0.09725706
000060 a2 74 6b 3c dc 24 8a 3d c3 f9 95 bd d1 77 94 bd
       0.014371069 0.067453116 -0.07323029 -0.07249416
000070 76 a7 8d 3b a3 9f 6e bc 56 8f 90 3d 3a de 54 bc
       0.0043229414 -0.014564428 0.07058589 -0.012992436
000080 b4 39 fc bc eb d2 6d bc 73 c2 b3 bb 77 7d b7 3c
       -0.030789234 -0.014515619 -0.0054858266 0.022398693
000090 ed 08 4d be a8 d8 d2 3d 05 9e c0 bc 58 20 0c be
       -0.20022936 0.1029523 -0.02351285 -0.13684213
0000a0 4c f1 66 3e 58 b7 be 3d 4a c6 79 3d b9 72 6a bd
       0.22552985 0.09312314 0.06098012 -0.057238314
0000b0 ff 9b 0e 3c 71 88 4e 3e 75 d5 69 be 9c 26 ba 3b
       0.008704185 0.20169236 -0.22835334 0.005680872
0000c0 f6 48 4c 3d 67 f7 95 bd 6d 10 4a 3b b5 03 f6 bc
       0.04987427 -0.07322579 0.0030832544 -0.030031065
0000d0 cc 1f 57 bd 53 70 2a be 86 a2 95 bd b7 98 40 be
       -0.05252056 -0.16644411 -0.073063895 -0.18808256
0000e0 6b 0c ac ba ac a5 a9 bd a1 cd f5 3a 3e d3 8e bc
       -0.001312626 -0.082835525 0.0018753299 -0.017434712
0000f0 20 01 e8 3c da 3f 61 bd 28 95 b6 bc 1b 23 15 be
       0.028320849 -0.054992534 -0.02228792 -0.14564173
000100 09 ff 6b bd dd 54 d0 bd 62 54 34 bc 87 be bf 3d
       -0.057616267 -0.101724364 -0.011006447 0.09362512
000110 0f 6f 3b 3d 7d 49 53 3c 38 e0 f3 3c 45 f5 4b bd
       0.04576021 0.012895939 0.029770002 -0.049794454
000120 9d c2 20 bc 60 5d 2b be 87 c9 30 be f3 80 5f bd
       -0.009812024 -0.16734838 -0.17264377 -0.054566335
000130 34 e5 c5 3c c2 06 6b bd a4 67 e5 3d 46 13 d9 3d
       0.024157144 -0.05737949 0.112014085 0.10599379
000140 9c 30 86 3c 87 23 51 bd 2a 7b e6 bd 6f 98 56 bd
       0.0163806 -0.051059272 -0.112539604 -0.052391466
000150 5c 98 2d bc ce b3 b2 bc 9a 69 1c bc 22 61 d4 bd
       -0.010595407 -0.021814253 -0.009546662 -0.10370089
000160 2e 00 4e bd de 66 fe bb 8b 60 29 bd 7f 66 38 3d
       -0.05029314 -0.0077637276 -0.041351836 0.045019623
000170 dd b9 23 bd e3 0b 55 bd 4e 8c 5b bd d1 38 39 bd
       -0.039972175 -0.05201329 -0.0536006 -0.0452202
000180 50 b7 d8 3d 44 71 3f be 01 ab 81 bd 95 fc bd 3b
       0.10581839 -0.18695551 -0.063314445 0.0057979324
000190 ca 0a 91 bc c1 5e e8 bd eb 9d d7 3d 9c 1a 75 be
       -0.01770534 -0.11346198 0.10528167 -0.23935932
0001a0 8f 59 db bd dd 65 b7 3d b7 f1 a7 3c 18 dc 68 bb
       -0.10710441 0.08954976 0.020501 -0.0035531577
0001b0 da c9 1c bd 30 a0 85 bd 22 97 70 3d 3c 7f bc 3c
       -0.03827844 -0.06524694 0.05873788 0.023009889
0001c0 c6 c1 09 3e 00 97 d4 3d f1 ff 44 bd 5f 6d 56 3e
       0.13452825 0.103803635 -0.048095647 0.2094016
0001d0 d7 29 a0 3d f1 c1 ef 3c 4a ad 76 3d e9 78 dd 3c
       0.0782048 0.029267283 0.060223855 0.027035194
0001e0 4d 2c 1c bd 92 4a f1 bd f3 db af 3c f1 24 82 bd
       -0.038128186 -0.11781801 0.021467185 -0.06354702
0001f0 df 2f 7e bd 20 9a 3f 3e be 59 e2 3d 0f 4e 8e 3d
       -0.062057372 0.18711138 0.11052273 0.06948482
000200 58 be e0 3c 09 71 21 3e 4c e1 28 3e a0 67 3d 3d
       0.027434513 0.15765776 0.16492194 0.046241403
000210 1b 6f c9 3d 6d 6e 68 bc 73 60 b4 bd 70 d8 dc bd
       0.09835645 -0.014186484 -0.08807459 -0.1078347
000220 f3 11 f3 bc 63 c8 86 bd d1 26 db bc 21 40 86 3d
       -0.029671645 -0.065811895 -0.026751908 0.065552
000230 39 db 89 bd 96 e0 a5 3d 96 4d 23 bd 04 fe 54 3d
       -0.067312665 0.08099477 -0.039868914 0.05200006
000240 7e b6 40 3c 8d d0 83 3d 05 a5 b4 bd 9e 70 a3 3d
       0.0117622595 0.06436262 -0.088205375 0.079804644
000250 48 00 cd 3d fb ba 39 3c 1d 5e 0b 3e 8b 86 76 be
       0.10009819 0.0113360835 0.1361012 -0.24074762
000260 e2 84 b9 bc 6e 64 22 3c d9 76 12 bd be c2 c8 3c
       -0.022646371 0.00991164 -0.035757873 0.024506923
000270 12 22 03 be 09 7f bf bb 76 78 94 3d 64 67 79 be
       -0.12805966 -0.005844001 0.072495386 -0.24355847
000280 cb 9c e0 3e 20 25 52 3e ad 60 95 3d f7 82 0f bd
       0.43869624 0.20521975 0.0729383 -0.035037007
000290 31 fb a2 bd 62 ef 2a bb a0 05 49 3c ad c7 6d 3d
       -0.07958067 -0.0026082625 0.0122694075 0.058051754
0002a0 3f 68 1f bd 46 5b 2c 3e 7f 4d 8a bd f8 3b 78 3e
       -0.038917776 0.16831693 -0.067530625 0.24241626
0002b0 7d 1b 1d be b2 d3 9c 3e 56 73 00 3d fb 1f 60 3c
       -0.15342517 0.3063026 0.031359993 0.0136795
0002c0 a0 fd 2e bd 25 11 2e bc 48 5b cf bd 7c 8c 8d bd
       -0.042722344 -0.010624205 -0.101248324 -0.06911561
0002d0 f7 7f 18 3d ba 2e 93 bd 66 e5 b0 3b 22 94 29 be
       0.03723141 -0.07186647 0.00539844 -0.16560414
0002e0 7e 5c 8b 3d 18 f9 1d bd 4e 2c 55 3d ec f6 19 bd
       0.06804751 -0.038567632 0.052044205 -0.037589
0002f0 84 e5 f0 bc 98 2f 95 3d 45 08 a6 3c a5 e5 e6 3c
       -0.029406317 0.072844684 0.020267615 0.028185675
000300 5c d7 9b bc 35 4e 5e 3d 59 45 27 3b 9f cf cb 3d
       -0.01902359 0.054273803 0.0025523512 0.0995171
000310 00 21 2a 3e 87 5e 27 bd eb 3d a6 3c 92 b5 e6 bc
       0.16614151 -0.040861633 0.020293197 -0.028162751
000320 5b b7 5b 3d 86 24 5f 3e 0f ee 5c 3d bd 13 d0 3e
       0.05364166 0.21791276 0.053937968 0.4064006
000330 b4 72 8f 3d 44 d2 19 bd de 68 2d 3d 95 19 92 3d
       0.070043 -0.03755404 0.042336337 0.07133786
000340 a8 bc 5b 3d 59 98 50 3d 9c fa 19 bd 39 de 04 be
       0.053646713 0.05092654 -0.037592515 -0.12975396
000350 5a c0 00 be cd 41 71 be 4e d6 16 be 89 34 25 bb
       -0.12573376 -0.23560257 -0.14730188 -0.0025208315
000360 1d 82 21 3e 79 0c 2a 3e 22 35 e1 3d 09 ee 43 3d
       0.1577229 0.1660632 0.109964624 0.04783443
000370 3c 55 83 3d 28 da 83 3e a3 2d c5 bd de 67 f9 bc
       0.064127415 0.25752378 -0.09627845 -0.030445036
000380 ee 0f 1d 3e 7d b4 c7 bd df e7 6f bd 80 2f d4 3d
       0.15338108 -0.09751222 -0.05857074 0.103606224
000390 92 34 1d 3e 47 2f 01 3e ba 05 52 3e ab 75 d8 3d
       0.15352085 0.12615691 0.20509997 0.105693184
0003a0 c3 a5 0f 3e 5b ba 15 3e 20 34 7e bd 08 f9 11 bd
       0.14028077 0.1462187 -0.06206143 -0.035637885
0003b0 eb e3 87 b9 fe a9 75 be 17 35 16 be 6e a3 c0 bd
       -0.0002591902 -0.23990628 -0.1466869 -0.09406172
0003c0 65 5a cf bc 68 ff 96 bc a3 17 8d 3d 96 87 42 bd
       -0.025311658 -0.018432334 0.06889274 -0.047492586
0003d0 d6 af ab bd 1f b4 f5 bd 15 34 93 bd b5 03 08 be
       -0.083831474 -0.11997246 -0.07187668 -0.13282664
0003e0 e3 a9 f9 3d eb 71 a6 3b 8e 59 94 3c 10 88 a2 bc
       0.121906064 0.005079498 0.01810911 -0.01984027
0003f0 24 b1 8b bd 14 e3 04 3d 6e 2d 15 bd d1 35 35 3d
       -0.06820896 0.03244312 -0.03642028 0.044240776

encoder.enc_blocks.2.conv1.bias f4 [64]
000000 3f 78 2a 3d 4d 28 3a bd 09 63 33 3d 3c 40 35 bd
       0.04161858 -0.04544859 0.04379562 -0.04425071
000010 54 00 0f 3d a3 1d a1 bb 2e 3b 37 bd 2c e4 3f bb
       0.034912422 -0.004916863 -0.044734173 -0.0029280288
000020 7d 67 55 bd 23 bb 9f 3c e3 ce ff 3c e8 5b a6 bb
       -0.052100647 0.019498413 0.031226581 -0.005076874
000030 8f 5b 7b 3d 1e 77 8e 3d b2 b8 3c 3d a0 48 80 bd
       0.061366614 0.069563136 0.046074577 -0.06263852
000040 b3 2c 70 3d 2d 44 46 3d 2c a4 24 3d a8 e2 25 bd
       0.05863638 0.04840486 0.04019563 -0.04049936
000050 a2 35 87 bd 30 1b 33 bd 03 c3 47 3c 50 35 2a 3d
       -0.066020265 -0.0437271 0.0121924905 0.04155475
000060 58 96 4e 3d 53 6d 99 bc a8 7d 36 bb 52 6d 4a 3d
       0.050436348 -0.018728888 -0.0027845893 0.049420662
000070 ac 4d de 39 23 0d 80 bd 6f 16 ab bb 6a a6 c0 3c
       0.0004240101 -0.06252506 -0.00522118 0.023516852
000080 91 70 5e bd ba 35 71 3d e6 fc 3a 3d 48 8b 85 3d
       -0.05430657 0.05888913 0.04565134 0.065207064
000090 8a e7 2f 3d 63 36 85 bd fd 4d 3b bd 6b 2b 15 3d
       0.042945422 -0.06504514 -0.045728672 0.03641836
0000a0 ef b8 33 3d a6 37 9a 3c 23 9c 1c 3d 5c 4c 8c 3d
       0.04387754 0.018825363 0.03823484 0.06850502
0000b0 e8 4d b8 3c 91 d7 7e bd 42 dc 14 3d 38 6c 07 3d
       0.022498086 -0.0622173 0.036342867 0.03306219
0000c0 db 7f 7d 3d 51 53 26 3d d9 f0 d7 bc 01 86 5c bd
       0.06188951 0.0406068 -0.026359962 -0.053838734
0000d0 3d 31 ea ba 00 00 9e bc 79 c6 82 3d a7 ef bc bb
       -0.0017867457 -0.01928711 0.06385512 -0.0057658735
0000e0 c5 07 32 bd 28 80 24 3d 7f f5 23 3c b4 e0 76 bd
       -0.04346444 0.04016128 0.010007261 -0.060272887
0000f0 39 84 2d 3d 9a 8e 6b bd 1e f5 d0 3c a8 2f 80 3d
       0.042362425 -0.057509042 0.025507506 0.0625909

encoder.enc_blocks.2.batch_norm.weight f4 [64]
000000 f7 4d 93 3f 60 b1 91 3f 8b c0 92 3f 96 89 91 3f
       1.1508168 1.1382256 1.146501 1.1370113
000010 7c 89 7c 3f b2 6f a7 3f 88 a8 93 3f 36 a2 8b 3f
       0.98647285 1.3080962 1.1535807 1.0908878
000020 04 e7 5d 3f 67 12 a0 3f 2f 6e be 3f 9d a1 aa 3f
       0.86680627 1.2505616 1.4877375 1.333057
000030 93 17 91 3f 22 87 c8 3f 25 08 88 3f 56 3c a2 3f
       1.1335319 1.5666239 1.0627486 1.2674663
000040 39 03 5e 3f 2c d6 99 3f 47 de 4d 3f 5e 9e 82 3f
       0.8672367 1.2018485 0.80417293 1.020458
000050 e4 90 88 3f 3f a1 96 3f e1 ff 93 3f b0 6d 6d 3f
       1.0669217 1.1767958 1.1562463 0.92745495
000060 a7 91 9b 3f cd 4d 9f 3f df 17 67 3f f5 a7 6c 3f
       1.2153825 1.2445618 0.902708 0.9244378
000070 a4 ad 92 3f 05 0d 94 3f 11 53 6e 3f 10 b2 a7 3f
       1.1459241 1.1566473 0.930955 1.3101215
000080 18 a0 76 3f f2 f9 80 3f ea cf a3 3f d9 ac 87 3f
       0.96338034 1.0076277 1.2797825 1.0599624
000090 4b 32 28 3f ab a5 5a 3f 33 f9 98 3f 62 4a 4e 3f
       0.6570174 0.8540904 1.195105 0.8058225
0000a0 b9 51 b2 3f 05 59 a0 3f d1 4b 9a 3f e8 c6 5b 3f
       1.393119 1.2527167 1.2054387 0.8585038
0000b0 bc 95 7f 3f 94 87 9b 3f e4 a6 92 3f dd 69 75 3f
       0.9983785 1.215075 1.1457181 0.9586466
0000c0 46 7b 63 3f 0f 15 63 3f f0 19 9f 3f 5f ee a6 3f
       0.88859975 0.8870401 1.242979 1.3041495
0000d0 96 bf 8d 3f a6 35 88 3f fd bc 99 3f 9a 00 3b 3f
       1.1074092 1.0641372 1.20108 0.7304779
0000e0 ac 27 50 3f bc 2a 84 3f 76 6a 2c 3f b6 1b bb 3f
       0.81310534 1.0325541 0.67349946 1.4617832
0000f0 21 6b 88 3f d1 67 4c 3f 7f dd 5a 3f 6d e3 93 3f
       1.0657693 0.7984591 0.85494226 1.155378

encoder.enc_blocks.2.batch_norm.bias f4 [64]
000000 57 1d 9b be 08 a8 4e 3d b7 47 c6 bd 09 63 83 be
       -0.30295822 0.050453216 -0.09681647 -0.25661495
000010 c5 61 32 be 74 3f 96 bd bf 35 4a bc f5 70 80 3d
       -0.17420109 -0.073363215 -0.012341916 0.06271545
000020 9c 00 14 be ac 6e 83 be 17 98 1b be bd 6f 4c bb
       -0.14453357 -0.25670373 -0.15194736 -0.003119453
000030 b0 20 b6 bc f8 27 d3 3d 5c 9e a5 bd 36 f9 70 be
       -0.022232383 0.10310358 -0.08086845 -0.23532566
000040 8e 9e 9d bd 39 22 21 be 94 e7 2d be 07 e6 fd bb
       -0.076962575 -0.15735711 -0.16982871 -0.0077483687
000050 62 0e 8f bc e3 11 9a be 6b af 47 3d b2 9b 43 be
       -0.017462913 -0.3009177 0.048751276 -0.19102362
000060 75 dc 7c bd 9d fe 8f bd f9 1d cd be 95 df 8c bc
       -0.06173368 -0.070309855 -0.4006193 -0.017196456
000070 ab 18 88 be c9 30 e6 3c 16 6d e6 bd ec 63 19 be
       -0.2658132 0.028099434 -0.11251275 -0.14979523
000080 bd f5 4f be 64 c3 91 bd 41 12 c6 bd 7e d1 2b 3c
       -0.20308585 -0.07117346 -0.096714504 0.010486959
000090 9d 92 c0 be 28 40 e4 bd 43 3f 84 3d b8 96 6e be
       -0.37611857 -0.11145049 0.06457379 -0.23299682
0000a0 71 11 a3 be ec a3 2d be ee 97 b9 3c a7 26 d4 bd
       -0.31849244 -0.16957062 0.022655454 -0.10358935
0000b0 49 10 a1 bc 72 e0 b8 3d 85 08 f9 bd 37 e5 e3 bd
       -0.019661086 0.090271845 -0.12159828 -0.11127704
0000c0 fe 0b 54 be 8d 58 1e be d6 71 cd bd b9 99 85 be
       -0.207077 -0.15463467 -0.10031478 -0.26093844
0000d0 fb 1e 04 be c5 8f 2c 3d 2d 0f 18 be 61 0e 7d be
       -0.12902443 0.042129297 -0.14849539 -0.24712516
0000e0 8c 1a 5b be 2d 3e 79 bb 45 53 f3 be b5 ea 74 be
       -0.21396846 -0.0038031444 -0.47524467 -0.23917659
0000f0 82 3a 05 bf 64 89 04 bf 17 4e b3 bd 1d a9 36 bd
       -0.520424 -0.5177214 -0.08755129 -0.044594873

encoder.enc_blocks.2.batch_norm.running_mean f4 [64]
000000 40 00 18 bd e7 8f 10 3d 5f 95 0a 3e 10 18 49 3d
       -0.037109613 0.035293486 0.13533543 0.049095213
000010 cc 40 8d be ae e9 d1 3d 02 26 0a 3d 2c 4c 8c 3d
       -0.275885 0.10249649 0.033727653 0.06850466
000020 46 5c 02 bf ea 2f 06 bc e3 5c 3f 3e 82 a3 87 3d
       -0.5092205 -0.008190135 0.18687777 0.066229835
000030 51 a0 e2 3d 21 72 be 3d 10 e9 c9 3d 7f f0 4d 3d
       0.11065734 0.09299112 0.09858906 0.050278183
000040 81 60 79 bf d3 f2 fd 3d 44 1e 4d bf 05 a8 43 3d
       -0.9741288 0.12399831 -0.80124307 0.047767658
000050 3a bb be bc 0a 3d 18 be 24 7c 87 3d f8 54 e0 bc
       -0.023282636 -0.14867035 0.06615475 -0.027384266
000060 f7 3c 28 3e 66 23 d2 3d 51 61 07 be 0e 4d 9c be
       0.16429506 0.10260658 -0.13220717 -0.30527538
000070 6d c3 80 3d fb 94 15 bd f3 8a 05 bf ec ad 0f 3e
       0.062872745 -0.036519032 -0.52165145 0.1403119
000080 6f 11 76 3c 92 e0 3b 3e 58 92 0f 3e 64 9d 3b 3e
       0.015018805 0.18347386 0.1402067 0.18321759
000090 2d 44 61 bf 03 55 75 bf ad 0b 31 bc 59 c6 9d be
       -0.87994653 -0.9583284 -0.010806006 -0.3081539
0000a0 07 6e db 3d b3 39 26 3e 34 e8 09 3e 78 7c 07 bf
       0.107143454 0.16232948 0.13467485 -0.529243
0000b0 ad db b5 3d 9a a0 6d bc 61 00 0e bd f3 42 64 3c
       0.088797905 -0.014503622 -0.03466833 0.013931978
0000c0 22 e2 f4 3c 88 d7 29 be f9 92 e1 3d d8 4b 02 3c
       0.029892985 -0.16586125 0.11014361 0.007952653
0000d0 f7 84 b8 be ff 28 14 3e 7d 4f d0 3d a9 22 8a bf
       -0.36038944 0.14468764 0.10171411 -1.0791827
0000e0 87 16 ae be 21 c5 e0 3c 14 b5 9a be 79 36 67 3d
       -0.34001562 0.027437748 -0.30216277 0.056448434
0000f0 c1 4d 17 3d 0e 05 3f be 3b 34 2c bf 66 11 1f 3e
       0.036939386 -0.18654272 -0.672672 0.1553398

encoder.enc_blocks.2.batch_norm.running_var f4 [64]
000000 64 4d 32 3e 01 98 06 3f 2e 2b 5b 3e 88 45 de 3d
       0.17412335 0.5257569 0.2140319 0.10853106
000010 59 e0 6c 3e 38 f0 48 3e 60 c3 bb 3e 15 67 96 3e
       0.23132457 0.19622886 0.36672497 0.2937552
000020 31 68 a2 3e 7c da 24 3e 98 4a 22 3e ca 6e 3d 3e
       0.31720117 0.1609897 0.15848768 0.18499294
000030 fb fe 41 3e 22 aa fc 3d 94 77 62 3e d0 61 d0 3d
       0.18944924 0.12337138 0.22115928 0.10174906
000040 b8 50 e2 3f 68 6c 82 3e f3 3e 5f 40 df c9 be 3e
       1.7680883 0.25473332 3.488217 0.3726339
000050 b2 47 0e 3f bd d0 48 3e 82 df 15 3f a2 5b ca 3d
       0.5557815 0.19610877 0.5854417 0.09880759
000060 2f 5c 68 3e da 31 0a 3e 92 1d 2e 3e 10 1a 13 3f
       0.22691415 0.1349558 0.17003468 0.57461643
000070 f3 07 a0 3d 7f 63 9d 3e 3d 05 b3 3e 0b e7 3b 3e
       0.07814016 0.30739972 0.34964934 0.18349855
000080 82 f8 3b 3e f2 2a 4e 3e fc db 13 3e ce 1c 0b 3f
       0.18356517 0.2013357 0.14439386 0.5434083
000090 a0 37 3d 40 db ce 8f 3f 4e b0 74 3e 3d 0e 9a 3e
       2.95652 1.1235002 0.2389538 0.30088988
0000a0 d9 4b b4 3d 24 3a e7 3d a3 04 af 3e 1b 7d 14 40
       0.08803529 0.11290386 0.34183225 2.3201358
0000b0 88 f1 dc 3d 07 1b dc 3e eb 51 8c 3e 34 6c 76 3e
       0.10788256 0.4298937 0.27406248 0.24064714
0000c0 b1 a4 3c 3e 03 c4 33 3e c0 fc 29 3e 7e 9a a6 3d
       0.184222 0.17555241 0.16600323 0.08134936
0000d0 fb 6a fd 3d 13 d3 89 3e f4 39 34 3e 16 ae 9c 40
       0.123739205 0.2691885 0.17600232 4.8962507
0000e0 0a 12 73 3e ad 6a 1b 3f 2f b2 7a 3e a9 fc 0c 3e
       0.2373735 0.6070965 0.24482034 0.13768257
0000f0 d9 0a 92 3d f6 ea fa 3d 64 9c b4 3f 0b 53 86 3e
       0.07130975 0.122518465 1.4110227 0.26235232

linear_relu_stack.1.weight f4 [180, 64]
000000 b5 46 92 be 97 28 eb bc 95 fb 8e bc 8b 1a 0e be
       -0.2856957 -0.028705878 -0.017453948 -0.13877313
000010 af 50 92 bd fc d6 9d bd 54 c9 4c bd c6 2a 03 bd
       -0.071442954 -0.07707021 -0.04999669 -0.032023214
000020 14 a8 5c 3d 9f cd 96 bd dc 9e c8 3d 37 ab 6b bd
       0.05387123 -0.07363438 0.09795925 -0.05753633
000030 b7 ac 0c be 47 2b 08 3d 51 ea 14 be 46 20 8c 3d
       -0.1373776 0.033244397 -0.1454251 0.06842093
000040 fb 3d 21 bd d4 b5 c5 bd e0 33 f8 3a a5 7e 9a bd
       -0.03936575 -0.096538216 0.0018936358 -0.07543687
000050 48 94 b3 bd 46 ee 05 be f8 2e 57 3d 00 44 47 bd
       -0.08768517 -0.13079175 0.052535027 -0.048648834
000060 1a 71 b0 bd 95 27 03 be 8e 53 fe bd 60 9e 22 3d
       -0.086153224 -0.12808068 -0.124182805 0.03970182
000070 4e 9a b2 bc ba 3d 86 bd a3 d5 56 bd 8a 7f 16 be
       -0.021802094 -0.06554742 -0.052449834 -0.1469709
000080 28 5c 05 bd 79 bb 7a 3b 45 4a 34 3c 0a 17 03 3e
       -0.03255859 0.0038258715 0.011004035 0.12801757
000090 ce 1d e8 bc e4 97 65 bd 89 ef e5 bd 2b b5 d5 bd
       -0.028334524 -0.056053057 -0.11227328 -0.10434946
0000a0 4f d9 0d be 7c 04 45 be 19 38 80 3d c3 b0 bc bd
       -0.13852428 -0.19239992 0.062607 -0.09213402
0000b0 6c 11 d1 3d c6 cb dc 3d 8a ec 8c 3d 7e ae d3 bd
       0.10208401 0.10781054 0.06881054 -0.10336016
0000c0 a7 ca 75 be 88 5e 86 3c c0 4f b0 bd 3e 86 06 3e
       -0.24003087 0.016402498 -0.08608961 0.13137147
0000d0 1d 30 50 bd 76 b4 e0 bd 79 bf 88 3d ca f5 ce bd
       -0.050827134 -0.1097192 0.066771455 -0.10105474
0000e0 ca ab f0 bd 1e 8e 08 be 24 2d ad 3c cb 07 de 3d
       -0.11751516 -0.13335463 0.021139689 0.1084133
0000f0 5b eb a7 bd 7b b9 1c 3d f6 72 d8 3b 19 47 46 bd
       -0.08199187 0.038262825 0.0066055013 -0.048407648
000100 a9 90 03 be e1 27 c5 3d cb b8 b5 3a b5 b3 5e bd
       -0.12848152 0.09626747 0.0013864277 -0.0543706
000110 59 97 30 be 0e 21 55 3b b3 32 0e 3e d0 62 5d bc
       -0.17245235 0.0032520923 0.13886528 -0.013512328
000120 e9 57 51 bc 59 c1 fd bc ef 54 f4 bc ed 3a 67 be
       -0.012777307 -0.030975984 -0.029825656 -0.22581072
000130 10 fb bd 3c 28 73 ac 3b 7f 79 ac be aa 71 13 3d
       0.023191005 0.005262751 -0.33686444 0.03599707
000140 fe 20 1b bd 0e 88 fa 3b cb 00 19 3e 12 ef 32 3e
       -0.03787326 0.0076456135 0.14941709 0.1747401
000150 f6 e7 86 bd 2e e7 bf bc 05 7b 4d bd f7 5b 8c 3b
       -0.06587212 -0.023425665 -0.05016615 0.004283424
000160 c7 d8 1c 3e d5 b8 12 3e 34 ef 2b be 3a cf b2 bc
       0.15317069 0.1432832 -0.16790468 -0.021827329
000170 73 fc 51 be 39 1c f5 3c fd 7b c2 3a 1b 39 32 be
       -0.20506458 0.029920684 0.0014837977 -0.17404597
000180 cf d3 1f bd 73 13 53 bd e7 88 17 3e 29 e1 2a 3e
       -0.039020356 -0.05153222 0.14798318 0.16687454
000190 78 d6 17 bd 5a 0d 83 bd ae d0 07 be e6 3f 85 3d
       -0.037069768 -0.06399031 -0.13263199 0.06506328
0001a0 cb 29 77 bd c8 a0 e7 bd ab 30 40 bc 65 51 c4 3d
       -0.06034259 -0.113099635 -0.011730353 0.09585837
0001b0 0e 24 9e 3d ea d3 7e 3c 4b ef 1d bd db 3b e6 3d
       0.07721721 0.015553454 -0.038558286 0.11241885
0001c0 a4 84 3a be 68 1c a7 3d 4b 10 e8 3d 21 b2 3c bd
       -0.18214661 0.08159715 0.11331233 -0.046068314
0001d0 81 0f 68 bd db 55 11 3e ff 96 21 be 97 c1 d6 bb
       -0.05665541 0.14192908 -0.15780257 -0.0065538394
0001e0 26 a5 85 bd d6 1b c3 bd ae 97 bb bd d1 9b 59 bc
       -0.0652564 -0.09526794 -0.0915979 -0.013281778
0001f0 93 db b2 be b7 0c 33 be b6 cb 45 3e 16 9a eb bc
       -0.34933147 -0.17485319 0.19315991 -0.028759997
000200 9e c5 b2 3d 62 94 44 3d 23 97 1f be 1a 89 d0 bd
       0.08729099 0.04799307 -0.15584998 -0.101824
000210 b7 62 5a bd b5 22 07 be b7 f0 b7 bd 9b 40 18 be
       -0.053316798 -0.13196833 -0.089814596 -0.14868395
000220 63 1e de bd d2 d8 c4 3c ac 8f 61 3b 49 da 80 3c
       -0.108456396 0.02402917 0.003441791 0.015729086
000230 3c 88 9c 3c 85 0b 0c bd bb d7 e1 3c 66 fb d9 bc
       0.01910793 -0.034190673 0.027568689 -0.026609134
000240 1f 25 56 be aa c6 1f be bc a8 c8 3c 45 32 9a bc
       -0.20912598 -0.15603128 0.024494521 -0.018822799
000250 03 ed 31 be 1c 0d 78 bd fa 64 2c be de 11 93 3d
       -0.17375569 -0.060559377 -0.16835395 0.07181142
000260 00 98 94 bb 94 c2 5e bc e4 4d d9 3d 8f 03 dd bd
       -0.0045347214 -0.013596196 0.106105596 -0.107916944
000270 dd 24 0b bd 48 c1 1d bd 99 01 0a be 1c 2b 65 3d
       -0.033970702 -0.038514405 -0.13477172 0.055949315
000280 7e d5 14 be a0 a5 34 3c 03 3b c5 ba 60 0a 9b 3c
       -0.14534566 0.011025816 -0.0015047494 0.018925846
000290 b3 59 8f 3c b9 44 dd bd b6 e3 13 be ee bd f2 3b
       0.017498827 -0.108041234 -0.14442334 0.0074078953
0002a0 e2 07 0c be e5 58 1d 3d eb ca 04 be 69 33 04 be
       -0.13674882 0.038414855 -0.12968032 -0.12910236
0002b0 ec d8 f9 3c 2e 9e 2e be 33 59 de bd 9c cd b8 3b
       0.030498944 -0.17052528 -0.10856857 0.005639745
0002c0 1b 1e ea 3d 94 0f fb bb 37 1f e7 bb d1 ad 17 3d
       0.114315234 -0.007661769 -0.0070532816 0.037031
0002d0 a6 c9 0b be e2 be 1c be b7 ce c3 3d 6a 86 32 bd
       -0.13651142 -0.15307191 0.09560912 -0.04358522
0002e0 5e 6c 82 3d d7 bb 0b be 49 a6 bd bd ec b7 19 3c
       0.06368326 -0.13645874 -0.09260232 0.009382229
0002f0 0e d9 94 bd 44 c2 11 bd da 02 7f 3d 2c c9 06 be
       -0.072679624 -0.035585657 0.06225858 -0.13162678
000300 e7 8b 03 be c9 0b 05 3d b8 a0 ba 3c 2d 67 5f 3c
       -0.12846337 0.032481942 0.022781715 0.013635439
000310 1d a8 a5 3d ab 5d 01 be 12 3c 6b 3d fb c1 ae 3d
       0.08088706 -0.12633388 0.057430334 0.085330926
000320 13 4b 04 3e 78 e9 19 3e 24 0a 07 be 3d 1f ea 3d
       0.12919264 0.15030468 -0.13187462 0.114317395
000330 c4 dc fd bd c4 4d 97 bd 8c f6 00 bc a6 4d 4b 3d
       -0.12395623 -0.073878795 -0.007871281 0.0496346
000340 2d c5 c0 3c 17 ec 64 3d a4 d9 90 3d 76 f1 d8 3d
       0.02353152 0.055889215 0.07072762 0.1059293
000350 cb b3 41 bd c1 2f 50 3b d2 b1 eb bd c6 49 14 3e
       -0.047290605 0.0031766745 -0.11508526 0.14481267
000360 63 72 76 3c 53 4a 38 be 14 26 b4 3d 05 3e a3 bd
       0.01504192 -0.17997102 0.08796325 -0.07970814
000370 1d 7f e7 bc 20 c5 c5 bd ec ee 14 3d 71 4b 75 bc
       -0.028258855 -0.09656739 0.036360666 -0.0149716
000380 40 76 0b 3c d0 ba d0 bd 3f 7a 85 bb 01 9d fc 3c
       0.00851208 -0.10191882 -0.0040734108 0.030836584
000390 20 91 b8 3c 80 fe 5e bd d8 9e 91 bd ca 42 2b 3e
       0.022530138 -0.05444193 -0.07110375 0.16724697
0003a0 67 59 3a 3d 20 65 21 3e 56 0b 19 be e0 20 80 3d
       0.045495417 0.15761232 -0.1494573 0.062562704
0003b0 2c 78 ea bc 54 be a8 bd f6 bb f1 3d 06 f8 c0 bd
       -0.028621756 -0.08239427 0.11803429 -0.09422307
0003c0 32 36 5f 3d 13 46 a0 3c 61 a6 61 3e 77 c3 26 bd
       0.054495044 0.019564664 0.22036125 -0.040713754
0003d0 7b 39 4c 3d ab 56 b2 bd 67 a7 d6 3d 92 bd 9c 3d
       0.049859505 -0.08707937 0.10481148 0.07653345
0003e0 39 89 6d 3d 0f 7a cc bd 6a cd 4a 3d e0 4e 7c bd
       0.057992194 -0.09984218 0.049512304 -0.06159866
0003f0 69 e7 c2 3d ab e5 11 bd 6b 27 4a bd be 9e a4 bd
       0.09516794 -0.03561942 -0.049354 -0.0803809
