results/models/LSTM.pth (torch, 347013 bytes, 14 tensors)

lstm.weight_ih_l0 f4 [160, 180]
-0.22835426 -0.28828514 -0.29187763 -0.05668159 -0.18632877 -0.20806447 -0.041305345 -0.2666421
-0.12629637 -0.17746316 0.07973182 0.03171147 0.09590845 0.15073752 0.23827805 0.16989717
0.10329325 0.2224269 0.27686048 0.30683938 0.16478059 0.17400682 0.21120554 0.19384345
0.07739798 0.04678215 0.24152413 0.1440439 0.07966153 0.1551688 0.08848195 0.3405954
0.14814936 0.12447356 0.082564265 0.20442419 0.010816061 0.20573644 0.26712823 0.09280694
0.22294882 0.23941149 0.3132101 0.11526618 0.09957916 0.09981636 0.06785394 0.031659774
0.08613087 0.19655938 0.28588915 0.33726573 0.31753492 0.21302044 0.07961537 0.16338287
0.3198356 0.16560167 0.10323863 0.058086753 0.29434904 0.16524404 0.061585248 0.17880495
0.26959184 0.2946039 0.23679061 0.22130097 0.28456616 0.31948632 0.060278542 0.09512643
0.064807616 0.2488064 0.26163554 0.23288795 0.16169062 0.3132264 0.31915635 0.23307595
0.1790819 0.031318974 0.303966 0.15907076 0.10180473 0.3087084 0.069147274 0.11317053
0.28726304 0.17663802 0.040109333 0.0021412205 0.12164513 0.005640193 0.046801023 0.011281465
0.0892874 0.2761742 0.06683454 0.03351698 0.28856927 0.17589417 0.09868334 0.25498897
0.20855984 0.13450056 0.105553344 0.17210667 0.1544921 0.17640312 0.2183784 -0.0097543225
0.014473586 0.08125269 -0.017187838 0.13184865 0.1096773 0.084997945 -0.024055585 -0.024742685
0.020350788 0.036729366 0.20757629 -0.071368515 0.17579228 -0.07911755 -0.092787564 0.05799463
0.10677016 -0.127125 -0.07574634 0.06688686 -0.19540231 -0.10920991 -0.1227137 -0.22287507
-0.23744188 -0.08942743 -0.28090808 -0.20938383 -0.25077075 -0.14703369 0.019642616 -0.116747506
-0.23544605 0.006501684 -0.08901376 -0.040434748 -0.109257974 -0.19541287 -0.17886057 -0.062428042
-0.22018704 -0.2012328 -0.075901784 -0.036503255 -0.28142965 -0.10737879 -0.017220907 -0.17078233
-0.28186387 -0.23608698 -0.02878251 -0.11900189 -0.031032013 -0.0191084 -0.1918003 -0.053936433
-0.039403178 -0.13404569 -0.06964086 -0.032969974 -0.016204886 -0.25633934 -0.1952049 -0.06793227
-0.021571916 -0.27882558 -0.12497314 -0.26680702 -0.10437735 -0.18464775 -0.004548052 -0.1261537
-0.057771567 -0.023736808 -0.10479119 -0.18174067 -0.08103587 -0.16655618 -0.118715376 0.16396683
-0.05394276 0.106202744 -0.028485475 0.036041956 0.06824362 0.2186369 0.16740523 0.1922128
0.11647872 0.11467283 0.2637531 0.085461974 0.30713993 0.26591334 0.30219644 0.16301304
0.024683168 0.06670457 0.22148061 0.053787068 0.024425574 0.28243476 0.30445126 0.06056471
0.063348405 0.22377327 0.070026 0.019478297 0.24721335 0.1317627 0.12958477 0.08842604
0.10309385 0.019239886 0.30804718 0.26765126 0.24208455 0.2873929 0.19418785 0.10930716
0.039447825 0.14704515 0.22109877 0.20916648 0.14149463 0.1176835 0.14251123 0.16854541
0.20192055 0.1276569 0.23609239 0.039086323 0.088397585 0.11924092 0.22969598 0.17928746
0.1083644 0.22530551 0.18705952 0.17046238 0.22629644 0.08883547 0.20002227 0.08510684
00000000: b3d5 69be 1c9a 93be fc70 95be f42a 68bd
00000010: f8cc 3ebe da0e 55be cb2f 29bd 5085 88be
00000020: d653 01be e7b8 35be 704a a33d e3e3 013d
00000030: a66b c43d f05a 1a3e 29ff 733e 86f9 2d3e
00000040: 698b d33d e1c3 633e a8c0 8d3e 0d1a 9d3e
00000050: 3ebc 283e d82e 323e 4446 583e e67e 463e
00000060: d582 9e3d a49e 3f3d 1a52 773e 3e80 133e
00000070: 9625 a33d 92e4 1e3e 0636 b53d 8562 ae3e
00000080: 77b4 173e feeb fe3d 7417 a93d 9354 513e
00000090: d935 313c 93ac 523e 08c5 883e 9111 be3d
000000a0: b24c 643e 4928 753e 135d a03e ad10 ec3d
000000b0: 29f0 cb3d 856c cc3d 02f7 8a3d aead 013d
000000c0: 6265 b03d dd46 493e 1060 923e 18ae ac3e
000000d0: f093 a23e 0822 5a3e 620d a33d d74d 273e
000000e0: 7ec1 a33e 7c93 293e c66e d33d 60ec 6d3d
000000f0: ebb4 963e bc35 293e d040 7c3d a518 373e
00000100: f107 8a3e 53d6 963e 3d79 723e b99c 623e
00000110: a8b2 913e b693 a33e a2e6 763d a5d1 c23d
00000120: dbb9 843d 1bc7 7e3e 18f5 853e 2e7a 6e3e
00000130: 3a92 253e 365f a03e 7668 a33e 76ab 6e3e
00000140: 3f61 373e 5348 003d 6ea1 9b3e 72e3 223e
00000150: 007f d03d 070f 9e3e 169d 8d3d f3c5 e73d
00000160: 2414 933e 99e0 343e af49 243d b853 0c3b
00000170: 1521 f93d 5ed1 b83b 6eb2 3f3d e5d5 383c
00000180: 50dc b63d b466 8d3e 8ce0 883d 1a49 093d
00000190: 5abf 933e 9a1d 343e 7e1a ca3d ea8d 823e
000001a0: b690 553e 84ba 093e 5a2c d83d bb3c 303e
000001b0: 2d33 1e3e 05a3 343e 969e 5f3e 98d0 1fbc
000001c0: 9f22 6d3c cf67 a63d 82cd 8cbc 5503 073e
000001d0: 7e9e e03d 6713 ae3d 3810 c5bc 2cb1 cabc
000001e0: b2b6 a63c 8871 163d e18e 543e a829 92bd
000001f0: e402 343e 6208 a2bd 6807 bebd c78b 6d3d
00000200: 50aa da3d 0e2d 02be e620 9bbd fafb 883d
00000210: 8b17 48be 72a9 dfbd 5251 fbbd 5d39 64be
00000220: f723 73be ba25 b7bd 2fd3 8fbe b768 56be
00000230: 0665 80be 0090 16be 8de9 a03c 5119 efbd
00000240: c518 71be 140c d53b d94c b6bd e89e 25bd
00000250: a5c2 dfbd 501a 48be 3a27 37be 8cb4 7fbd
00000260: b678 61be f90f 4ebe 6572 9bbd 7084 15bd
00000270: 8c17 90be 69e9 dbbd dc12 8dbc 90e1 2ebe
00000280: 7650 90be c9c0 71be 4cc9 ebbc 43b7 f3bd
00000290: d936 febc 3889 9cbc 4c67 44be 73ec 5cbd
000002a0: 3a65 21bd 4643 09be de9f 8ebd 860b 07bd
000002b0: 1cc0 84bc e93e 83be cbe3 47be 1320 8bbd
000002c0: 96b7 b0bc 3ac2 8ebe ebf1 ffbd ee9a 88be
000002d0: cbc3 d5bd 4d14 3dbe d307 95bb 6f2e 01be
000002e0: e1a1 6cbd b273 c2bc c39c d6bd 3a1a 3abe
000002f0: 22f6 a5bd b48d 2abe 0c21 f3bd ece6 273e
00000300: 15f3 5cbd d380 d93d 5f5a e9bc bba0 133d
00000310: 50c3 8b3d 5ae2 5f3e 476c 2b3e 6fd3 443e
00000320: 658c ee3d 97d9 ea3d a50a 873e b006 af3d
00000330: 7241 9d3e cb25 883e 7eb9 9a3e e4ec 263e
00000340: 5b34 ca3c 689c 883d d0cb 623e d44f 5c3d
00000350: 2418 c83c 4a9b 903e 09e1 9b3e b412 783d
00000360: cfbc 813d d224 653e cb69 8f3d f390 9f3c
00000370: 7f25 7d3e cdec 063e dfb1 043e b618 b53d
00000380: de22 d33d f79c 9d3c 5cb8 9d3e 9609 893e
00000390: 03e5 773e 2a25 933e 2ed9 463e 6fdc df3d
000003a0: 0b94 213d 0193 163e b767 623e bd2f 563e
000003b0: f8e3 103e 0c04 f13d 77ee 113e 2b97 2c3e
000003c0: 43c4 4e3e 7eb8 023e 34c2 713e fb18 203d
000003d0: cb09 b53d 9534 f43d 6c35 6b3e 2297 373e
000003e0: 28ee dd3d 7db6 663e 888c 3f3e b18d 2e3e
000003f0: 41ba 673e 5fef b53d a3d2 4c3e 7f4c ae3d

lstm.weight_hh_l0 f4 [160, 40]
0.14850149 -0.06829954 -0.13049613 -0.08163943 0.024851488 -0.074824974 0.18909247 -0.12834297
0.05586906 0.023301862 -0.1661796 0.024961697 0.06379087 -0.051776502 0.15805164 0.11233821
-0.05244188 0.17237705 0.019262007 -0.038260177 0.10587729 -0.14145043 0.04652193 -0.1741893
0.13439566 -0.118541755 0.16027991 -0.027602535 0.016450958 -0.18199466 -0.16737147 0.09935105
0.15059896 -0.08927282 -0.06997007 -0.112154774 0.027547348 0.049449816 -0.08736558 0.08587307
-0.058641754 -0.11021481 0.07070398 -0.12043171 -0.0945041 0.03451914 0.06756368 -0.103213824
-0.0934309 -0.017579714 -0.13645901 0.030980766 0.047511615 -0.034753185 -0.038066577 -0.075139016
-0.056580808 0.11977939 -0.18200134 0.057551883 0.079004794 -0.120183095 -0.045012288 -0.080801025
0.11435534 -0.030671861 -0.10017452 0.021519115 0.058712397 -0.12344314 -0.16206591 -0.08908094
0.011604544 0.038150765 0.19643028 0.0049065324 -0.04251739 -0.016231818 -0.081127144 -0.10123463
-0.11213857 -0.09575635 0.025076693 0.13856888 0.1603506 0.07905718 0.15689892 -0.062491804
-0.11295579 0.016212225 -0.052824654 0.16675198 -0.14969595 0.079292804 -0.027045093 -0.11080629
0.12035908 -0.098390885 0.0071680564 0.105482124 0.041407503 -0.022167088 0.035615258 0.11157007
0.0040641017 0.072734006 0.17205954 0.11653307 -0.10454699 0.04809821 0.019159118 0.17521283
-0.05115456 0.037059344 0.19692068 0.09706723 -0.025068538 -0.031756878 -0.035908725 0.05578408
0.0066289622 -0.11255381 0.054792635 -0.112274036 -0.04572958 0.06671862 -0.021316709 -0.03484498
-0.040624984 -0.032097563 -0.15267077 -0.07215461 0.07019278 -0.07830932 0.05295922 0.0066827387
-0.17413066 0.11725323 -0.0040003327 0.037449248 0.016749913 0.11444117 -0.0020117993 -0.053630628
0.10766347 0.08840224 0.059275564 0.08088549 -0.047386497 0.043587774 -0.10788582 -0.04913113
0.10498151 0.033083655 0.013485868 -0.060210347 -0.12808113 0.15564252 0.088979125 -0.043468982
0.077722944 -0.031210154 0.112597734 0.1324226 0.096359566 0.03353615 0.19258215 0.08301952
0.17418595 -0.0091984905 -0.026601752 0.18570389 -0.12994543 0.11404045 0.09884595 0.011169946
0.10764725 0.0049331533 0.10268495 0.037558623 -0.01242556 0.017556937 0.016251542 0.07505964
0.04525293 -0.06599045 -0.072537474 -0.023146957 0.16370587 0.058622446 0.05721878 -0.019924661
0.14185683 0.018150268 0.20784424 0.127109 -0.17573647 0.0718349 -0.06915105 -0.04000031
0.13157293 -0.019558555 0.15019506 0.15921508 -0.12512879 0.13114344 0.021635411 -0.07244449
-0.1257525 0.08076212 -0.13858055 0.16442542 0.020948404 0.17156461 -0.09168374 0.12854764
0.09060148 0.062033903 -0.08767545 -0.15432724 0.10585135 -0.13615623 -0.07801304 0.05559271
0.07333316 -0.08887068 0.06684411 0.11080991 0.1478588 -0.051722396 -0.0067444295 0.13411507
0.14022708 0.17420045 0.023042955 0.14769422 0.058089178 0.04514323 -0.033249885 -0.08001697
0.17063609 -0.064257614 0.068220496 -0.0751407 0.021801326 -0.06914647 -0.017318195 -0.09345811
0.042022206 -0.09849904 -0.040832926 -0.101478115 -0.004487624 -0.011378387 0.16827102 -0.07258623
00000000: c610 183e a1e0 8bbd c7a0 05be 9332 a7bd
00000010: 5995 cb3c d63d 99bd 75a1 413e 576c 03be
00000020: f5d6 643d 8ce3 be3c fc2a 2abe 797c cc3c
00000030: caa4 823d 9913 54bd 4ad8 213e 9311 e63d
00000040: 4ccd 56bd 9c83 303e 5bcb 9d3c b4b6 1cbd
00000050: 31d6 d83d 62d8 10be c78d 3e3d ae5e 32be
00000060: 049f 093e 05c6 f2bd 6b20 243e b61e e2bc
00000070: 29c4 863c cf5c 3abe 6d63 2bbe 9078 cb3d
00000080: 9d36 1a3e abd4 b6bd 784c 8fbd 67b1 e5bd
00000090: faaa e13c e48b 4a3d baec b2bd 38de af3d
000000a0: 5632 70bd 4db8 e1bd 40cd 903d e6a4 f6bd
000000b0: 5e8b c1bd f163 0d3d d45e 8a3d c561 d3bd
000000c0: b358 bfbd 5503 90bc e9bb 0bbe 60cb fd3c
000000d0: 8a9b 423d 5b59 0ebd b3eb 1bbd 7ce2 99bd
000000e0: 47c1 67bd e64e f53d 8f5e 3abe 86bb 6b3d
000000f0: 44cd a13d 8e22 f6bd ce5e 38bd 027b a5bd
00000100: 2233 ea3d 8e43 fbbc 4c28 cdbd db48 b03c
00000110: 697c 703d c2cf fcbd 9bf4 25be 1170 b6bd
00000120: fc20 3e3c fa43 1c3d 0525 493e fac6 a03b
00000130: b726 2ebd 97f8 84bc fd25 a6bd 1a54 cfbd
00000140: e8a8 e5bd e81b c4bd a36d cd3c 00e5 0d3e
00000150: f332 243e bbe8 a13d 1caa 203e 68f7 7fbd
00000160: 5d55 e7bd 80cf 843c aa5e 58bd 08c1 2a3e
00000170: e549 19be 4464 a23d ac8d ddbc 68ee e2bd
00000180: d27e f63d 2981 c9bd 04e2 ea3b 0307 d83d
00000190: ea9a 293d c197 b5bc 4ee1 113d d97e e43d
000001a0: 282c 853b 91f5 943d 6030 303e e4a8 ee3d
000001b0: bb1c d6bd a102 453d 95f3 9c3c fe6a 333e
000001c0: 7287 51bd 8acb 173d 93a5 493e 2fcb c63d
000001d0: 895c cdbc 8013 02bd 0715 13bd d97d 643d
000001e0: c437 d93b 9d82 e6bd 3e6e 603d eeef e5bd
000001f0: f14e 3bbd c6a3 883d 61a0 aebc 9cb9 0ebd
00000200: 6266 26bd bc78 03bd ba55 1cbe ccc5 93bd
00000210: 3bc1 8f3d a360 a0bd c4eb 583d e0fa da3b
00000220: 4f4f 32be 7622 f03d 3915 83bb 6264 193d
00000230: 1d37 893c 2260 ea3d 64d8 03bb caab 5bbd
00000240: aa7e dc3d 3c0c b53d efca 723d 4ba7 a53d
00000250: 5818 42bd 1889 323d 3ef3 dcbd b93d 49bd
00000260: 8c00 d73d ba82 073d d5f3 5c3c 209f 76bd
00000270: b327 03be c160 1f3e b03a b63d 880c 32bd
00000280: 352d 9f3d 70ac ffbc a499 e63d ca99 073e
00000290: 2a58 c53d 345d 093d 4134 453e 2306 aa3d
000002a0: cd5d 323e 44b5 16bc ebeb d9bc 2929 3e3e
000002b0: 6a10 05be 0a8e e93d bf6f ca3d 2602 373c
000002c0: 2976 dc3d 4aa6 a13b 7d4c d23d 12d7 193d
000002d0: 9394 4bbc 91d3 8f3c f421 853c deb8 993d
000002e0: 235b 393d 0026 87bd 878e 94bd b09e bdbc
000002f0: 83a2 273e 171e 703d 3d5e 6a3d 0b39 a3bc
00000300: eb42 113e dfaf 943c 1fd5 543e dd28 023e
00000310: 43f4 33be 2d1e 933d 119f 8dbd 5dd7 23bd
00000320: 0ebb 063e 4339 a0bc bccc 193e 4709 233e
00000330: c321 00be 774a 063e bf3c b13c c75d 94bd
00000340: 43c5 00be 9c66 a53d 0fe8 0dbe 235f 283e
00000350: fd9b ab3c a2ae 2f3e afc4 bbbd fea1 033e
00000360: 458d b93d 4317 7e3d 308f b3bd f607 1ebe
00000370: 98c8 d83d 8a6c 0bbe 4dc5 9fbd 2eb5 633d
00000380: b22f 963d d501 b6bd 91e5 883d 4ef0 e23d
00000390: 4c68 173e ddda 53bd 6000 ddbb 7655 093e
000003a0: b097 0f3e 9a61 323e 94c4 bc3c 273d 173e
000003b0: ebee 6d3d 1ce8 383d 0831 08bd f0df a3bd
000003c0: 3abb 2e3e 7f99 83bd 30b7 8b3d 5ee3 99bd
000003d0: b298 b23c aa9c 8dbd e3de 8dbc f766 bfbd
000003e0: 7a1f 2c3d ddb9 c9bd 6d40 27bd c2d3 cfbd
000003f0: eb0c 93bb 6a6c 3abc 3d4f 2c3e 17a8 94bd

lstm.bias_ih_l0 f4 [160]
0.06947072 0.33226854 0.054963227 0.30126622 0.31074634 0.31734905 0.35555205 0.07968874
0.25741354 0.15021393 0.033308752 0.32487166 0.24494122 0.3606111 0.1967555 0.33036023
-0.0989953 0.14516787 0.22791699 0.2545831 0.27907962 0.22438487 0.05654966 0.23358537
0.165067 0.1985853 0.30067408 0.10516542 0.11595415 0.22173221 0.09008497 0.14031681
0.183163 0.16854665 0.20213492 0.13730715 0.21798772 0.11964779 0.07310328 0.23942186
0.02936219 0.010038126 0.16240042 0.22426027 -0.07025172 0.05703185 0.053815834 0.12100655
0.17245366 0.0787458 -0.19575535 -0.06973643 0.14331451 0.040550236 0.11881045 -0.060112737
0.102315664 -0.05571373 -0.096633844 0.16168243 0.037607938 0.03321009 0.1671468 0.16121164
-0.09556874 -0.16733679 0.08798934 0.048384424 0.0029865399 -0.1358607 0.018717036 0.02823769
-0.06467624 -0.055945147 0.14078553 0.05601814 -0.07861443 0.17896904 0.0046714796 0.17606103
0.17061807 0.07996827 0.19964573 0.13795416 0.14256127 0.23708133 0.18917605 -0.0140314875
0.010269946 -0.16076843 -0.2263436 0.090950504 0.025678545 0.22943859 0.039606027 0.026393928
-0.16186649 0.09849809 -0.24650864 -0.09540171 0.12581357 -0.2557159 0.024655402 -0.26506457
0.09201904 -0.12289068 -0.036532614 -0.20060442 0.09849465 -0.08757395 -0.26791486 0.015066794
0.053089943 0.21318373 0.19824451 0.20812643 -0.18713503 0.0012689832 0.11587645 -0.068570286
-0.067208976 0.27367195 0.07409699 0.42315564 0.44265214 0.1189998 0.2640203 0.16887671
0.13473237 0.12087365 0.08163961 0.31840092 0.2766853 0.18165867 0.090896465 0.18470696
0.0629693 0.17997006 0.2711244 0.31054297 0.032996304 0.22231334 0.24107751 0.26603228
0.04957708 0.29333934 0.14111535 0.2606902 -0.00046483777 0.14282618 0.19778639 0.0032486557
0.17036468 0.072898716 -0.019623298 0.1151855 0.16356644 0.13185073 0.04247304 0.31941634
00000000: aa46 8e3d 1a1f aa3e 1f21 613d 913f 9a3e
00000010: 251a 9f3e 937b a23e eb0a b63e da33 a33d
00000020: b5cb 833e aed1 193e c26e 083d 9455 a63e
00000030: dfd1 7a3e 05a2 b83e 467a 493e fa24 a93e
00000040: 0cbe cabd e3a6 143e 1263 693e b758 823e
00000050: 86e3 8e3e 26c5 653e 9ea0 673d 0131 6f3e
00000060: 5307 293e f259 4b3e f4f1 993e f860 d73d
00000070: 5f79 ed3d c50d 633e 787e b83d 36af 0f3e
00000080: 158f 3b3e 7e97 2c3e 75fc 4e3e 3f9a 0c3e
00000090: 2c38 5f3e e709 f53d 2cb7 953d 012b 753e
000000a0: fa88 f03c f476 243c 4c4c 263e 7ca4 653e
000000b0: 22e0 8fbd 3b9a 693d fe6d 5c3d 48d2 f73d
000000c0: b197 303e 7a45 a13d 1774 48be f9d1 8ebd
000000d0: 0ac1 123e 0118 263d e552 f33d c638 76bd
000000e0: e08a d13d 1534 64bd f7e7 c5bd 1490 253e
000000f0: c80a 1a3d 4e07 083d 8828 2b3e aa14 253e
00000100: 8bb9 c3bd 565a 2bbe c133 b43d bf2e 463d
00000110: d3b9 433b 111f 0bbe 7854 993c ba52 e73c
00000120: fa74 84bd bd26 65bd 152a 103e 4773 653d
00000130: 9a00 a1bd a943 373e 3613 993b 5849 343e
00000140: 81b6 2e3e 68c6 a33d ee6f 4c3e db43 0d3e
00000150: 95fb 113e 73c5 723e 5eb7 413e 53e4 65bc
00000160: 4743 283c 7ba0 24be 9ec6 67be 4244 ba3d
00000170: d05b d23c f3f1 6a3e ee39 223d 1438 d83c
00000180: 54c0 25be 5eb9 c93d c36c 7cbe f961 c3bd
00000190: 46d5 003e 32ed 82be 20fa c93c 8bb6 87be
000001a0: 7a74 bc3d 1cae fbbd 39a3 15bd 3f6b 4dbe
000001b0: 90b7 c93d f959 b3bd 232c 89be b7da 763c
000001c0: d774 593d d64c 5a3e 9c00 4b3e 181f 553e
000001d0: 53a0 3fbe 0354 a63a a250 ed3d 946e 8cbd
000001e0: dca4 89bd bb1e 8c3e 2ac0 973d dba7 d83e
000001f0: 4da3 e23e 2bb6 f33d ab2d 873e 04ee 2c3e
00000200: 48f7 093e 9b8c f73d ab32 a73d 7205 a33e
00000210: b2a9 8d3e bb04 3a3e ed27 ba3d d223 3d3e
00000220: 0cf6 803d 124a 383e d1d0 8a3e 7dff 9e3e
00000230: 2227 073d 1ca6 633e 06dd 763e 6235 883e
00000240: 5611 4b3d 9330 963e 8b80 103e 3079 853e
00000250: 78b5 f3b9 0741 123e 8488 4a3e 66e7 543b
00000260: 1474 2e3e ec4b 953d 0ac1 a0bc 60e6 eb3d
00000270: f67d 273e e103 073e 36f8 2d3d 8a8a a33e

lstm.bias_hh_l0 f4 [160]
0.06337234 0.065686814 0.079370886 0.3687118 0.2964943 0.31445345 0.07917454 0.24930118
0.11485741 0.21482772 0.19707626 0.26919255 0.18015845 0.33155993 0.3055187 0.33272752
-0.122833095 0.20206206 0.26705906 0.31467974 0.2788797 0.266236 0.08354072 0.053687885
0.099620804 0.33322752 0.30798 0.09245421 0.3384845 0.11046683 0.31343758 0.17269184
0.21204478 0.3401621 0.29347423 0.27375203 0.17659423 0.23054089 0.29605004 0.32871372
0.119560935 -0.010477733 0.021102091 0.077093944 0.13565579 -0.081693694 -0.078348376 0.047371004
0.11068066 0.122412205 -0.17480539 0.09556836 0.116676144 0.12107971 -0.038879175 0.1614643
0.1999852 -0.053653814 0.09485125 0.048984867 0.19518052 0.1957126 0.090412855 0.12045403
0.1781286 -0.1801031 0.005083349 0.22343037 -0.10529379 0.09202963 0.05911896 -0.099449396
0.08644107 0.1271582 0.18037976 -0.07016035 -0.06735796 0.10910979 0.037022162 0.044862766
0.2499067 -0.014110882 0.13553399 0.23955502 0.08134794 0.18987902 0.17161195 -0.22132769
0.046512578 -0.18414247 -0.019906849 0.16708559 -0.23723322 0.2038579 0.21377167 0.041228786
-0.24025533 0.071912974 -0.06233204 -0.24808176 0.1218842 -0.16299541 0.24787067 0.01942901
0.20272446 -0.16439353 0.16055599 -0.22674273 0.24228513 -0.07426196 -0.089694895 0.22829616
0.18943372 0.20269977 0.07577339 0.10155531 -0.24218138 0.25382307 0.13468906 0.005981397
-0.014736393 0.18390071 0.29767987 0.53557533 0.30013874 0.17160487 0.34741133 0.041184533
0.27890334 0.30106568 0.23383994 0.33118576 0.3234321 0.1772251 0.101392575 0.15085618
0.25572762 0.049518146 0.01291082 0.24333647 0.08964432 0.20618218 0.2744234 0.21840225
0.0664615 0.19375843 0.084577546 0.51216745 0.055639636 0.19537312 0.25826588 0.10408191
0.27887496 0.2881845 0.055127073 0.2572441 0.30235398 0.10425776 0.30569458 0.2802682
00000000: 5bc9 813d cf86 863d 348d a23d cbc7 bc3e
00000010: 1ace 973e 0b00 a13e 4326 a23d cf48 7f3e
00000020: 5d3a eb3d ccfb 5b3e 5cce 493e 9bd3 893e
00000030: 757b 383e 39c2 a93e f26c 9c3e 435b aa3e
00000040: eb8f fbbd 5be9 4e3e f7bb 883e b41d a13e
00000050: 52c9 8e3e 1650 883e 6617 ab3d d4e7 5b3d
00000060: fe05 cc3d cc9c aa3e 8eaf 9d3e a258 bd3d
00000070: d74d ad3e 6f3c e23d e47a a03e 21d6 303e
00000080: 4422 593e ba29 ae3e 4142 963e 3a29 8c3e
00000090: 1ed5 343e e912 6c3e df93 973e 2a4d a83e
000000a0: 5ddc f43d ccaa 2bbc 4bde ac3c 6ee3 9d3d
000000b0: 5ae9 0a3e 064f a7bd 1d75 a0bd 1908 423d
000000c0: 8bac e23d 40b3 fa3d 2f00 33be 58b9 c33d
000000d0: e7f3 ee3d a4f8 f73d c53f 1fbd e656 253e
000000e0: ecc8 4c3e 1ac4 5bbd 5f41 c23d 5ba4 483d
000000f0: 67dd 473e e268 483e 602a b93d 9ab0 f63d
00000100: 5867 363e f26c 38be 3992 a63b eeca 643e
00000110: 45a4 d7bd 087a bc3d b926 723d 20ac cbbd
00000120: 0408 b13d c235 023e 79b5 383e 3bb0 8fbd
00000130: f8f2 89bd f474 df3d 8da4 173d 05c2 373d
00000140: 8be7 7f3e 5431 67bc 6cc9 0a3e e94d 753e
00000150: c099 a63d a56f 423e 0bbb 2f3e baa3 62be
00000160: f983 3e3d d88f 3cbe b013 a3bc 7c18 2b3e
00000170: 44ed 72be 20c0 503e f6e6 5a3e 84df 283d
00000180: 7e05 76be 1c47 933d e24f 7fbd 2509 7ebe
00000190: 6c9e f93d 45e8 26be cfd1 7d3e 9629 9f3c
000001a0: 0097 4f3e c756 28be ca68 243e 3f2f 68be
000001b0: 9819 783e a816 98bd f5b1 b7bd 78c6 693e
000001c0: eafa 413e 8790 4f3e 142f 9b3d 3bfc cf3d
000001d0: 65fe 77be 19f5 813e eeeb 093e 98ff c33b
000001e0: e970 71bc 7850 3c3e 7f69 983e 771b 093f
000001f0: c9ab 993e 30b9 2f3e e6df b13e 1db1 283d
00000200: 6bcc 8e3e 4825 9a3e bd73 6f3e 2e91 a93e
00000210: e498 a53e 7f7a 353e e9a6 cf3d 0b7a 1a3e
00000220: bbee 823e 8ad3 4a3d e787 533c 322d 793e
00000230: 7197 b73d 6c21 533e 3981 8c3e d7a4 5f3e
00000240: f81c 883d 9c68 463e fe36 ad3d 681d 033f
00000250: 63e6 633d e40f 483e 6d3b 843e e528 d53d
00000260: b3c8 8e3e eb8c 933e edcc 613d 80b5 833e
00000270: 24ce 9a3e 1885 d53d 0084 9c3e 507f 8f3e

lstm.weight_ih_l0_reverse f4 [160, 180]
-0.06004338 -0.065787286 -0.019045856 -0.15425444 0.00943684 0.013498854 -0.09911765 -0.16235484
-0.10262455 0.13943699 0.10132438 -0.046053436 0.2715375 0.20711309 0.014690227 0.052704114
0.06185294 0.07906923 0.04060789 0.20145838 0.13337505 0.19714059 0.109240964 0.10591185
0.3030854 0.11443339 0.027350849 0.13289803 0.17410114 0.1900662 0.1789882 0.24820465
0.22374281 0.081881896 0.23341939 0.04429613 0.0897778 0.107873976 0.008215885 0.12569933
0.23044881 0.2203624 0.26202223 0.22800952 0.27175805 0.28460434 0.2645739 0.055862818
0.28838032 0.08852162 0.23097299 0.13495456 0.2454041 0.14926651 0.10168385 0.18577027
0.28038052 0.14648432 0.20892468 0.0767163 0.080703534 0.07141456 0.00894192 0.042135574
0.07184798 0.18702431 0.21118014 0.010297301 0.18333018 0.28348845 0.24696136 0.018220698
0.049841743 0.29983622 0.20963904 0.29850426 -0.0071217637 0.050477564 0.06593013 0.20393585
0.122636154 0.16410102 0.069347374 0.16278252 0.08739182 0.25138208 0.039547794 0.096940905
0.23380402 0.26831678 0.001129626 0.041902877 -0.0045313006 0.26960105 0.19589138 0.103472136
0.15974268 0.20362933 0.17664821 0.22805671 0.11923461 0.112892285 0.16954127 -0.027425935
0.0025274304 0.0038063147 0.18917589 0.0159422 0.23783241 0.21935673 0.080926955 -0.0138091035
0.16612612 -0.02289018 0.12407567 0.14416456 0.08254152 0.17794749 0.11049083 -0.06584978
0.20273282 -0.06847848 -0.1109814 -0.021427488 -0.04241226 0.13189681 0.10142531 0.07809572
0.070277035 -0.013105894 -0.01916771 -0.09280552 -0.106383406 -0.13418394 -0.25543407 0.021192415
-0.26321822 -0.23012596 -0.2100837 -0.15934727 -0.04290148 -0.22598693 0.022899814 -0.05156518
-0.21195944 -0.07472061 -0.24949758 -0.24061747 -0.19366749 -0.2001533 -0.22526416 -0.07776382
-0.018404927 -0.24971531 -0.046523295 -0.24177071 -0.1389304 -0.03783227 -0.10900667 -0.24234764
-0.18681872 -0.0433303 -0.11537704 -0.016078353 -0.08924454 -0.10319196 -0.14500341 -0.15763964
-0.07828865 -0.22265327 -0.09725398 -0.20136012 -0.23362884 0.010441229 -0.09575459 -0.16368096
0.008509181 -0.20416096 -0.25528738 -0.26384303 -0.2613527 -0.35141522 -0.42471743 -0.8682194
-1.0139887 -1.3364958 -1.5250789 -1.9302508 -2.0773711 -2.1817672 -2.1859043 -2.1095347
-2.2869341 -2.2607195 -2.1382403 -2.0426743 -1.7912545 -1.8936609 -1.6832306 -1.4330462
-1.088441 -1.0955347 -0.64125454 -0.40266773 -0.059390556 0.02116337 0.19607936 0.39333126
0.41680685 0.4893893 0.3373655 0.20671281 0.052575327 -0.3480081 -0.34896195 -0.39682275
-0.65089387 -0.39975822 -0.45479098 -0.15956175 -0.04756038 0.05460355 0.22248638 0.33223537
0.57396126 0.6686024 0.6948157 0.877576 1.013414 1.0570966 0.84844625 0.70334643
0.82610357 0.5271149 0.5867891 0.24827032 0.20493744 0.014429683 0.09784265 0.1553065
0.16250281 0.07428669 0.06587223 0.21775898 0.3504607 0.51971805 0.5398412 0.47654584
0.6494366 0.5587786 0.59153545 0.557897 0.64933234 0.6786277 0.53330636 0.69969004
00000000: 0cf0 75bd 7cbb 86bd 0e06 9cbc e0f4 1dbe
00000010: fa9c 1a3c 4c2a 5d3c 32fe cabd 5940 26be
00000020: d22c d2bd 92c8 0e3e 2883 cf3d 87a2 3cbd
00000030: f706 8b3e 7415 543e 47af 703c 45e0 573d
00000040: 8259 7d3d 0cef a13d 7554 263d 1b4b 4e3e
00000050: 7893 083e 39df 493e bab9 df3d 50e8 d83d
00000060: 022e 9b3e 0e5c ea3d e30e e03c 6c16 083e
00000070: 9247 323e b7a0 423e af48 373e 5c29 7e3e
00000080: d61c 653e b2b1 a73d 7e05 6f3e dc6f 353d
00000090: 6cdd b73d 08ed dc3d eb9b 063c 53b7 003e
000000a0: c6fa 6b3e aea6 613e c727 863e 547b 693e
000000b0: df23 8b3e a9b7 913e 3b76 873e 69d0 643d
000000c0: 96a6 933e d34a b53d 2f84 6c3e 8731 0a3e
000000d0: 364b 7b3e 52d9 183e 9f3f d03d 903a 3e3e
000000e0: 098e 8f3e fcff 153e 5af0 553e 6f1d 9d3d
000000f0: e547 a53d cc41 923d 2181 123c 5a96 2c3d
00000100: 0925 933d 4d83 3f3e 9b3f 583e 03b6 283c
00000110: e8ba 3b3e 6625 913e 70e3 7c3e 9343 953c
00000120: db26 4c3d 2284 993e 9eab 563e 8dd5 983e
00000130: af5d e9bb 90c1 4e3d 6006 873d 8fd4 503e
00000140: aa28 fb3d 190a 283e ff05 8e3d 76b0 263e
00000150: 7cfa b23d 27b5 803e defc 213d f488 c63d
00000160: 526a 6f3e d160 893e f50f 943a 5aa2 2b3d
00000170: 4e7b 94bb 2609 8a3e c097 483e 33e9 d33d
00000180: 9693 233e 3584 503e 45e3 343e b387 693e
00000190: 4631 f43d 1234 e73d 3a9c 2d3e 5bac e0bc
000001a0: 3fa3 253b 5d73 793b 53b7 413e 3799 823c
000001b0: 578a 733e 0d9f 603e 08bd a53d 943f 62bc
000001c0: f71c 2a3e 3084 bbbc 631b fe3d e09f 133e
000001d0: 870b a93d de37 363e 0449 e23d 40dc 86bd
000001e0: 3199 4f3e 723e 8cbd 374a e3bd b388 afbc
000001f0: 7ab8 2dbd f50f 073e 13b8 cf3d a6f0 9f3d
00000200: 68ed 8f3d 1bba 56bc 9a05 9dbc d210 bebd
00000210: 8bdf d9bd 8467 09be 41c8 82be b79b ad3c
00000220: 8ac4 86be 24a6 6bbe 2e20 57be ee2b 23be
00000230: 76b9 2fbd 1e69 67be 6498 bb3c 0336 53bd
00000240: e50b 59be 1f07 99bd 4b7c 7fbe 6d64 76be
00000250: c550 46be fdf4 4cbe a6ab 66be a342 9fbd
00000260: eec5 96bc 5fb5 7fbe 368f 3ebd be92 77be
00000270: c543 0ebe 03f6 1abd e43e dfbd fb29 78be
00000280: 684d 3fbe 1d7b 31bd cc4a ecbd c0b6 83bc
00000290: d7c5 b6bd 4e56 d3bd c67b 14be 496c 21be
000002a0: cd55 a0bd 38ff 63be 182d c7bd 5931 4ebe
000002b0: 663c 6fbe b011 2b3c fc1a c4bd fb9b 27be
000002c0: 186a 0b3c 920f 51be 07b5 82be 6f16 87be
000002d0: 05d0 85be b2ec b3be 9074 d9be a043 5ebf
000002e0: 62ca 81bf 4b12 abbf c935 c3bf 7512 f7bf
000002f0: a6f3 04c0 13a2 0bc0 dbe5 0bc0 9e02 07c0
00000300: 215d 12c0 a1af 10c0 eed8 08c0 2dbb 02c0
00000310: d447 e5bf 7b63 f2bf 1a74 d7bf 0f6e b7bf
00000320: 0952 8bbf 7b3a 8cbf 4229 24bf 772a cebe
00000330: 8343 73bd ce5e ad3c 07c9 483e b762 c93e
00000340: b567 d53e 3c91 fa3e 2cbb ac3e 86ac 533e
00000350: 3a59 573d 1e2e b2be 24ab b2be 5a2c cbbe
00000360: fba0 26bf 1cad ccbe 5dda e8be 2864 23be
00000370: acce 42bd f9a7 5f3d 78d3 633e c11a aa3e
00000380: 20ef 123f 8729 2b3f 71df 313f d2a8 603f
00000390: 8db7 813f f14e 873f c633 593f 830e 343f
000003a0: 867b 533f 01f1 063f cf37 163f 933a 7e3e
000003b0: 1fdb 513e 7a6a 6c3c ba61 c83d ab08 1f3e
000003c0: 2367 263e 9f23 983d 05e8 863d 36fc 5e3e
000003d0: 966f b33e 3e0c 053f 0833 0a3f d1fd f33e
000003e0: 7a41 263f 1d0c 0f3f de6e 173f 56d2 0e3f
000003f0: a53a 263f 8cba 2d3f c486 083f e31e 333f

lstm.weight_hh_l0_reverse f4 [160, 40]
0.0073172417 0.043969546 0.0993465 0.01101652 0.11894228 -0.07794039 0.13975763 0.03469457
-0.05906515 -0.08045707 -0.078003496 -0.08721767 0.1287371 0.16169475 0.036535572 -0.030953705
-0.016254354 0.05908537 0.008354758 0.15332654 0.02620345 -0.0741041 0.097625375 -0.031228477
-0.07379788 0.10214601 -0.1019052 0.10052407 -0.00732007 0.057151843 -0.0927962 0.1658856
0.082623996 0.1019025 0.13069507 -0.09183536 -0.15020272 0.08891127 0.081700474 0.10400763
0.024456486 -0.01530884 0.08076728 0.044289757 -0.094147444 0.052317698 0.06748466 0.10394466
0.04130481 0.015338276 0.05236748 -0.124276415 0.035534255 0.036091693 0.011708966 0.18854602
-0.060049146 -0.09845754 -0.11669896 0.14539777 -0.17109321 0.074919134 0.054035958 -0.05171705
0.05576269 -0.017279554 0.010222219 -0.16706555 0.103978924 -0.018157652 0.15831195 -0.045716003
0.106578246 -0.09583016 0.13816082 0.05759123 -0.021199618 0.012844986 0.12905319 0.08918294
-0.10028931 0.14621626 0.059866242 0.08449328 0.14046557 -0.19432193 0.15922539 -0.08931336
-0.12660755 0.07649354 0.070451275 0.120725505 0.015925387 0.06752801 -0.006036955 0.08672173
0.071669914 0.042962994 -0.029173618 0.15367393 0.039847124 0.07234081 0.052264187 0.038384162
-0.070030466 0.08490615 -0.010866637 -0.06404282 0.13422155 0.17415392 0.043802124 -0.086749256
0.11138062 -0.06904619 0.05120129 -0.13413051 0.036592565 -0.052084398 -0.06470478 0.1667809
0.11429348 0.13987981 0.14051421 0.018692575 -0.11032199 -0.12504947 -0.008847459 -0.0087570185
-0.13914607 -0.12494973 -0.034893133 -0.060474947 0.18891673 0.10305854 -0.10426328 0.101286896
0.02791077 -0.059230175 0.061414197 0.012149394 -0.013654593 0.09480296 0.12087296 -0.025820741
-0.025321042 -0.113235526 0.11848657 -0.16373828 0.18139462 -0.05261287 -0.08213422 0.058432106
-0.09731425 0.16543229 0.116407625 0.083727516 0.07731417 -0.06252624 0.119854264 0.1980981
0.049224384 -0.05711869 0.052804213 0.028611269 -0.11249133 0.0070556807 -0.028557327 0.10192456
-0.1180512 0.017609233 0.18648589 0.0776379 0.08463537 0.059050854 0.05859422 0.07811191
0.065373376 0.0068038497 0.039038084 0.13599513 -0.05621243 0.014804287 0.0039846296 0.14761369
0.010539239 0.1377168 0.07436835 -0.19037835 0.033674326 -0.0025567159 -0.0034431808 -0.02175211
0.123855636 -0.05328688 0.09601749 0.09459105 -0.06212119 -0.054717373 -0.17512652 0.21066423
0.10051925 -0.10422603 0.18136851 -0.029400297 -0.064188085 0.03487686 0.08088038 0.13970508
0.013499135 -0.10952543 -0.060129546 -0.046333473 0.06373101 0.13800727 0.036460496 -0.027273944
0.09921166 -0.14140612 0.014346814 0.20453708 0.044381626 0.06435183 -0.19104391 0.017465064
0.07078982 0.089205615 -0.11342609 0.02850649 -0.010805441 0.06857722 -0.18057218 -0.0008595829
0.07246559 0.08309615 0.04550557 -0.015740259 -0.1397654 -0.071895026 -0.01981411 0.2098715
-0.102983385 0.11232095 0.09916928 -0.035270855 -0.014541902 0.06409998 0.124804154 -0.103797644
-0.013911544 0.06873144 0.003985904 -0.045715388 0.006478883 0.05397009 0.028394913 0.14716928
00000000: 79c5 ef3b 6919 343d 2e76 cb3d a27e 343c
00000010: 0398 f33d 369f 9fbd a01c 0f3e e51b 0e3d
00000020: 4cee 71bd adc6 a4bd 4cc0 9fbd 2e9f b2bd
00000030: a9d3 033e 4f93 253e 53a6 153d a092 fdbc
00000040: da27 85bc 8003 723d 65e2 083c a201 1d3e
00000050: 9ea8 d63c e4c3 97bd d0ef c73d ddd2 ffbc
00000060: 5823 97bd ed31 d13d acb3 d0bd 90df cd3d
00000070: 33dd efbb 0d18 6a3d ef0b bebd eadd 293e
00000080: c536 a93d 42b2 d03d eed4 053e 2d14 bcbd
00000090: bece 19be 1d17 b63d 9452 a73d f401 d53d
000000a0: f858 c83c eed1 7abc 5169 a53d 2d69 353d
000000b0: 60d0 c0bd 154b 563d 6635 8a3d f0e0 d43d
000000c0: 3c2f 293d 644d 7b3c 487f 563d a284 febd
000000d0: 5e8c 113d e2d4 133d f7d6 3f3c 3512 413e
000000e0: 18f6 75bd 1ba4 c9bd ddff eebd 27e3 143e
000000f0: 0f33 2fbe 346f 993d cf54 5d3d 42d5 53bd
00000100: 6b67 643d da8d 8dbc 187b 273c 3b13 2bbe
00000110: e7f2 d43d 5bbf 94bc 871c 223e b440 3bbd
00000120: b245 da3d 9a42 c4bd 087a 0d3e c8e4 6b3d
00000130: d2aa adbc c773 523c 8526 043e 8ca5 b63d
00000140: 7b64 cdbd b7b9 153e 4e36 753d d00a ad3d
00000150: 35d6 0f3e 54fc 46be fb0b 233e ece9 b6bd
00000160: 69a5 01be a5a8 9c3d c248 903d ef3e f73d
00000170: f575 823c 204c 8a3d a6d1 c5bb 2a9b b13d
00000180: adc7 923d f7f9 2f3d 83fd eebc b35c 1d3e
00000190: bd36 233d 6b27 943d f912 563d b638 1d3d
000001a0: 226c 8fbd 47e3 ad3d fb09 32bc e228 83bd
000001b0: 6071 093e 6855 323e db69 333d 98a9 b1bd
000001c0: 861b e43d 1768 8dbd 72b8 513d 8259 09be
000001d0: 16e2 153d 7356 55bd f183 84bd 9dc8 2a3e
000001e0: b312 ea3d a73c 0f3e f5e2 0f3e 2c21 993c
000001f0: 7ff0 e1bd f80c 00be eff4 10bc 9979 0fbc
00000200: 4f7c 0ebe a5e5 ffbd 1aec 0ebd 94b4 77bd
00000210: 6373 413e 5b10 d33d fd87 d5bd 816f cf3d
00000220: 21a5 e43c 579b 72bd 748d 7b3d 400e 473c
00000230: 84b7 5fbc 0e28 c23d 3e8c f73d 0586 d3bc
00000240: 136e cfbc 07e8 e7bd 16a9 f23d 02ab 27be
00000250: 83bf 393e 9880 57bd fc35 a8bd 8156 6f3d
00000260: b24c c7bd 1567 293e 1f67 ee3d 5579 ab3d
00000270: e456 9e3d c20d 80bd 2776 f53d 3ada 4a3e
00000280: 829f 493d 4af5 69bd 3b49 583d 2e62 ea3c
00000290: db61 e6bd 5733 e73b 0ef1 e9bc d3bd d03d
000002a0: d4c4 f1bd 3d41 903c 28f6 3e3e 9f00 9f3d
000002b0: 4f55 ad3d 4fdf 713d 7e00 703d 23f9 9f3d
000002c0: 7ae2 853d d4f2 de3b 66e6 1f3d 4f42 0b3e
000002d0: 013f 66bd ae8d 723c 7f91 823b 0b28 173e
000002e0: c6ac 2c3c a205 0d3e 6f4e 983d 8bf2 42be
000002f0: 17ee 093d 938e 27bb fda6 61bb 7b31 b2bc
00000300: 06a8 fd3d 5843 5abd d1a4 c43d f4b8 c13d
00000310: ca72 7ebd 531f 60bd 5e54 33be 5db8 573e
00000320: 09dd cd3d 7574 d5bd abb8 393e e4d8 f0bc
00000330: 0b75 83bd 0adb 0e3d 9da4 a53d d90e 0f3e
00000340: 7a2b 5d3c de4e e0bd 664a 76bd 2bc8 3dbd
00000350: 6785 823d c751 0d3e 9a57 153d 9b6d dfbc
00000360: 7c2f cb3d c4cc 10be e60e 6b3c 2b72 513e
00000370: 82c9 353d e4ca 833d 04a1 43be e512 8f3c
00000380: 41fa 903d 6fb1 b63d f04b e8bd 7186 e93c
00000390: 4e09 31bc 3772 8c3d eae7 38be a255 61ba
000003a0: d768 943d 502e aa3d 0c64 3a3d b7f1 80bc
000003b0: a91e 0fbe b33d 93bd 3351 a2bc 8ee8 563e
000003c0: f4e8 d2bd 8708 e63d 4319 cb3d 2c78 10bd
000003d0: 2841 6ebc da46 833d 5299 ff3d dc93 d4bd
000003e0: 3fed 63bc 12c3 8c3d 309c 823b 0f40 3bbd
000003f0: cf4c d43b be0f 5d3d 739c e83c 8bb3 163e

lstm.bias_ih_l0_reverse f4 [160]
0.2099523 -0.15819651 0.17961664 0.15255629 0.27213106 0.25008884 0.14707673 0.14124787
0.06314349 0.15088178 0.16734743 0.30122244 0.18978849 0.15014853 0.24639201 0.109536335
0.18826449 0.1217425 0.14883433 0.107692085 0.23791082 0.12099759 0.22674198 0.07396347
0.1082921 0.13277179 0.30361146 0.20475769 0.2636789 0.02091215 0.1986467 0.1414698
0.19525442 0.09983975 0.21121451 -0.007092018 0.17718303 0.31963256 0.13705344 0.189544
0.06652129 -0.13556425 -0.0352828 -0.07572792 0.15649483 0.18875475 0.00906419 0.03841442
0.13151528 -0.06942727 -0.026927877 0.090534285 0.019252539 -0.082484126 0.21135208 0.2061379
-0.06958962 0.14210747 0.049127523 -0.09685825 -0.07300211 0.07266679 0.0346724 0.039094765
0.12922984 0.18142684 0.09355833 -0.09226824 0.18173683 0.10281753 0.04896543 -0.07717641
0.2208782 0.01691033 -0.07483849 0.02738075 -0.07849099 0.056095436 -0.07305261 -0.045698795
0.10676258 -0.1590998 0.25033885 -0.10396383 0.10397872 -0.08785124 0.22036509 0.14405045
-0.005817038 -0.009649464 0.23299354 0.022855235 0.0424152 0.26104826 -0.20507444 -0.01441052
0.24394816 -0.14960478 -0.0014219488 0.15381977 0.20554945 -0.021468936 -0.22519717 0.12289455
0.014238729 0.12345595 -0.17056817 -0.19778633 0.24910323 -0.000990838 -0.06497548 -0.025003277
-0.094732426 -0.029664384 0.27051923 -0.016794521 -0.13584045 0.11699343 -0.019964552 0.26029298
0.23632066 0.11782763 0.24685858 0.31318784 0.29367802 -0.44937354 -0.040269572 0.27788082
-0.011774254 0.18332638 0.14895692 0.3994709 0.30825004 -0.16861586 0.0657636 0.104887635
0.18778843 -0.23665209 0.25920838 0.09566245 0.12558769 0.070057556 0.094024345 -0.17371868
0.17707533 -0.41158906 0.25995252 0.2371813 0.057049967 0.21102497 0.09774841 0.15654792
0.15180607 0.04774605 0.25527063 0.111516975 0.27013668 0.17286012 0.26144403 0.04450054
00000000: bcfd 563e 44fe 21be 6ded 373e b737 1c3e
00000010: c354 8b3e a50b 803e 489b 163e 48a3 103e
00000020: 6051 813d c180 1a3e 205d 2b3e d439 9a3e
00000030: ea57 423e 89c0 193e 304e 7c3e 9654 e03d
00000040: 68c8 403e 2254 f93d 0768 183e ab8d dc3d
00000050: e59e 733e 96cd f73d 0d2f 683e 297a 973d
00000060: 40c8 dd3d 54f5 073e f672 9b3e 00ac 513e
00000070: ec00 873e f54f ab3c 0a6a 4b3e 76dd 103e
00000080: c6f0 473e c878 cc3d 9e48 583e 2964 e8bb
00000090: 786f 353e e1a6 a33e bd57 0c3e d317 423e
000000a0: 503c 883d 5bd1 0abe b384 10bd 3d17 9bbd
000000b0: 2e40 203e ed48 413e f881 143c 7058 1d3d
000000c0: f1ab 063e e22f 8ebd da97 dcbc 0a6a b93d
000000d0: 80b7 9d3c 70ed a8bd ae6c 583e d015 533e
000000e0: 0185 8ebd 9f84 113e f139 493d 9e5d c6bd
000000f0: 2182 95bd 53d2 943d a604 0e3d d521 203d
00000100: d454 043e f5c7 393e 829b bf3d 22f7 bcbd
00000110: 3819 3a3e ff91 d23d fa8f 483d aa0e 9ebd
00000120: e52d 623e 8887 8a3c ec44 99bd 984d e03c
00000130: e2bf a0bd 54c4 653d 9b9c 95bd a92e 3bbd
00000140: 57a6 da3d 0feb 22be 6a2c 803e fdea d4bd
00000150: ccf2 d43d 5aeb b3bd 63a7 613e f681 133e
00000160: da9c bebb c918 1ebc dc95 6e3e e73a bb3c
00000170: 90bb 2d3d 1ea8 853e 09ff 51be 1a1a 6cbc
00000180: 8ccd 793e ff31 19be af60 baba ee82 1d3e
00000190: 8e7b 523e 9fdf afbc 169a 66be 23b0 fb3d
000001a0: 8f49 693c 79d6 fc3d 6ca9 2ebe 8088 4abe
000001b0: eb14 7f3e 02df 81ba dd11 85bd acd3 ccbc
000001c0: 1303 c2bd b902 f3bc 7f81 8a3e aa94 89bc
000001d0: c219 0bbe 409a ef3d b38c a3bc 1f45 853e
000001e0: 0bfe 713e 9d4f f13d 7fc8 7c3e 285a a03e
000001f0: f75c 963e 4a14 e6be b5f1 24bd 6546 8e3e
00000200: cde8 40bc e9b9 3b3e 2a88 183e 7387 cc3e
00000210: f3d2 9d3e a3a9 2cbe 11af 863d 54cf d63d
00000220: 9c4b 403e ed54 72be f6b6 843e adea c33d
00000230: 0f9a 003e 567a 8f3d d68f c03d 4fe3 31be
00000240: 3c53 353e cdbb d2be 7f18 853e a8df 723e
00000250: 3aad 693d ee16 583e 5230 c83d 194e 203e
00000260: 0d73 1b3e 5d91 433d d5b2 823e 0363 e43d
00000270: 5b4f 8a3e 3e02 313e fedb 853e 3346 363d

lstm.bias_hh_l0_reverse f4 [160]
0.2527896 -0.29756653 0.2723734 0.103232615 0.044018723 0.20452404 0.2850556 0.20460075
0.04322326 0.07284885 0.25416848 0.056752022 0.27974987 0.09996443 0.09675636 0.07010679
0.09998735 0.040029656 0.06586007 0.117160626 0.27993307 0.09559441 0.26635152 0.122685276
0.2623037 0.059327178 0.28309327 0.26678485 0.34086153 0.25126868 0.2662937 0.3026834
0.3479712 0.19818214 0.27437246 0.06453714 0.12167343 0.11289651 0.2830148 0.3379651
-0.012522726 -0.1734855 0.044799984 -0.016332155 0.13512266 0.11981575 -0.03705811 -0.08324313
0.054006767 -0.033365086 0.20712003 0.2443457 0.19057858 0.11575494 0.03629363 0.12725863
0.124316126 0.22296162 -0.06490077 -0.045462087 0.108133465 0.051939476 0.17181252 -0.020397965
0.11142767 -0.06176381 -0.07731025 -0.08292803 -0.03594975 0.18553813 0.2094584 -0.05493078
0.19113706 -0.032462724 0.105121076 -0.062041868 0.06855294 0.15129162 -0.08019484 0.08501835
0.14404847 0.08215232 0.14618063 -0.25303963 0.2382618 -0.049903434 0.23232163 0.031754535
-0.16411734 -0.12179806 0.24304447 -0.09332124 0.22265136 0.09476877 -0.05463164 0.06958359
0.20260581 -0.11603446 0.03177374 0.20687008 0.063061 -0.003929836 -0.06829134 0.12139142
-0.11813278 0.01022993 0.029975228 -0.035430506 0.052365076 0.077291384 0.04663024 -0.038451083
-0.1931114 -0.029906126 0.10967458 -0.12518792 -0.16935523 0.07298504 -0.076128356 0.101996295
0.06874235 0.25193968 0.15048823 0.18477514 0.18120278 -0.40865105 0.25393313 0.17503965
-0.018944103 0.26242208 0.035910722 0.38695654 0.31668994 -0.3836436 0.26936194 0.10693667
0.072314285 -0.33316386 0.21967103 0.3241571 0.29109403 0.24343282 0.22242638 -0.30328387
0.25752586 -0.36966392 0.29555273 0.15976992 0.31852454 0.23635533 0.14554343 0.20725748
0.16571516 0.30913424 0.19721532 0.27621612 0.19161989 0.30038288 0.05786467 0.30768692
00000000: a36d 813e a45a 98be 8774 8b3e 9f6b d33d
00000010: fa4c 343d c06e 513e cff2 913e dc82 513e
00000020: e00a 313d c731 953d 5f22 823e cf74 683d
00000030: 603b 8f3e 27ba cc3d 3328 c63d 2694 8f3d
00000040: 2bc6 cc3d 23f6 233d a5e1 863d e9f1 ef3d
00000050: 6353 8f3e 01c7 c33d 3a5f 883e 6b42 fb3d
00000060: ac4c 863e 0e01 733d 9af1 903e 0698 883e
00000070: 6785 ae3e 4aa6 803e a657 883e 52f9 9a3e
00000080: 4829 b23e 42f0 4a3e 8c7a 8c3e 0c2c 843d
00000090: eb2f f93d 4936 e73d 51e7 903e c309 ad3e
000000a0: 1f2c 4dbc 2fa6 31be 3080 373d 03cb 85bc
000000b0: 985d 0a3e f661 f53d 3fca 17bd 607b aabd
000000c0: 3336 5d3d d4a9 08bd 4617 543e c235 7a3e
000000d0: 0827 433e ed10 ed3d a1a8 143d 1650 023e
000000e0: 7499 fe3d 0d50 643e b2ea 84bd 7436 3abd
000000f0: 1475 dd3d 7dbe 543d 9fef 2f3e a219 a7bc
00000100: 3134 e43d 0dfc 7cbd d654 9ebd 2cd6 a9bd
00000110: 0c40 13bd b5fd 3d3e 437c 563e 19ff 60bd
00000120: 6fb9 433e a2f7 04bd b849 d73d 9d1f 7ebd
00000130: 7c65 8c3d 31ec 1a3e 313d a4bd 1a1e ae3d
00000140: 7181 133e 7a3f a83d 60b0 153e 698e 81be
00000150: e7fa 733e 8b67 4cbd b9e5 6d3e 0b11 023d
00000160: 600e 28be 4371 f9bd a6e0 783e 351f bfbd
00000170: b8fe 633e 2116 c23d 6dc5 5fbd d781 8e3d
00000180: e677 4f3e 7aa3 edbd 2e25 023d c0d5 533e
00000190: 2026 813d dbc5 80bb 54dc 8bbd 119c f83d
000001a0: 99ef f1bd 709b 273c 9c8e f53c 941f 11bd
000001b0: c37c 563d f24a 9e3d 5aff 3e3d e27e 1dbd
000001c0: ffbe 45be b1fd f4bc 119d e03d 4331 00be
000001d0: 756b 2dbe 2e79 953d 2fe9 9bbd 6fe3 d03d
000001e0: cac8 8c3d 3dfe 803e 9619 1a3e b235 3d3e
000001f0: 398d 393e b63a d1be 8603 823e 983d 333e
00000200: aa30 9bbc 305c 863e 1f17 133d 2b1f c63e
00000210: 2f25 a23e ef6c c4be cfe9 893e 9d01 db3d
00000220: 8319 943d 7494 aabe 71f1 603e ebf7 a53e
00000230: 470a 953e 7446 793e bec3 633e 0648 9bbe
00000240: 6eda 833e 9744 bdbe b052 973e ba9a 233e
00000250: a615 a33e 2207 723e 5609 153e 4e3b 543e
00000260: 3cb1 293e d846 9e3e d0f2 493e 336c 8d3e
00000270: 0138 443e c9cb 993e 8103 6d3d 2489 9d3e

batchnorm.weight f4 [40]
1.0 1.0 1.0 1.0 1.0 1.0 1.0 1.0
1.0 1.0 1.0 1.0 1.0 1.0 1.0 1.0
1.0 1.0 1.0 1.0 1.0 1.0 1.0 1.0
1.0 1.0 1.0 1.0 1.0 1.0 1.0 1.0
1.0 1.0 1.0 1.0 1.0 1.0 1.0 1.0
00000000: 0000 803f 0000 803f 0000 803f 0000 803f
00000010: 0000 803f 0000 803f 0000 803f 0000 803f
00000020: 0000 803f 0000 803f 0000 803f 0000 803f
00000030: 0000 803f 0000 803f 0000 803f 0000 803f
00000040: 0000 803f 0000 803f 0000 803f 0000 803f
00000050: 0000 803f 0000 803f 0000 803f 0000 803f
00000060: 0000 803f 0000 803f 0000 803f 0000 803f
00000070: 0000 803f 0000 803f 0000 803f 0000 803f
00000080: 0000 803f 0000 803f 0000 803f 0000 803f
00000090: 0000 803f 0000 803f 0000 803f 0000 803f

batchnorm.bias f4 [40]
0.0 0.0 0.0 0.0 0.0 0.0 0.0 0.0
0.0 0.0 0.0 0.0 0.0 0.0 0.0 0.0
0.0 0.0 0.0 0.0 0.0 0.0 0.0 0.0
0.0 0.0 0.0 0.0 0.0 0.0 0.0 0.0
0.0 0.0 0.0 0.0 0.0 0.0 0.0 0.0
00000000: 0000 0000 0000 0000 0000 0000 0000 0000
00000010: 0000 0000 0000 0000 0000 0000 0000 0000
00000020: 0000 0000 0000 0000 0000 0000 0000 0000
00000030: 0000 0000 0000 0000 0000 0000 0000 0000
00000040: 0000 0000 0000 0000 0000 0000 0000 0000
00000050: 0000 0000 0000 0000 0000 0000 0000 0000
00000060: 0000 0000 0000 0000 0000 0000 0000 0000
00000070: 0000 0000 0000 0000 0000 0000 0000 0000
00000080: 0000 0000 0000 0000 0000 0000 0000 0000
00000090: 0000 0000 0000 0000 0000 0000 0000 0000

batchnorm.running_mean f4 [40]
0.0 0.0 0.0 0.0 0.0 0.0 0.0 0.0
0.0 0.0 0.0 0.0 0.0 0.0 0.0 0.0
0.0 0.0 0.0 0.0 0.0 0.0 0.0 0.0
0.0 0.0 0.0 0.0 0.0 0.0 0.0 0.0
0.0 0.0 0.0 0.0 0.0 0.0 0.0 0.0
00000000: 0000 0000 0000 0000 0000 0000 0000 0000
00000010: 0000 0000 0000 0000 0000 0000 0000 0000
00000020: 0000 0000 0000 0000 0000 0000 0000 0000
00000030: 0000 0000 0000 0000 0000 0000 0000 0000
00000040: 0000 0000 0000 0000 0000 0000 0000 0000
00000050: 0000 0000 0000 0000 0000 0000 0000 0000
00000060: 0000 0000 0000 0000 0000 0000 0000 0000
00000070: 0000 0000 0000 0000 0000 0000 0000 0000
00000080: 0000 0000 0000 0000 0000 0000 0000 0000
00000090: 0000 0000 0000 0000 0000 0000 0000 0000

batchnorm.running_var f4 [40]
1.0 1.0 1.0 1.0 1.0 1.0 1.0 1.0
1.0 1.0 1.0 1.0 1.0 1.0 1.0 1.0
1.0 1.0 1.0 1.0 1.0 1.0 1.0 1.0
1.0 1.0 1.0 1.0 1.0 1.0 1.0 1.0
1.0 1.0 1.0 1.0 1.0 1.0 1.0 1.0
00000000: 0000 803f 0000 803f 0000 803f 0000 803f
00000010: 0000 803f 0000 803f 0000 803f 0000 803f
00000020: 0000 803f 0000 803f 0000 803f 0000 803f
00000030: 0000 803f 0000 803f 0000 803f 0000 803f
00000040: 0000 803f 0000 803f 0000 803f 0000 803f
00000050: 0000 803f 0000 803f 0000 803f 0000 803f
00000060: 0000 803f 0000 803f 0000 803f 0000 803f
00000070: 0000 803f 0000 803f 0000 803f 0000 803f
00000080: 0000 803f 0000 803f 0000 803f 0000 803f
00000090: 0000 803f 0000 803f 0000 803f 0000 803f

linear.weight f4 [180, 80]
-0.20972393 -0.16567157 -0.19357128 -0.20212889 -0.17780997 -0.34565347 -0.5514729 0.21216151
-0.24583073 0.40116942 0.1965662 -0.24448434 0.23595828 -0.04932073 -0.24123846 -0.17642061
0.18528591 -0.1438639 0.10001068 0.2365981 -0.12365574 0.25187218 -0.2141043 0.32695243
-0.16877647 0.3321336 -0.10668738 0.15226401 -0.30278617 0.28131667 0.21435753 -0.27406964
-0.21910615 -0.17947012 -0.45429912 -0.57920754 0.1877911 -0.27676624 -0.22870834 0.27959153
-0.13109536 0.0873152 -0.18968163 0.17962101 -0.2485013 0.21196596 -0.27530536 -0.24271174
0.17178585 0.29716817 -0.3263744 0.07860372 -0.43564254 -0.20130326 0.26397973 -0.1268625
-0.11943154 0.3829048 0.12137601 -0.61591136 -0.2874654 -0.059650972 0.33078018 -0.45516104
0.47021452 -0.2199794 0.0921272 0.15330516 -0.5910098 -0.17532313 0.09531413 -0.27568284
0.19046612 -0.13248809 -0.099058576 0.1566137 0.51097304 -0.2618443 0.24254736 -0.5545904
-0.20377374 -0.1456334 -0.24798921 -0.11146063 -0.12171386 -0.49351266 -0.45006764 0.09547308
-0.288193 0.4947375 0.08889511 -0.17031424 0.25855112 -0.20066564 -0.22849292 -0.22545159
0.25123164 -0.13147417 0.26494887 0.1494312 -0.27292213 0.25260517 -0.22348301 0.26288056
-0.11970613 0.40558416 -0.16634513 0.12513515 -0.35771775 0.21168076 0.28167504 -0.18441448
-0.1826048 -0.30811122 -0.28613153 -0.64300174 0.2512085 -0.13702358 -0.25640476 0.077787675
-0.19811875 0.081759416 -0.25485435 0.32353312 -0.18561895 0.23585227 -0.18168634 -0.22838461
0.18989381 0.27685773 -0.36353278 0.061544236 -0.35212946 -0.05253148 0.25057057 -0.0971409
-0.13260388 0.40062493 0.23425747 -0.69059604 -0.29352042 -0.18509397 0.23445818 -0.46798077
0.39300892 -0.056085534 0.20878291 0.2336749 -0.6642044 -0.23970938 0.108738914 -0.21946846
0.17697737 -0.07314241 -0.13775028 0.17291401 0.62733114 -0.3380484 0.252712 -0.5467436
-0.25149664 -0.28659078 -0.13019806 -0.1281685 -0.2164277 -0.4963185 -0.5580995 0.08710961
-0.24111384 0.37225905 0.16866027 -0.13687873 0.26507947 -0.13258047 -0.22616991 -0.18786836
0.25711393 -0.116925955 0.26451415 0.11248856 -0.28629705 0.07630206 -0.16723508 0.16414239
-0.22923476 0.4863396 -0.26714483 0.11368555 -0.19412842 0.25374007 0.13797177 -0.1838091
-0.12529863 -0.15259573 -0.34671566 -0.8316084 0.27591768 -0.1068387 -0.4052119 0.13762878
-0.23761843 0.059978712 -0.27333528 0.120022506 -0.11650379 0.34727082 -0.13485791 -0.13755125
0.19134684 0.27909803 -0.3172851 0.21269102 -0.36641526 -0.1538639 0.15781051 -0.28204817
-0.18907914 0.3158732 0.17858283 -0.72787684 -0.16276929 -0.23603939 0.2807219 -0.40885457
0.4170533 -0.15761758 0.17134868 0.15611295 -0.44123676 -0.2452419 0.26770172 -0.08729368
0.040650405 -0.11948421 -0.15872903 0.10318465 0.60486 -0.34370294 0.3311318 -0.64996713
-0.24321115 -0.12878832 -0.21852069 -0.24418324 -0.035667956 -0.36705586 -0.668722 0.10202046
-0.22803628 0.54743934 0.20327887 -0.15297209 0.22230622 -0.12897214 -0.15552737 -0.25240532
00000000: dfc1 56be cfa5 29be 8d37 46be e0fa 4ebe
00000010: d113 36be 7ef9 b0be 542d 0dbf de40 593e
00000020: 0dbb 7bbe 1466 cd3e a648 493e 1a5a 7abe
00000030: 0c9f 713e 8904 4abd 3707 77be 9ba7 34be
00000040: 97bb 3d3e 0f51 13be 66d2 cc3d c646 723e
00000050: 383f fdbd 64f5 803e 283e 5bbe 4f66 a73e
00000060: bdd3 2cbe 6a0d aa3e ea7e dabd 19eb 1b3e
00000070: ca06 9bbe bd08 903e 8a80 5b3e db52 8cbe
00000080: 5d5d 60be 04c7 37be e599 e8be f246 14bf
00000090: 4f4c 403e 4eb4 8dbe 8532 6abe 9f26 8f3e
000000a0: dd3d 06be 50d2 b23d e73b 42be 92ee 373e
000000b0: 2077 7ebe 9b0d 593e d3f4 8cbe 6d89 78be
000000c0: a1e8 2f3e 6d26 983e 8c1a a7be fdfa a03d
000000d0: 8a0c dfbe 7122 4ebe 5a28 873e 3ee8 01be
000000e0: 8698 f4bd 190c c43e fc93 f83d 5eac 1dbf
000000f0: aa2e 93be 9454 74bd 055c a93e de0a e9be
00000100: f5bf f03e 4842 61be 2fad bc3d 07fc 1c3e
00000110: 6b4c 17bf e887 33be 0e34 c33d 4d26 8dbe
00000120: 8d09 433e f5aa 07be 39df cabd 575f 203e
00000130: 21cf 023f 7510 86be 565e 783e a3f9 0dbf
00000140: 10aa 50be ec20 15be e2f0 7dbe 7945 e4bd
00000150: 1e45 f9bd b1ad fcbe 446f e6be 6487 c33d
00000160: 088e 93be 3c4e fd3e a40e b63d db66 2ebe
00000170: d060 843e 4b7b 4dbe 0cfa 69be c8dc 66be
00000180: 6fa1 803e 2aa1 06be 61a7 873e 7e04 193e
00000190: 73bc 8bbe 7755 813e bbd8 64be 4898 863e
000001a0: 7d28 f5bd baa8 cf3e 6156 2abe 6e23 003e
000001b0: c826 b7be d7c2 583e b637 903e 26d7 3cbe
000001c0: c1fc 3abe c1c0 9dbe d57f 92be c39b 24bf
000001d0: 679e 803e e94f 0cbe 7c47 83be 254f 9f3d
000001e0: a4df 4abe 7b71 a73d 457c 82be 22a6 a53e
000001f0: e512 3ebe 4283 713e fc0b 3abe a8dd 69be
00000200: 8673 423e 4cc0 8d3e f820 babe cf15 7c3d
00000210: 504a b4be 402b 57bd c94a 803e cff1 c6bd
00000220: 50c9 07be b61e cd3e 31e1 6f3e e7ca 30bf
00000230: 4f48 96be 4689 3dbe ce15 703e 2d9b efbe
00000240: 7738 c93e f2b9 65bd 30cb 553e 7948 6f3e
00000250: 4d09 2abf 6076 75be 82b2 de3d 57bc 60be
00000260: 8e39 353e b0cb 95bd 690e 0dbe 5f10 313e
00000270: c698 203f ae14 adbe 7863 813e 63f7 0bbf
00000280: 2bc4 80be 07bc 92be a452 05be 9a3e 03be
00000290: 399f 5dbe 751d febe 9cdf 0ebf 8666 b23d
000002a0: 8ce6 76be bd98 be3e 47b5 2c3e f029 0cbe
000002b0: 7fb8 873e 2dc3 07be 1699 67be 9060 40be
000002c0: 70a4 833e e076 efbd 666e 873e 6760 e63d
000002d0: 8795 92be 4144 9c3d ac3f 2bbe f114 283e
000002e0: 84bc 6abe 8101 f93e 35c7 88be f8d3 e83d
000002f0: 9ac9 46be 38ea 813e 7948 0d3e 7438 3cbe
00000300: 494e 00be 0e42 1cbe b784 b1be 4ae4 54bf
00000310: 1545 8d3e 40ce dabd ef77 cfbe 8fee 0c3e
00000320: 3f52 73be 3dac 753d 9af2 8bbe 5cce f53d
00000330: 8a99 eebd 7bcd b13e 3118 0abe 3cda 0cbe
00000340: 6df0 433e f0e5 8e3e 3173 a2be adcb 593e
00000350: c89a bbbe 808e 1dbe 1499 213e 9e68 90be
00000360: f69d 41be 22ba a13e 6bde 363e 2356 3abf
00000370: feac 26be 4fb4 71be c8ba 8f3e 6355 d1be
00000380: 0388 d53e 8166 21be 0776 2f3e 13dc 1f3e
00000390: c9e9 e1be b120 7bbe 3310 893e 07c7 b2bd
000003a0: 0a81 263d 23b4 f4bd dd89 22be 7952 d33d
000003b0: 1bd8 1a3f d5f9 afbe 1b8a a93e 3f64 26bf
000003c0: 580c 79be 16e1 03be e3c3 5fbe 2c0b 7abe
000003d0: 9018 12bd bfee bbbe 5d31 2bbf 1af0 d03d
000003e0: 5882 69be fc24 0c3f 5628 503e b7a4 1cbe
000003f0: 3ea4 633e 4611 04be 9142 1fbe 453b 81be
