results/models/LSTMFCN.pth (torch, 492680 bytes, 28 tensors)

lstm_block.lstm.weight_ih_l0 f4 [160, 180]
00000000: f71f a6be 3e4e a4be 0cbb cebd ec9c 9abe
00000010: 6cba 31bd ca88 0cbd 2290 55be 6de9 363c
00000020: de79 e8bc 3d4f 633d 2c27 793e 63a7 7e3e
00000030: 4bd5 8d3e 27c9 853e 9820 aa3e 7c2d f43e
00000040: b6e2 103f 5365 c23e c130 c93e d1bc cf3e
00000050: 09ea d53e 099d 6e3e 93d3 363e 6ace 653e
00000060: f105 a43e 1012 b73e 1025 c93e b210 073e
00000070: aa51 153e 3e5a 9d3e 94ff 153e 48cc 3e3e
00000080: 8553 583e bf56 a23e c7ec b13e 3c07 223e
00000090: e5e9 533e cab6 533e b033 483e a432 d73e
000000a0: 41f7 a13e 872b b63e 9eac 823e 263e a43e
000000b0: 2950 a13e 6736 0e3e af55 653e 7860 ad3e
000000c0: 40da 593e 05f0 d43d ae44 f03d d240 873e
000000d0: 6d7f 513e 2a74 c63d ab68 c23e 2079 4b3e
000000e0: 8695 923e 5e42 8c3e e6d1 733e 3fb8 a93e
000000f0: 025d 5b3e 0e97 a33e 7fdb 8f3e 0e0b 723e
00000100: 4414 b33e ace1 033e 87f9 f23d 9bf9 c03d
00000110: 93eb 893e ea63 6a3e 6e02 ad3e 6aed 893e
00000120: f0cf 413d f255 973e 346f 073e 4d63 aa3e
00000130: f807 773e 3169 a23e da3d 383e 6c64 b53d
00000140: 3e47 903e 7896 5b3e ca2e 3d3e cd3e 813e
00000150: 8ab2 ae3d 108d 013e 4fd8 7d3e 05ca 633e
00000160: 2dc8 193e 2e3b 783e e8ba 5e3e b3da 8e3e
00000170: d5c5 743e 26cd b63d 88ce f63d 7541 b93e
00000180: e5cc 2f3e da32 f93d 2998 383e 2b88 553e
00000190: 3084 2b3e 7bcb 833e 0b06 933e 0aef 043e
000001a0: 1e5b 263e dabe 583e 8ae5 673e 6de6 f43d
000001b0: f12b 653e 80fb 983e 0e85 583d d77e 853e
000001c0: 5800 323e 422c 923c 41f6 f23d eb0a 4e3e
000001d0: 02b0 3f3e 5e33 f73d f01b d23d 64d1 7b3e
000001e0: c3fc 5b3e e6df 1a3e 3acd 68bd d7eb 323d
000001f0: 2798 fd3c 1cdc f7bd 2264 b63d e75d 3bbd
00000200: c69d 9bbd d532 cdbd 1b34 c6bd 50a3 cfbd
00000210: 9254 96be d560 d9bd 10bf 4abe 97ef 0fbe
00000220: 153a 9dbe ce9a 8dbe 39f9 99be 1e53 c7bd
00000230: 7369 d4bd d243 97be 99cf a5bd ec5a ecbd
00000240: edf3 92be 9660 1bbe 79af cfbd 0817 b4be
00000250: 30c6 62bd 742a 8ebe 0837 5ebe 36fe 92be
00000260: 84d6 97be a4e8 94be 91f0 88be 0195 66bd
00000270: 9e7e 0bbe 239a 07be bddc 7bbe b632 9dbe
00000280: 5581 55be c085 28be a3f8 53be 5431 13be
00000290: 2a31 a1be bc06 1abe 05cb 75bd c468 a2be
000002a0: 6ea9 9bbe b837 8dbe 8dfa 33be 934d 58be
000002b0: c041 6cbe f9fc a6be 3ab2 2dbe 28e9 3cbe
000002c0: d6ed aebe 1600 a7be 1300 25be 25a7 2dbd
000002d0: 4c8f 9fbc 164c b53d cdc2 8cbd 424d 2b3e
000002e0: 7802 3239 8e47 353d f763 1fbc 85d2 5d3d
000002f0: b313 383e 01cd 3c3e a58b c23d 03c8 463d
00000300: 80a4 7c3d 70bb ac3d 6168 15bb d3b5 76be
00000310: 0d93 78bd 7d5d 7fbe edb9 25be 1484 213d
00000320: 9e93 3c3c 0125 993d 859f 6e3d df14 4a3e
00000330: f556 91bd e2e8 f0bc 7a1a 7f3d 9c8f 17bd
00000340: ec1b 503e c3c9 143e c09d c43d 64a7 fa3d
00000350: d8ba 833d 5e01 363d 0767 583e 6f60 183d
00000360: 80a8 e0bd 7e6b b73d 1030 85bd c166 283e
00000370: 99c6 96bc 0174 953d f326 313e bb64 24ba
00000380: 8132 853e 9502 66bc fd6b b43d ec2a 853e
00000390: 10fd 0d3e f9f5 213e df7c 803e 31ac de3e
000003a0: da5f df3e 4f06 843e 6751 6c3e e97b c93e
000003b0: 6371 b43e 3a0c d13e 1d99 953e 9c81 c73e
000003c0: 3e9a 853e 0c4f 453e 87eb 813e 8b18 303e
000003d0: 91cf 493e 2487 903e 1f35 703e 01e8 8c3b
000003e0: d86c fd3d 21bd 163e 8bd2 2b3e 9594 0d3e
000003f0: 5cc7 f23d 5c9d 1b3e fa38 3f3d 9386 d23d
-0.32446262 -0.32090944 -0.1009427 -0.30197847 -0.043390676 -0.03431014 -0.20855764 0.0111640515
-0.028378423 0.05549549 0.24331349 0.2486854 0.27701792 0.2613003 0.33227992 0.47690952
0.56595933 0.3796793 0.3929501 0.40573743 0.41780117 0.23302092 0.17854147 0.22442022
0.32035783 0.35755968 0.3928609 0.13189963 0.14581934 0.30732912 0.14648277 0.18632615
0.2112561 0.31706807 0.3475096 0.15823072 0.20694692 0.20675197 0.19550967 0.42030823
0.31633952 0.35580084 0.2552232 0.32078665 0.3150647 0.1388794 0.22395967 0.33862662
0.21274662 0.103973426 0.117318496 0.2641664 0.20458765 0.09690125 0.3797048 0.19870424
0.28629702 0.27394384 0.23810539 0.3314838 0.21422198 0.31951183 0.2809715 0.2363703
0.349764 0.12879056 0.11864 0.094226085 0.2693754 0.22889677 0.33790916 0.26938945
0.047317445 0.2955776 0.13226014 0.33278885 0.24124134 0.3172088 0.17992344 0.088570446
0.28179353 0.21444118 0.1847488 0.25243226 0.085301474 0.12651467 0.24789546 0.22245033
0.15017767 0.24241325 0.21750987 0.2790123 0.23903592 0.08925848 0.120511115 0.36182752
0.17168005 0.12167902 0.18026794 0.20852725 0.16749644 0.2574118 0.28715548 0.12981811
0.16245696 0.21166554 0.22646156 0.11958013 0.22380044 0.2987938 0.052861266 0.26073334
0.17382944 0.01784337 0.118633755 0.20121352 0.18719485 0.120703444 0.10259235 0.24591595
0.2148314 0.15124473 -0.056836344 0.043681946 0.030956341 -0.121025294 0.089058176 -0.04574385
-0.07598452 -0.10019461 -0.09677907 -0.10138571 -0.29361397 -0.10614172 -0.19799447 -0.1405624
-0.30708376 -0.2765717 -0.30072954 -0.0973265 -0.10371675 -0.2954393 -0.08096237 -0.115407795
-0.28701726 -0.15173563 -0.10140891 -0.3517382 -0.055364788 -0.27766764 -0.2170068 -0.28709573
-0.2965585 -0.2908374 -0.26746038 -0.056294445 -0.1362252 -0.13242392 -0.24595924 -0.30702752
-0.20850118 -0.16457272 -0.20700316 -0.14374286 -0.31482822 -0.15041631 -0.060008068 -0.31720555
-0.30402702 -0.27581573 -0.17576046 -0.21123342 -0.23071957 -0.32614878 -0.1696252 -0.18448317
-0.3416583 -0.32617253 -0.1611331 -0.04239573 -0.019477509 0.08852403 -0.06873093 0.1672869
0.00016976323 0.044257693 -0.009728423 0.054155845 0.17976265 0.18437578 0.09499291 0.04853059
0.061680317 0.08434188 -0.002279781 -0.24092798 -0.060687114 -0.24938007 -0.16184206 0.0394326
0.011509804 0.07477761 0.0582576 0.19734524 -0.07096664 -0.029407922 0.06228111 -0.03700219
0.20323151 0.14530091 0.09600401 0.122389585 0.06432122 0.044434898 0.21133052 0.03720134
-0.10969639 0.089560494 -0.06503308 0.16445448 -0.018405246 0.072975166 0.17300014 -0.00062711135
0.26015094 -0.014038702 0.0880966 0.2600931 0.13866067 0.15816487 0.2509527 0.43490747
0.43627816 0.25786063 0.23077928 0.39352348 0.35242757 0.4082964 0.2921838 0.38966072
0.2609424 0.19268435 0.25375006 0.17196862 0.19708087 0.28228104 0.23457764 0.004300118
0.12374276 0.14720584 0.16779535 0.13826211 0.11854431 0.15196747 0.046685196 0.10279574

lstm_block.lstm.weight_hh_l0 f4 [160, 40]
00000000: 86f7 9dbc 10a8 afbd 1a11 15bd 7e2a eb3d
00000010: 9a6d 113e 2e3e a63d 7457 c43b 334e cdbd
00000020: 9ed8 ae3c c543 e43c d771 01be 5b7b cc3d
00000030: 4fc3 c1bd f290 1fbe 9920 cfbd 55c9 e7bd
00000040: e9c2 1dbe 5c02 9fbd 7f27 d9bd 36c4 173e
00000050: 667f 973d 30ca be3d c3ef bbbc f408 c1bd
00000060: 24be b13d f4a9 8c3d 0a61 21be 29ef ed3b
00000070: 3639 403d 4b97 443d d9a7 21be 6cab 4cbd
00000080: 88f0 193e a430 dbbc d1ab 9dbd 844d 943c
00000090: cc67 473d d883 543d 7371 e03d 1ef4 bebd
000000a0: 1cb5 193d c557 8d3c aa31 f63d 868c 133e
000000b0: fd21 00bc 0d08 04be e27f b93d 72ca 1c3e
000000c0: 8ffe 80bb cd9e 0bbe d271 cebd 1f4b f93d
000000d0: 4453 1c3e 67e0 eebd b4a6 b63b 98b4 acbd
000000e0: 5349 41bd 371b a6bd 3cd7 c33d 54fd 43bb
000000f0: 215d b63d 7bcd ae3d a7e6 ffbc 70a2 3d3d
00000100: ee85 fe3d d3cb 67bd d74e 0e3d ee3b 013e
00000110: fbfb 023e e4f3 873d 69be bb3d 8eb1 f7bd
00000120: ac21 d8bd ceef b7bd a366 213c 8737 033e
00000130: 156e dc3d 5ed0 40bd c3c8 803d 2f8e 4ebc
00000140: 8e84 ec3d bf5c d0bd f758 f93d 8381 1d3e
00000150: ffff 193d 5db8 9ebd fa18 ddbc ffd4 003e
00000160: 7e07 093e 6454 573d c5bb 9cbd c753 f13d
00000170: ffe8 b2bd 7f13 023c a14e 1fbe 0693 ac3d
00000180: 473b 18be 2957 893d 5a8c 45bd 3f07 e83d
00000190: ea8f 16be 787a f33d 2c51 dbbd b5f4 253d
000001a0: 69bb dfbd 77ff f03d e6f0 ab3d 3e44 ecbd
000001b0: 79c1 863d 651a 8c3d 794c c2bd 9afe d6bd
000001c0: 7e10 af3d c89d a03d 4c0b dbbd 6329 be3d
000001d0: 59bf e0bd f894 b23d 2c41 94bd a467 f4bc
000001e0: 64e8 0dbe 9ee2 bebd ea4a a43d 0ada ee3d
000001f0: 1091 163d f17a 1abe c328 a43d e0de fc3d
00000200: 0e13 a8bb 0f25 5ebc 9a30 09be 7a12 67bd
00000210: 3e5f ee3d f826 06be b3cc 01bd 960a a3bc
00000220: 0d81 66bd 0b1d e8bd 2b34 66bd ef34 a2bc
00000230: 4f8a 143c b8c1 973d 8cc1 a0bd 528d fcbc
00000240: 8111 833d c58d 84bb efdd a1bd eb29 e13d
00000250: 2c93 09be a026 c2bc 14ca f1bd b32b 87bd
00000260: ca3f 733d 18a2 2c3d be40 01be 5756 b43d
00000270: efd2 f8bd 0070 0a3d bdd6 3ebd 7072 033e
00000280: 9a7e 04be 367d d238 808e 6e3d f1f1 e1bd
00000290: a5c7 d23d da54 9bbd 4970 07be 7eee 8dbc
000002a0: 4aa9 a13d 7ffa a33d d238 54bd 0663 98bd
000002b0: 90ac 3e3d 5112 19be ff2a a4bd 6788 53bd
000002c0: b8da 0c3e 54e6 44bd 5824 3abd c152 113e
000002d0: dffc 223d 71e2 c83d 2ea2 133e 4cde 0f3d
000002e0: 7b88 103e 042a c4bd 3c7a 96bb 4ef0 c6bd
000002f0: d320 9a3d 401b dc3d c7b8 9bbc 3171 753d
00000300: 3fbd 88bd bd29 ccbd ee36 953d f35e 683c
00000310: 0b83 aabd ee83 dd3d e528 7fbd 1513 e33d
00000320: bdfe 513d 11f9 bc3d 806a 6dbd ff81 323c
00000330: f5ba af3c 0761 053e 27ea f9bd d58a 8a3d
00000340: dc28 0fbe 65d7 ed3d eebb f53d 237e 553d
00000350: bbda 6bbd c32e d1bd 763f 943d 4699 5b3d
00000360: d766 19be 6d8f 673b 98ea bdbc af86 0c3d
00000370: 1f14 1b3d ce7d 10be bb06 633d e8c2 9e3d
00000380: f3c4 1c3e 1a32 bebd e6b3 14be 8a9b e5bd
00000390: e672 1b3e bb20 a13d d790 02be 8ee8 82bd
000003a0: 4cb5 873c 0237 173e 73d3 f33c b1ad e23a
000003b0: 7d2e 0a3e a24b 1c3e 5859 f3bc 95aa 513d
000003c0: 27ac 953d fa4c 003d c850 953c fd42 4f3c
000003d0: cb89 673d ce34 baba 3bd6 a7bd c4e8 e8bd
000003e0: 1134 0a3e 1ab4 1abe f4e7 683d 2e11 133e
000003f0: 4bee 8abc 5e8a bf3d 1ae7 f1bd 6ac5 c9bd
-0.019283067 -0.08576977 -0.036393262 0.11482714 0.14201966 0.081173286 0.0059918705 -0.10024681
0.021343525 0.027864346 -0.12641083 0.09984466 -0.0946108 -0.15582636 -0.101136394 -0.11317698
-0.15406384 -0.07764122 -0.106032364 0.14820942 0.07397346 0.09315908 -0.022941476 -0.09425536
0.086788446 0.068683535 -0.15759674 0.007261176 0.04692956 0.047995847 -0.15786685 -0.04996817
0.15033162 -0.026756592 -0.07698787 0.018103369 0.048682973 0.05188355 0.10959139 -0.093239054
0.037526235 0.017253766 0.120211914 0.14409074 -0.007820603 -0.12893696 0.09057595 0.15311602
-0.0039365957 -0.13634796 -0.10080303 0.12172531 0.15266138 -0.11663895 0.005574072 -0.08432883
-0.047189068 -0.081106596 0.09562537 -0.0029905634 0.08904482 0.08535286 -0.031237913 0.04629749
0.12427889 -0.056590866 0.034743156 0.12620518 0.12791435 0.06638315 0.09167177 -0.12094413
-0.105532974 -0.08981286 0.009851131 0.12814151 0.10763184 -0.047073714 0.06288292 -0.012607141
0.1154872 -0.1017394 0.12175172 0.15381436 0.037597653 -0.07750008 -0.026989449 0.12581252
0.13381764 0.052570716 -0.07653002 0.117835574 -0.08735847 0.007939219 -0.15557338 0.0842648
-0.14866363 0.067060776 -0.048229553 0.11329507 -0.14703336 0.118885934 -0.10708842 0.040516574
-0.109244175 0.11767476 0.08395557 -0.11536454 0.06579871 0.06840972 -0.09487242 -0.1049778
0.085480675 0.078425944 -0.10695514 0.09285238 -0.10973997 0.0871982 -0.07238993 -0.029834576
-0.13858181 -0.093205675 0.08022101 0.116626814 0.036759436 -0.15085961 0.08015587 0.123471975
-0.0051292246 -0.01355864 -0.13397446 -0.056414105 0.1163926 -0.13100803 -0.031689357 -0.019902509
-0.056275416 -0.113336645 -0.056202095 -0.019800631 0.009066178 0.07409996 -0.07849416 -0.030829106
0.06399823 -0.0040452206 -0.079036586 0.10994323 -0.13435048 -0.023700058 -0.118061215 -0.06600132
0.059387006 0.042146772 -0.12622353 0.088055305 -0.121496074 0.033798218 -0.04659151 0.12836623
-0.1293892 0.00010036903 0.058241367 -0.11032475 0.102919854 -0.075845435 -0.13226427 -0.017325636
0.078936175 0.08006763 -0.051812 -0.07440762 0.046551287 -0.14948393 -0.08016013 -0.051643755
0.1375531 -0.04807122 -0.045444816 0.14191724 0.039791938 0.09808815 0.14417335 0.03512411
0.14114563 -0.09578326 -0.004592208 -0.09713803 0.07525792 0.10747385 -0.019009007 0.0599224
-0.06676721 -0.099688984 0.07285868 0.014182794 -0.08325776 0.10816179 -0.06229486 0.11087624
0.051268328 0.09227193 -0.057962894 0.010895251 0.021451453 0.13025294 -0.12202864 0.06764761
-0.1398043 0.11613349 0.11998735 0.052122246 -0.057581645 -0.10213997 0.07238667 0.05361297
-0.14980637 0.003533329 -0.023183152 0.03430813 0.037860986 -0.1411049 0.05542634 0.07752019
0.15309505 -0.092869 -0.14521751 -0.11211307 0.15180549 0.07867571 -0.12750565 -0.063920125
0.016565941 0.14767078 0.029763913 0.0017294196 0.13494296 0.15263227 -0.029705688 0.05118807
0.07308226 0.03132341 0.018226996 0.012650249 0.056527894 -0.0014206411 -0.08195158 -0.113725215
0.13496424 -0.15107766 0.056861833 0.14362022 -0.01695933 0.09352563 -0.11811657 -0.09852107

lstm_block.lstm.bias_ih_l0 f4 [160]
00000000: 6a71 113e d8b4 9f3e cca6 483e 5bcf 913d
00000010: c5e0 483d c62c ac3e 3eba 9cbc 7f38 923d
00000020: 018b a8bc 9911 a53e 6a95 3c3e b9ac 56bd
00000030: 0196 313e e2fa 853e a155 823e 2ce1 663e
00000040: 3918 a13e 01c0 4f3e 3407 eb3d 2b68 fa3e
00000050: 4e5f acbd 9dd0 ea3d 695e a93d 0e70 023f
00000060: dcc6 84bc d0e5 4d3e e05a 073e 6642 c13e
00000070: 50e0 c33e 8968 8b3e 3969 3ebd 2365 973d
00000080: 50f6 903d 0671 b53d fc84 d13e 976d 0dbd
00000090: 6e1a dc3e 4461 573e 4d6b cebc 6e09 dd3e
000000a0: 7dea e23d b222 8c3d 1c31 d4bd 99b7 05bd
000000b0: cbc8 203e 4f3f 983d 8ce4 4abd bc59 4f3d
000000c0: 59dc 17be 47ed 0cbd 2e8b 04bd 68f6 c2bd
000000d0: e868 8a3d abb7 61ba cb73 f43d 43ad 9c3d
000000e0: 08f4 1bbe c65b c4bd 946c bdbd c14e d2bd
000000f0: 87c5 423d bba3 e23b 93d5 8b3c fa34 d1bd
00000100: d79b 823d ab8f 053e c67b f33d 8376 c53c
00000110: d625 df3d a607 9eba 4083 1abe cc11 87bd
00000120: 9b13 033e fb5d 15be a7cf fe3d bf52 133c
00000130: 8f8f 8cbc 09d2 b93d 0dfc d1bd 84c9 ee3d
00000140: a68c dbbd 6c9d 263e 1c46 b73d dbfe 0cbe
00000150: 7337 493d 3bc2 c5bd 2682 923e c3b7 0ebe
00000160: 311a cb3c 7da2 0f3e bf3a c33d 1857 95bd
00000170: c3ef 613e 3bfe 71be d76a 273e 753c 80be
00000180: f201 023e e294 973a 8378 3d3e b2d1 573e
00000190: 249a 563c b51f b13c 5fa6 38be fdba 0b3e
000001a0: d0e1 92bd bf0d 983e 9d85 c2bd c576 f93d
000001b0: df0d 243e 2ebb 91bd a0d9 c5bd 4006 c8bd
000001c0: feae 1bbe ef2b f73c 8488 833d 7102 a33d
000001d0: aa76 74bc f289 8ebd 284b 43bd 1a5a 6fbe
000001e0: 0126 d23e 6024 5f3e 7dca 413e 8560 f5bc
000001f0: 509a c13e 3245 303e afc1 3c3e 1766 813e
00000200: bab9 db3c ef9c ed3e 8b59 7f3e 1da3 e53d
00000210: 76c3 463e c957 d63e 895e 8b3e 221c 2f3e
00000220: 8f21 263e 799e 2e3e fa3b 823c 1f00 fc3e
00000230: e0f0 babd 6539 39bd 2cee 9b3e 8056 c23e
00000240: 4eaf 303c f581 c73e 3958 5c3e 8a4e fc3e
00000250: 463e d53e 77ea 933e 3049 133e c191 833e
00000260: d7d3 cb3d 599d 9d3d 0ee0 023e 451f 493e
00000270: 0946 d73e 48ae 9abd 88f8 60ba b985 583e
0.1420342 0.3119266 0.19594878 0.07119628 0.049042482 0.3362791 -0.019131776 0.07139682
-0.020574095 0.32239988 0.18416372 -0.052410815 0.17342378 0.2616797 0.25455955 0.22546834
0.31463793 0.20288087 0.11475983 0.489076 -0.084166154 0.11465571 0.082699604 0.5095223
-0.016208105 0.20107198 0.1321826 0.3774597 0.38257074 0.27228191 -0.046487067 0.07392337
0.070782304 0.08859448 0.40921772 -0.03452834 0.42988914 0.21033198 -0.02519765 0.43171257
0.11079881 0.06842555 -0.10360929 -0.032645795 0.15701596 0.0743395 -0.049534366 0.050622687
-0.1483015 -0.034405973 -0.032359295 -0.095196545 0.067582905 -0.00086104375 0.11936148 0.076502346
-0.1522981 -0.09587817 -0.09249225 -0.10268927 0.047551658 0.006916491 0.017069614 -0.102151826
0.0637738 0.13043086 0.11888842 0.024104362 0.108958885 -0.0012056723 -0.1508913 -0.06595191
0.12800448 -0.14586632 0.1244195 0.008991896 -0.017158298 0.09073264 -0.10253153 0.1165953
-0.10720186 0.16270989 0.08948919 -0.13769095 0.049125146 -0.09656187 0.2861492 -0.13937287
0.024792762 0.14026828 0.09532689 -0.072920024 0.22064118 -0.23632137 0.1634935 -0.25046125
0.12696055 0.0011564756 0.18503003 0.21076086 0.013098273 0.021621564 -0.18032216 0.13645549
-0.071719766 0.29697987 -0.09498141 0.121808566 0.16020916 -0.0711578 -0.09660649 -0.09766817
-0.15203473 0.030172316 0.06422523 0.0795945 -0.01492087 -0.06959905 -0.047679096 -0.23374215
0.4104462 0.2179122 0.189249 -0.02995325 0.37813044 0.17213896 0.1843326 0.252732
0.02682196 0.46408793 0.24936502 0.11212752 0.194105 0.4186385 0.27220562 0.17100576
0.16223739 0.1705264 0.01589774 0.49218842 -0.091279745 -0.04522075 0.30455148 0.3795662
0.010783983 0.38966337 0.2151803 0.4927867 0.41649073 0.2888982 0.14383388 0.2569714
0.099525146 0.07696027 0.12780783 0.19640835 0.4204562 -0.07552773 -0.0008581956 0.21144761

lstm_block.lstm.bias_hh_l0 f4 [160]
00000000: f0aa c43e 3c6d 2f3e 606c bb3e 6a6e 30be
00000010: 1420 b3bb 3aa7 853d c3bc 4dbe 57f9 ba3d
00000020: 7322 463e 27a9 d43e 7fb1 31bd e60e a3bd
00000030: 3773 af3e faef ac3e e4a7 8e3d 22f3 263e
00000040: 4034 103e b1b4 2cbc 2368 7b3c 0ef0 c23e
00000050: 72b8 4fbc b7b1 1c3d d4be cd3c f595 703e
00000060: 360e 30bc 47c5 963c 8ebb 503e c5e3 7b3e
00000070: 5f40 833e 4577 3a3c 4894 24be c5b9 993e
00000080: 04b7 8d3c ebbe 79bd 7572 3f3e d27e 90bd
00000090: ac35 923e ee92 93bc 71bb 7fbd 3a90 783e
000000a0: a5c7 113e 18b8 d6bd 54be 31bb 1be3 04be
000000b0: 47b0 343d 96e2 0ebe 8735 90bd dae0 163e
000000c0: 0ca5 12be fd7d d03d a7c1 5b3d 07f6 c0bd
000000d0: 7232 093e 9102 1fbe 6bff 323d 9ed3 d8bd
000000e0: 8180 823d a672 da3d abea aa3d 5bc5 17be
000000f0: cde5 203e f59c 66bc c2e1 de3d 2df3 61bd
00000100: d6b9 13bc bdc2 d33d cd51 af3d 8337 0cbe
00000110: 5bd5 8ebd 4cd7 623d e1c2 0ebe 0308 c9bb
00000120: c6cb 213e 6d13 113e c386 14be 68ef 993d
00000130: c635 90bd f4cb 063e a488 0d3e a751 3f3d
00000140: 5890 64be 0411 103e 17cc 393e 1204 e4bd
00000150: 56c4 603e cbc3 24be 8248 b13e d373 19be
00000160: bedc 8fbd e1ed f43d d14a ea3d 82ff a63d
00000170: 0bc9 843e 0d52 9abd 673b 313d d385 8fbe
00000180: 4b6c 8f3c c792 523e 7706 473e 25b0 553c
00000190: fcea e5bd b6e6 db3d cb34 89bd 4ef3 873d
000001a0: 0037 5cbe 3238 423e 26ae 0e3d 3946 543e
000001b0: 876e 273e 8eaa a0bd a7a4 fd3c 624e 25bd
000001c0: 000e 02be af43 23be e4e6 a8bd 1457 0c3e
000001d0: 1bb9 2fbe 0a68 893d cd28 403e 92bd b5bc
000001e0: 3511 3a3e da04 463e b899 613e 6896 07bc
000001f0: 5bb3 283e 398e ec3d ae32 bb3d ff89 22bd
00000200: 9fef 323e 49dd 963e a172 753e 892b 60bb
00000210: 18e0 1c3e ff0e b03e a6aa 843e 2674 d9bd
00000220: bf76 f53d 2c0b 2f3b b153 803d 899c c53e
00000230: 784d edbd 7494 e4bd 0f03 3e3e 8592 c73e
00000240: c2da c8bd 1318 bb3e a4cd 243d f4a4 463e
00000250: 4107 373e 017a 553e dee0 3b3e 9476 ad3e
00000260: 0d09 933b 50cd 493e ea7d 933e 353f 43bd
00000270: eac2 cf3e aa36 45bd 34a5 8cbd 8b9e b03e
0.38411665 0.17131513 0.3660612 -0.1722962 -0.0054664705 0.065260366 -0.20091538 0.09129589
0.19349079 0.41535303 -0.043382164 -0.07961826 0.3426759 0.33776838 0.06965616 0.16303685
0.14082432 -0.010541127 0.015344652 0.38073772 -0.0126782525 0.03825542 0.025115408 0.23494704
-0.010745576 0.018404616 0.20384046 0.24598606 0.2563505 0.011380975 -0.1607219 0.30024543
0.017299183 -0.06097309 0.18696006 -0.07055439 0.28556573 -0.018014397 -0.062434617 0.24273768
0.14236315 -0.10484332 -0.00271215 -0.12977259 0.044113424 -0.13953623 -0.070414595 0.14734212
-0.14320773 0.1018028 0.05365148 -0.09421926 0.1339815 -0.15528323 0.043700617 -0.10587238
0.063721664 0.10666399 0.083455406 -0.14821379 0.15712662 -0.014075507 0.10882904 -0.05516355
-0.009016475 0.10339878 0.08560524 -0.13693051 -0.06974288 0.055381104 -0.13941528 -0.0061349883
0.1580039 0.14167567 -0.14504533 0.07516366 -0.070415065 0.1316374 0.13821656 0.04670873
-0.22320688 0.14068991 0.1814426 -0.11133589 0.21949896 -0.16090314 0.34625632 -0.1498559
-0.07024525 0.11959434 0.11440051 0.08154203 0.25934634 -0.07535181 0.04326954 -0.28031787
0.017507693 0.20563804 0.1943606 0.013042484 -0.1122646 0.10737364 -0.066995226 0.066382036
-0.21505356 0.1896675 0.03483405 0.20729913 0.16350757 -0.07845031 0.030962301 -0.040357955
-0.12700653 -0.15943788 -0.08247164 0.13705093 -0.17160456 0.06709297 0.18765564 -0.02218512
0.18170626 0.19337788 0.22031295 -0.008275606 0.16474669 0.11550564 0.09140526 -0.039682385
0.1747422 0.29465702 0.23969509 -0.0034205636 0.1531986 0.3438644 0.25911444 -0.10617857
0.1198554 0.002670954 0.06265963 0.3859599 -0.115870416 -0.11161128 0.18555854 0.38978973
-0.0980735 0.36541805 0.040235177 0.19398862 0.17873861 0.20847322 0.18347499 0.3387953
0.004487163 0.19707227 0.28807002 -0.0476677 0.40578395 -0.048147835 -0.068674475 0.3449596

lstm_block.lstm.weight_ih_l0_reverse f4 [160, 180]
00000000: 6599 223d 16c6 3ebe 0987 4bbe b5aa 1ebe
00000010: d347 4fbe fcaa 5ebd 7585 623d 9cdd 94bd
00000020: 029d babd 6545 043e 3a9e 40bd b315 853c
00000030: 3a57 153e 269b f13d 2d9a 333e 6b11 873e
00000040: 73fd bd3d 710d 043e b872 323a 051c 4dbb
00000050: 0705 343e 0212 d8bd fb0e d53d 9fa7 123d
00000060: bb36 aa3d a30a 993d 5714 09be 8b79 87bd
00000070: 4f3a 7cbd 8d3a 82bd 0c47 fd3d f74f 893e
00000080: cfcf d23d 0bfe ab3d 314e f63d 4e0c d63d
00000090: 3c34 393e a970 3a3e 1fff 8e3d 49e8 4f3e
000000a0: 9531 013e a09e da3c 5e52 853e c004 07bc
000000b0: 3529 733e 536f 873c 8fb2 b53d 354a 0e3e
000000c0: 7d80 8c3c bea8 223e 96a8 043e bd98 383d
000000d0: 6587 013d 1094 c43d 23bb 13bd 78f7 013e
000000e0: 7845 783e 1080 513e ad8c 8d3d 79bc 61bd
000000f0: a0c3 033e 34bd 1e3e 0ea7 723e 3236 5a3d
00000100: 754e 873d f978 e63c b79a e13d 8445 0e3e
00000110: f846 0a3e a94c fa3d aa56 64bc bddb 093e
00000120: ed83 593e a316 1d3c 8fc4 993d 0687 e33b
00000130: ec1a 9bbc 419e 1e3d ef77 803d bf8d 73bd
00000140: 18c4 183d c5a9 9e3d 11be 563e 6ee3 afbd
00000150: b816 bf3d 1314 973d 6f0e 3f3e 046a 92bc
00000160: 7535 213e 3b44 773c 348c cc3c d75e d83d
00000170: 7b6c 73bb be5f b23d b946 823e cd73 123e
00000180: 56ef e63d a84c be3d a50c 523e 595f 583e
00000190: b394 ce3d 60be 343e be0f 033e 9efc 493e
000001a0: 2606 fd3d e972 433e bf6c 233e 87bb 583d
000001b0: 8ad0 8a3e 74db 373e a579 753e cfbe bd3d
000001c0: 08f2 583e e0d5 84bb c0c2 0a3e 72ce 593e
000001d0: 6f0f 573e a4ad 903e 7165 803e 87d4 1fbd
000001e0: c477 093e 604f b23d a6de 3a3e 7637 b83d
000001f0: a60b 613e f968 243d a1ca 363e ae09 913d
00000200: 9f45 eb3d d543 63bd 744f 23be 8916 22be
00000210: aa81 c3ba 9d23 3ebe 4440 833d bbf8 a23c
00000220: 48fa 943d ee0b febc feff 20be af32 12be
00000230: 7a49 74be 4d72 83be a0cd c2bd d26f 25be
00000240: 9d9c 15bd ec6f 85be 3d35 15be 922b 75be
00000250: f254 89be 72bb 73be 0e32 3ebe d55b 83be
00000260: 5710 323d e7d5 4dbe 5207 5dbd 850a e6bc
00000270: 6cf2 d8bd 9502 4bbd 3a28 2ebe 6d1c 11be
00000280: 6856 9cbd f3fb 573c 9e66 9bbc 8a3b 7ebe
00000290: 8869 07be 8e32 3bbe 0e2f 1bbe 6335 81bc
000002a0: e1f3 ccbb 0abb 20be b257 72be 205e e23c
000002b0: 6d2e 383c 007a bfbc b08e d1bd 0071 6abb
000002c0: 4f65 dd3b 2601 80be 8add 54be d841 01be
000002d0: dfd2 813c 3edc 59bc 4ec8 6bbd 315d 6bbe
000002e0: 7b50 95bd 4346 bbbd fa93 afbd 2dd4 913d
000002f0: c5ff 113e b8d0 b8bd 0185 9d3d 8fff 953e
00000300: 848b 4c3d c7ff 8f3e 504f 883e e3c3 7e3e
00000310: bc38 473e 32a0 143d 6bc8 7b3e d89e 523d
00000320: b373 0d3e 5298 493d ec8a 223e 2f6e ec3c
00000330: c697 083e 5c49 0a3d f4c2 9cbd a97a a03d
00000340: b4ec 893d 2b3c 353d df23 143e 8c0b 62bd
00000350: 335e f43b 3daa 133e 192c c83d 2ca8 b43d
00000360: 25bf f73d cf18 323e dd90 303e 4d98 083e
00000370: 1fcf 7d3e 55bc 523e 6cae 143c 7859 b93d
00000380: 2314 9e3d aef3 213e 99d0 60bc 7bd1 543e
00000390: cb6b d13d 3aa4 333e ce67 743e 506f a63d
000003a0: 7b71 493e f647 613e 9837 c33d 2fbd a13e
000003b0: 7cbd a43e b72d 603e 641d f03d 6deb fc3d
000003c0: b711 1d3e 95a6 313e a971 743d 1d1f 9f3d
000003d0: 9745 8f3d bdef 823e 8993 aebc 3cc9 b13d
000003e0: 030d ac3c b05a 943d bbc1 793e 2c71 523e
000003f0: 42a7 c73d 65fa 013e 2b53 543e 05ed 1e3e
0.03969707 -0.18630251 -0.1987573 -0.15494807 -0.20242243 -0.054362282 0.055303056 -0.07268831
-0.09111978 0.12917097 -0.047025897 0.016245699 0.14584056 0.1179717 0.17539282 0.26380476
0.09276857 0.12895752 0.00068072556 -0.0031297219 0.17580043 -0.1055031 0.10403248 0.035804387
0.0831122 0.07472732 -0.13386665 -0.06614979 -0.061579045 -0.06358824 0.12367067 0.2681882
0.102935426 0.08398064 0.120266326 0.10451566 0.18086332 0.18207039 0.06982254 0.20303454
0.1261657 0.026686966 0.26039404 -0.008240879 0.23746188 0.016532576 0.08871948 0.13895495
0.017151112 0.15884683 0.12954935 0.045067538 0.031623263 0.09598553 -0.03606714 0.12692058
0.2424525 0.20459008 0.069115974 -0.055111382 0.12867594 0.15501863 0.23696539 0.05327434
0.06606761 0.028133856 0.11015838 0.13893706 0.13503635 0.12221653 -0.013936678 0.1346273
0.21241732 0.009587917 0.07508194 0.0069435863 -0.018933736 0.03872514 0.062728755 -0.05946135
0.037296385 0.07747225 0.20970942 -0.08588301 0.09330505 0.07376876 0.1865785 -0.017872818
0.15743048 0.015091951 0.024969198 0.10564964 -0.0037143517 0.087096676 0.25444582 0.14301987
0.112761185 0.09291965 0.20512636 0.21130122 0.10086956 0.17650747 0.12798974 0.19725272
0.12354688 0.19086803 0.15959452 0.052913215 0.27112228 0.17954808 0.23972185 0.092649095
0.21186078 -0.004053816 0.13550854 0.21270159 0.21001981 0.28257477 0.25077394 -0.03902104
0.13424593 0.08706546 0.18248996 0.08994953 0.219771 0.040139172 0.17850734 0.070819244
0.114878885 -0.05548461 -0.15948278 -0.15828909 -0.0014915962 -0.18568273 0.06408742 0.019893995
0.072743 -0.031011548 -0.15722653 -0.14277147 -0.23856154 -0.25673142 -0.09511876 -0.16155937
-0.03652631 -0.26061952 -0.1457109 -0.23942402 -0.2682262 -0.23801973 -0.18573782 -0.25656
0.043472614 -0.20101129 -0.05396206 -0.028081188 -0.10593113 -0.04956301 -0.17007533 -0.14171
-0.07633668 0.013182628 -0.01896983 -0.248274 -0.1322385 -0.18281004 -0.15154669 -0.015772527
-0.0062546586 -0.1569635 -0.23666266 0.027632773 0.0112415375 -0.023373604 -0.102322936 -0.003577292
0.0067564617 -0.25000876 -0.20787635 -0.12622774 0.015847621 -0.013297139 -0.057564072 -0.22984768
-0.07290741 -0.09144261 -0.08573146 0.071205474 0.14257725 -0.09024185 0.07691384 0.29296538
0.04993774 0.2812483 0.2662301 0.24879412 0.19455236 0.036285587 0.24588172 0.051421016
0.13813667 0.04921753 0.15873307 0.028861133 0.13339147 0.033761367 -0.07654372 0.078358956
0.06734601 0.044246834 0.14466809 -0.055186793 0.0074575185 0.1442041 0.09774036 0.08821139
0.12097005 0.17392276 0.17242761 0.13339348 0.24786042 0.20579655 0.009074789 0.09050268
0.077186845 0.15815613 -0.013721609 0.20783035 0.10225638 0.17543116 0.23867723 0.081267
0.19672196 0.22000107 0.09532088 0.31589648 0.32175815 0.21892439 0.11724356 0.123495914
0.15338789 0.17348702 0.059678707 0.07769606 0.06995695 0.2557353 -0.021310585 0.086809605
0.021002298 0.0724386 0.24390309 0.20550984 0.09748699 0.12693174 0.20734851 0.15520103

lstm_block.lstm.weight_hh_l0_reverse f4 [160, 40]
00000000: 17aa a13d a646 84bd 986e 12be 72bb cbbd
00000010: 9c35 56bc cfc6 e83d 47dd 9abc ed11 d33d
00000020: d8a2 b43d 2fdb 1bbe 0606 c73c 4384 d33d
00000030: 28b2 0d3e 84f9 173e afbe 82bd 4680 48bc
00000040: c8e8 c73d 8a5a 4ebd 0078 a33d f66e a53c
00000050: e72d 393d b558 15bd 56d4 8f3d fdec b03d
00000060: 1085 9c3b 0dba 05be 41df f63d 497b f43d
00000070: b0d6 1dbe e38b adbd 790d 77bd 2a0b 613d
00000080: 4910 973b 6aee c73b e16d 1c3d 7784 113e
00000090: e343 dcbd c481 fa3d ef94 46bc e50c 223c
000000a0: 5d0c 6dbd 6e76 983d 773a 28bd ce34 9bbd
000000b0: 2cdc a73d 4c74 933d dd2e 0fbe 80f2 23bd
000000c0: 3fac 1d3e 25ad f33d daab 753d d8a4 9e3d
000000d0: 9676 683d 4adf bdbd 29a3 ecbc 4d5a 9abd
000000e0: c167 43bd 2d0c 9b3d 26b1 723d 7825 b7bc
000000f0: 9be7 dcbc 9d9f eebc 25af 403d 3ba8 1e3e
00000100: e464 a5bd 2d47 0c3e 13e4 14be 9130 5fbd
00000110: 9e24 83bd cb09 89bd 379a ea3d 455d eabd
00000120: fe86 b8bd 5906 b03d d568 983d 4a29 b83c
00000130: ca2e 013e 463f ccbd f8c8 ad3d c411 b43d
00000140: 4af3 cebd 3ee9 7c3d 630b a33d ea11 92bd
00000150: a6e4 cfbd 8aab 2fbd 0dbf a1bd 9a17 053e
00000160: 03b5 ed3d a86e 9abd 8c1a 06be a639 d2bd
00000170: 9db1 0abe 082b 183e bc3b 1b3e 9259 ccbd
00000180: 3f27 d2bd c23b 15be 73c1 01be b809 e73d
00000190: 6380 8c3d 7b09 033d 6204 cf3d 066e f73d
000001a0: af62 f53c b807 433d 4297 78bd 8d33 e4bd
000001b0: f6ab 963c 27c0 e23c 6b36 aabd 1838 0fbe
000001c0: 6203 f2bd af2c f1bd 0c67 053e 69a4 50bd
000001d0: c6e4 3bbc 265e 6339 fb6e 953c 27e3 3ebd
000001e0: 54b2 2abd 0109 6dbd bf01 6cbd 8cef 903d
000001f0: 45fe a63d 829e 873d 7cd7 ffbd e53a 973c
00000200: cd31 e43d 3ac1 d0bb 8d05 473d 846b 643d
00000210: fa72 bc3d 3654 9a3d d6ad e6bd 3ebd 203e
00000220: 340a 21be ce72 1dbe 3853 f3bc 2936 4f3d
00000230: a8c7 4e3c d8b2 0fbe 2e0b f53d 66ba 75bd
00000240: 08fc 18be caf6 4dbd 5bfe c9bd 83c5 d4bd
00000250: 66f9 03bd fcfe cabd 9de7 47bc c3a9 1dbe
00000260: 0015 53ba bae7 733d 5dbc e03d 9aec dd3d
00000270: 8667 eebc d152 5fbc 0bfa d23c c2a9 1e3d
00000280: 5422 07bd e12c 933d 0812 d93c 12b0 be3d
00000290: bc4b 0d3e 9d5a 3dbd 0737 e5bd d555 e73d
000002a0: 30bd 1b3d ea98 273d 07df dcbc 99ff c23c
000002b0: 9a4d babd de21 fd3c 7e5e 183e d527 ac3c
000002c0: 8ead 03be ff74 e3bd 0fb4 0f3d a5c0 1bbe
000002d0: ddbe acbd bd85 2dbd eabe c0bb 93ca cbbd
000002e0: 368f 99bd b9cf e83c 2a13 5abb 9ddf 2bbc
000002f0: 9493 0f3e 289d 8cbb c653 96bc e63a ce3d
00000300: 46f7 01be 0c64 2e3d 64c5 cdbd 2d14 103b
00000310: 9baa 5b3d 7170 d23d 3960 b3bb 827c 1c3e
00000320: 8587 053e ea09 bd3d 8dac 0f3e c47d 2f3c
00000330: f6cb 133e 3ffd 13be e287 213e 1efa c0bd
00000340: 40c4 863d 473d 493d 6337 853d 88fb 02be
00000350: 8ef6 093e 1642 1d3d 5f26 073e 15e6 7cbd
00000360: e3a3 eb3c fc04 df3c b205 a53d cb4e 933a
00000370: 619d ef3d d815 723d 1b90 a3bd 4ddc 36bc
00000380: 7db6 28bd 7efa 013d 9d05 943c 4fb8 9fbd
00000390: bd4a 603b 8eeb 093e 4f09 db3c 1454 14bc
000003a0: bf95 c03d b3c3 c03c aca9 203e 4643 f9bd
000003b0: fc3f e9bc 1626 0b3e 4d91 b0bd e796 89bd
000003c0: 87e6 1b3e 60c5 003e e3fa e8bd 9027 e7bd
000003d0: 29ea 033e 406b 26bd ecdc d7bd 39e7 01bd
000003e0: f709 15bd b305 0f3e c340 6dbd e39f 133d
000003f0: f06c 113e f98c 0fbe 468e d6bd 17e6 b53d
0.0789377 -0.064587876 -0.143 -0.09947862 -0.013074305 0.11366045 -0.018904341 0.103061534
0.088201225 -0.1522033 0.024294864 0.10327961 0.13837492 0.14841276 -0.06384026 -0.012237614
0.097611964 -0.050379314 0.079818726 0.020194512 0.04520979 -0.03646155 0.07022922 0.08638952
0.0047766045 -0.13059254 0.12054301 0.11937577 -0.15413928 -0.08473947 -0.060315583 0.054942288
0.0046100956 0.006101419 0.038190726 0.14210688 -0.10755136 0.12231782 -0.0121204695 0.00989077
-0.05787312 0.07444464 -0.04107138 -0.07578431 0.08196291 0.07199916 -0.1398272 -0.040026188
0.15397738 0.11898259 0.059978344 0.07746285 0.056753717 -0.09271105 -0.028886395 -0.07536755
-0.04770637 0.07570682 0.059250973 -0.022356734 -0.026965907 -0.029128844 0.04704203 0.15493862
-0.08075884 0.13699026 -0.14540128 -0.054489676 -0.064034685 -0.06691321 0.114551954 -0.11443571
-0.09010123 0.08594961 0.0744187 0.022480626 0.12615505 -0.09973006 0.08485597 0.08792451
-0.101049975 0.061745875 0.07961156 -0.07132323 -0.10151033 -0.0428882 -0.07897768 0.12997285
0.11606791 -0.07540637 -0.13096064 -0.10264902 -0.13544317 0.14860165 0.15159506 -0.09978022
-0.10261392 -0.14573577 -0.12671451 0.112811506 0.06860425 0.031991463 0.10108258 0.12081532
0.029954283 0.047614783 -0.060691126 -0.11142645 0.018392544 0.027679516 -0.08311161 -0.13986242
-0.118170515 -0.11776101 0.1302759 -0.050938044 -0.011468118 0.0002168348 0.018241396 -0.046603348
-0.041673973 -0.057869915 -0.057618853 0.0707694 0.08153967 0.0662203 -0.12492272 0.0184607
0.11142311 -0.0063706907 0.048589278 0.055766597 0.092016175 0.07535593 -0.11263625 0.1569719
-0.15726548 -0.15375826 -0.029702768 0.05058876 0.012620844 -0.14033067 0.11965023 -0.059992217
-0.14939892 -0.050284185 -0.098629676 -0.10389235 -0.032220267 -0.09911916 -0.012201217 -0.1539679
-0.00080521405 0.059547164 0.109734274 0.10836144 -0.029102098 -0.013630585 0.025753995 0.038736112
-0.032991722 0.07186294 0.026497856 0.093109265 0.13798422 -0.046228994 -0.11192136 0.11295668
0.03802222 0.040917315 -0.026961816 0.02380352 -0.090968326 0.030899938 0.14879796 0.021015087
-0.12859175 -0.111062996 0.035083827 -0.15210207 -0.08434842 -0.04236387 -0.0058821337 -0.09950747
-0.074980184 0.028419362 -0.0033275583 -0.010490325 0.1402114 -0.0042911954 -0.018350493 0.10069828
-0.12691984 0.04257588 -0.10047415 0.0021984682 0.0536295 0.10275353 -0.005474117 0.15281871
0.13039978 0.092304066 0.14030667 0.010711137 0.14433274 -0.14452074 0.15774491 -0.09422706
0.065804005 0.049130704 0.06504705 -0.12791264 0.1347296 0.038393103 0.13198231 -0.06174286
0.02876467 0.027224056 0.08057727 0.0011238692 0.116999395 0.059102863 -0.0798647 -0.011160922
-0.04118966 0.03173303 0.018069083 -0.07798826 0.0034224235 0.13468763 0.026737837 -0.009053249
0.09403562 0.023530817 0.15689725 -0.121710345 -0.028472893 0.13588747 -0.08621464 -0.067182355
0.15224658 0.12575293 -0.11375978 -0.11286843 0.12882294 -0.040629625 -0.105401844 -0.03171465
-0.036386456 0.13967018 -0.05792309 0.03604115 0.14201713 -0.1401862 -0.10476355 0.08881777

lstm_block.lstm.bias_ih_l0_reverse f4 [160]
00000000: 0d1d 683e fbe2 84bc 586e 153e e722 e83d
00000010: db3c 6b3e 38f8 be3e cdad 653d 2ac7 b13d
00000020: 46e0 893d 7ef9 b03e 7d48 463e e79d 2d3e
00000030: fe7a 233e 62ed 633e 967a ccbd 258b d13c
00000040: 7fd7 a33e b6f8 9a3e 5afa b6bd 3b22 d53d
00000050: 433a dd3d 4560 81bd b5b2 6a3e e95a 10be
00000060: ccff 833d 9fe0 193e 6407 f83d c673 81bd
00000070: 833b a63e 421f a93e 4986 523e 0cac 583e
00000080: f023 0cbd 926f bc3e c6fd 133d 7624 9f3e
00000090: 784f 813e 0806 a63d 4581 dd3d 0d23 a53e
000000a0: 1cfd 29bd e13e ebbd e3f4 1fbd 9e6c dd3b
000000b0: a90f 803d b25c bb3d 707e b23b 6546 1fbe
000000c0: 8ce2 b6bc 3ab9 74bc 6e86 08be 6cf7 ea3c
000000d0: 0b3c d1bd a592 ddbd ee4a 38bd dc35 843a
000000e0: a979 5d3c a9ba 013e 2b28 2c3d 7a5a 923d
000000f0: 8ad6 fe3d 8c41 97bd fb35 723d 9d5c d43c
00000100: 369f 113e 9308 973c 0b00 8ebc c6dc 5fbd
00000110: 5689 ed39 c1ed c33c 00dd 0e3e 0474 e33d
00000120: 579f f5bd 8960 8f3d 51b5 d1bc 1001 c53d
00000130: 5e66 663d 3123 0c3e ddbc ccbd 8840 3b3d
00000140: 6045 0d3e bd1f 7b3e 3570 22be 377b 9bbd
00000150: e9ab abbc aaf9 1abd 3616 d73d b0aa 36be
00000160: f289 693e bcce 943c 2f84 203e 5fcb 4cbe
00000170: a8db 53bd 6cd6 503e 3458 babd 648b 023e
00000180: 9762 753e 5231 88bd 5a65 88bd e58e 3b3e
00000190: e234 54bd ff52 f7bd 4af3 453e 96b1 27be
000001a0: fde5 343d 65ea 733c 9ebe d1bc 6668 813d
000001b0: c72c fb3d aa75 5cbd 98c0 5b3e 5329 75be
000001c0: e64b c53c 5385 f0bd 7978 44bc 9597 883d
000001d0: 5f37 c33d 0a37 f73c 5ae0 7ebd e1db 163e
000001e0: eeeb 04bd b20f 65bd 7ccc cfbd 5c99 a43d
000001f0: c9c3 8b3e 2e15 1f3e 1c26 313e 67c5 4a3e
00000200: 5bdd 273c 8fa5 863e 86a5 2bbd 418f 2b3e
00000210: cd57 b63e dd3f 283e 0a72 6c3e 685b 09be
00000220: 1c64 7d3e 8e1f 903e 18fd 93bd b728 5a3e
00000230: 34cd aabd eef5 21bd a5fb d83e c26d 97bc
00000240: a027 0b3e be6e 933d a498 ea3d 71dc 30be
00000250: e311 bc3e 3321 6d3e a6f1 df3e 126b 813e
00000260: e79c 283e 8c98 2f3e 971a 873e 52e7 e53d
00000270: 0a78 513e 4b13 293e 5d1a 213d c172 963e
0.22667332 -0.016221514 0.14592874 0.11334782 0.22972433 0.3729875 0.056073952 0.08680566
0.0673223 0.34565347 0.1936359 0.16954766 0.15964887 0.22258523 -0.09984319 0.025579045
0.32000348 0.30267876 -0.089344695 0.104069196 0.10802128 -0.0631719 0.22919734 -0.1409718
0.06445274 0.15027092 0.12110785 -0.0632091 0.3246728 0.3303166 0.20559038 0.2115938
-0.03421396 0.3680387 0.03613069 0.31082505 0.25255942 0.08106619 0.10815672 0.32253304
-0.04150115 -0.114866026 -0.0390519 0.006757333 0.06252987 0.091485396 0.0054472014 -0.15554197
-0.022324823 -0.01493674 -0.13332531 0.028682433 -0.102165304 -0.10818986 -0.044993334 0.0010086852
0.013517776 0.12668861 0.042030495 0.07146163 0.12443264 -0.07385549 0.05913351 0.025923068
0.1422089 0.018436706 -0.017334005 -0.054653905 0.00045306486 0.02391708 0.13951492 0.111061126
-0.11993282 0.070008345 -0.025599154 0.09619343 0.05624997 0.136853 -0.0999696 0.04571584
0.13795996 0.24523826 -0.15863116 -0.07591861 -0.020955997 -0.037835754 0.10502283 -0.1783855
0.22806528 0.018164985 0.15675424 -0.19999455 -0.051723152 0.20394295 -0.09098855 0.12748486
0.2396339 -0.06650032 -0.06659956 0.18316229 -0.051808245 -0.12076377 0.19331089 -0.16376337
0.044164646 0.014887427 -0.025603589 0.063187405 0.122644 -0.05382315 0.21460187 -0.23941545
0.024084043 -0.117441796 -0.011991614 0.06669537 0.095320456 0.030177612 -0.062225677 0.14732315
-0.032451563 -0.05592317 -0.10146424 0.080370635 0.2729781 0.15535423 0.17299694 0.19801866
0.010245646 0.26298186 -0.041905902 0.16753866 0.35613862 0.16430612 0.23090377 -0.13413775
0.2474522 0.28149074 -0.07226008 0.21304594 -0.08339921 -0.039541177 0.4237949 -0.018484954
0.13589334 0.07198857 0.11454895 -0.17271592 0.36732396 0.23157196 0.4373905 0.25277
0.16466103 0.17148036 0.26387474 0.112257615 0.20455948 0.16511266 0.039331783 0.29384425

lstm_block.lstm.bias_hh_l0_reverse f4 [160]
00000000: 0492 ba3d d5f4 d2bc 13fb b5bd 5b8f 0fbd
00000010: 4da5 1c3e 9860 963e bc2a fe3d e844 523e
00000020: cfeb aa3c 6ca1 203e 226d 7dbd 2181 683e
00000030: 57cf 923e 5f8e ba3e ec4b 2f3e 9bcc c4bc
00000040: fe1a 223e b751 293e 0785 4f3e a38c 95bd
00000050: 50f9 0a3d 2b3d 453e 650d 373e 2079 edbc
00000060: 940d 09be f798 9dbb 0f07 073c 7261 debc
00000070: 9d7b 863e 9822 483e 3285 eb3e a5b8 ec3e
00000080: 6453 923d a886 a53e e07c 453e 57b7 353e
00000090: e6fe ed3d ba16 e03d 7e73 0bbe 367f 433e
000000a0: 380c 033e fbfb 95bd 3a22 a83d f59a e23d
000000b0: 21ed 163e 11af ea3d aeeb 23bd bdf4 073d
000000c0: e544 613d 1733 c43b 6a32 4d3d 9a2d 4f3d
000000d0: 6e44 423d 4866 013d 8ff3 d73d 6363 263d
000000e0: 00e3 02be 653d dc3c a590 c33d 299a 8fbd
000000f0: 1403 743c eb1c b5bc 7a08 0dbd 990a 7cbd
00000100: ed6b cd3d c258 c23d 6c70 0bbe 5bf1 7abb
00000110: 70a7 b03d 1651 1fbe 4e79 16bd 50d9 8b3d
00000120: 683f 72bd c442 c53d e032 5bbd 9760 8ebd
00000130: d0db c7bd cc2e 213e 556c 8bbd 95d1 f23d
00000140: a008 fc3d e064 2a3e 001d e73d b59a aabd
00000150: 671e 64be afc9 8abe 9efd 28bd 7667 a53d
00000160: fd7b b33d fb64 0b3d 57a9 7a3d 6be5 3dbe
00000170: af4c 72be fe87 533e 69a5 44be 25ae 003e
00000180: c6c9 a33d 6bce 23be bab8 4abd 0f0c 2a3e
00000190: 201e 80bc 2074 11be 84f6 7a3d f8c3 a73c
000001a0: 0d8c c63d 6f01 5e3d e4f7 37bd dfb6 c13d
000001b0: baeb b43e 246d 0cbe ae3b 363e c2c0 b6bd
000001c0: 6f05 09be d7e2 f9bd 623c 133b 1339 21be
000001d0: e163 513d d35c 073e 3196 63bd 291d f33d
000001e0: 4a6f 723e 81ae fe3d 8a17 3f3e 0124 a73e
000001f0: f856 713e 1845 273e be9b 023e ed3c 443e
00000200: f141 10bd 0065 063e 0648 1b3d c478 413e
00000210: edba a23e ef83 9c3e e6ba 273e 1e48 0f3e
00000220: 7ae0 b33e 34a0 953e 6661 c0bd d272 39bd
00000230: 13f7 0e3e 4248 213c a9a0 873e c092 f03c
00000240: 00d6 053e 9686 6e3e 35d2 9d3e d119 31be
00000250: 1f8d ae3e ee9c 9c3e eb33 583e 95f1 bc3e
00000260: a577 803e 023f 753e cacc ea3c f131 353e
00000270: f445 763e ef01 59bd c0a5 3cbe 0a99 203e
0.091098815 -0.02575151 -0.08885779 -0.035048824 0.15297432 0.2937057 0.12410495 0.20534098
0.020864395 0.15686578 -0.061871655 0.22705509 0.28673813 0.36436746 0.17118806 -0.024023345
0.15830609 0.16535078 0.2026559 -0.07302215 0.03392917 0.19261615 0.17876203 -0.028988421
-0.13384086 -0.0048094946 0.008241429 -0.027146075 0.26266184 0.19544446 0.46000057 0.46234623
0.07144812 0.32329297 0.19285917 0.1774572 0.11620884 0.10941835 -0.13618276 0.19091496
0.1279763 -0.07323452 0.08209653 0.11064712 0.14738895 0.114591725 -0.040019684 0.033192385
0.054997344 0.0059875357 0.050096907 0.0505806 0.04742854 0.031591684 0.10544502 0.040622126
-0.12781906 0.026884744 0.09549073 -0.070118256 0.014893312 -0.022108516 -0.034431912 -0.061533544
0.10030351 0.094895855 -0.13617104 -0.0038290832 0.08625686 -0.15558276 -0.03673678 0.068285584
-0.0591425 0.09631875 -0.053515315 -0.06952017 -0.09758723 0.15740508 -0.06807772 0.11856381
0.123063326 0.16640043 0.11284828 -0.08330289 -0.22277223 -0.27106997 -0.041257493 0.08076374
0.08763883 0.03403185 0.06119665 -0.18544547 -0.23662065 0.20657346 -0.19203724 0.12566431
0.079974696 -0.15996711 -0.049492575 0.16606162 -0.015639365 -0.14204454 0.061270252 0.020479187
0.09694681 0.054200586 -0.04491414 0.09458708 0.35336095 -0.13713509 0.17796203 -0.089234844
-0.13380979 -0.122014694 0.002246641 -0.15744428 0.051120643 0.13219003 -0.055563156 0.11870796
0.23675266 0.12435628 0.18661323 0.32644656 0.23568332 0.16334951 0.12754723 0.19163866
-0.035219137 0.13124466 0.037910484 0.18893725 0.31783238 0.30569407 0.1637989 0.13992354
0.351322 0.29223788 -0.09393577 -0.045275517 0.13961439 0.009843888 0.2648976 0.02936685
0.13069916 0.23293528 0.30824438 -0.17295004 0.34092042 0.30588478 0.21113555 0.36903062
0.25091282 0.23949817 0.028662104 0.17694832 0.24050122 -0.05298036 -0.18422604 0.1568338

fcn_block.enc_blocks.0.conv1.weight f4 [32, 1, 9]
00000000: a6ff ab3e 1ab0 41be e1c8 3f3e 1b06 923e
00000010: 3fa2 61bd e8e2 b5bc 6684 68be 3916 203e
00000020: 24c9 01bf 9638 b53b 7cae f03d dc23 a73e
00000030: ce5b 5bbe d48a aa3d 0856 adbe fa35 8d3d
00000040: 2008 11bc 2a99 ff3e 4868 a33e ffcf 0f3f
00000050: 8dfd 203e cbbf e83e be9f f43e f827 6bbe
00000060: 9ec8 cd3d 9eee 27be 512f 103e e455 003e
00000070: 19bc 5dbe e8d0 f63d bdae 1c3d ce1c b43d
00000080: fd0b be3b 164d a9be d99e ecbe 3c45 09bf
00000090: e0be 873d 6877 18bd e8c8 e3bc 92fd 1bbd
000000a0: 17af 5cbe 6685 b1be fa92 d03d 4667 ae3d
000000b0: 4abf dbbe a8a1 49be e6d5 ec3d 3d77 bdbd
000000c0: 6263 d43b c204 21be ad97 763e 1d17 0a3e
000000d0: 9e96 1f3e a106 0a3f 6350 0dbe 76c1 113e
000000e0: 66ce 95bd e5c4 f73e 13b4 fa3e 3911 a53d
000000f0: 6337 283e 31d5 a0be d0c1 473e 9686 933e
00000100: b4cc 98bd 7910 8abb 98ec 01be 632a cbbb
00000110: c04f b3bd bd76 c8bd 301d 793e 2898 a83e
00000120: 4013 6d3e b8e9 363e ebfd afbd d3dd 69be
00000130: fd07 2f3e 7b01 5a3b 3886 b23e 344b fd3d
00000140: 4695 a5be 1624 70be 23f1 bebe d7d7 b0bd
00000150: 98d6 38be ac8b 253e 879c eabd c7f8 863e
00000160: d7c4 b6bd 9000 713e 4c18 163e fd61 8ebe
00000170: 7816 39be 9219 dbbd e606 32be 8ef7 2fbe
00000180: 0e28 0b3e 76cb aa3e 84ca 353e e7f0 513c
00000190: bbf9 763d bebd 48bd f4d3 2cbe 115f 76be
000001a0: 6a81 02bf 1f44 d9be a6a8 e5be 64e2 24be
000001b0: 9019 a93e e6e3 e33e 40ba f7bd 29b4 f83d
000001c0: 33c8 f7bd 9dc3 69bc 8f0d 08be 33b4 0e3e
000001d0: 59d6 ecbc d8ee 183d 228e df3c 8331 13bd
000001e0: 157d b8bd 76d1 993e af69 b43c aa8a 07be
000001f0: 93f2 85be 2c0f 14bf 1695 e5bd bf20 81bd
00000200: 03c0 793e 5f69 a4bd 2c27 65be b7da 883d
00000210: 4a9d 28be 2037 2c3d d7d2 8bbe 2ed5 273e
00000220: 15ed cb3e 09c8 163e e630 eb3e ba91 943e
00000230: 2d0a 80be 4f40 813e 6695 df3a a40c e8bd
00000240: 3740 8fbe eed7 493e c64d 113e 2731 d7be
00000250: d142 03bf a0e2 0dbf 9dad bebe 846b dcbe
00000260: 9bbe e2be ad27 8dbe 40ab 9fbe 9301 6abe
00000270: 426d a13d b61f a73c 2556 573e 28f4 083e
00000280: f819 bb3e 2315 2ebd 3d45 2cbe b06b 953d
00000290: 9e66 3fb8 6997 06bf 8ab3 66be 6fc3 ccbe
000002a0: 0bcc 88be b8c7 a4bd 6ae4 14bc c24d d63e
000002b0: 02bb 1c3e 029b a83d 071e 0cbe 2554 c43e
000002c0: c0f3 1a3e a307 febd 9328 40be 299f 8dbd
000002d0: 7ec8 703e c74f 2b3e de2e 92be f41c 06be
000002e0: 5d07 a13e 94e4 e83e d606 10bd 6008 1ebb
000002f0: 4f28 34be b855 ca3e 4ee4 b33a 5db2 b23e
00000300: a6e8 75be 7762 ff3d 03cd 40be c965 8bbe
00000310: fe53 26be 374a 97be 2bc8 b7bd 2eb2 a83d
00000320: 43c4 6e3e 28af 7a3e 0118 553f 7c13 aa3e
00000330: 074d ca3d 7209 0e3e 4b94 e3bd bb3b 94bc
00000340: 1345 9bbc 6c3e 06bd d848 13be 384c 62be
00000350: 8f7c a9be 2322 203d 9a83 a33c 0c93 a0bd
00000360: 6ed6 b1bd a049 7f3d 4bb6 b2bb 08ad cfbe
00000370: f502 87bd 702c 003e a8d4 e33c 86da 823c
00000380: 8e50 11be 17dd 0c3d 1a7f 653e ec93 dabd
00000390: b17e 783e 3174 d83d 5bc5 7e3e eaf2 f93d
000003a0: 6109 b6be 573c 8abe b22c 2ebe 1a24 bbbe
000003b0: ca20 63be b46f ad3e cde2 a8bd ecda cb3d
000003c0: c351 a23e ce5c 52bd d0aa 733e 3dfe 9a3e
000003d0: 7782 353c f245 e1bd 7dd9 94be 5af7 2a3e
000003e0: 5504 9fbd 9ba5 62be 4595 403d c227 8f3e
000003f0: af05 c63e c109 7f3b 8f97 87be 3b68 fcbd
0.33593482 -0.18914834 0.18728973 0.28520283 -0.05508637 -0.022202924 -0.22706756 0.15633477
-0.5069754 0.005530427 0.1175203 0.32644546 -0.2142174 0.083272606 -0.338547 0.06895061
-0.008852035 0.49921542 0.31915498 0.5617675 0.15721722 0.45458826 0.47778124 -0.22964466
0.1004803 -0.16399619 0.1408055 0.12532765 -0.21653785 0.120515645 0.03825258 0.087945566
0.005799769 -0.33066624 -0.4621494 -0.5362127 0.066282034 -0.03722325 -0.02780576 -0.03808362
-0.21551166 -0.34672087 0.101842836 0.085157916 -0.4291938 -0.19690573 0.115642354 -0.092512585
0.006481574 -0.15724471 0.24081297 0.1348538 0.155848 0.53916365 -0.13800196 0.14233956
-0.07314758 0.48392406 0.4896551 0.080599256 0.16427378 -0.31412652 0.19507527 0.28813618
-0.07460919 -0.0042133895 -0.1268791 -0.0062001213 -0.087554455 -0.097882725 0.2432754 0.32928586
0.23151875 0.17862594 -0.08593353 -0.22838525 0.17092891 0.0033265043 0.34868026 0.123678595
-0.3234045 -0.23451266 -0.37293348 -0.08634918 -0.18050611 0.16166562 -0.114556365 0.26361677
-0.08924263 0.23535371 0.14657706 -0.27809134 -0.18074977 -0.106982365 -0.17385444 -0.17184278
0.13589498 0.33358353 0.17753035 0.012813783 0.060296755 -0.049009077 -0.16877729 -0.24059702
-0.5097872 -0.42434785 -0.4485523 -0.16101986 0.33027315 0.4450981 -0.12096071 0.12143738
-0.12098732 -0.014267829 -0.13286422 0.13935928 -0.028910803 0.037337154 0.027289454 -0.03593589
-0.090082325 0.3004262 0.02202305 -0.1323649 -0.26161632 -0.5783565 -0.112100765 -0.06305074
0.24389653 -0.080279104 -0.22378224 0.066823415 -0.16466251 0.04204476 -0.27309296 0.16389915
0.39829317 0.14724745 0.45935744 0.2901743 -0.25007764 0.25244376 0.0017058074 -0.11330536
-0.2797868 0.19711277 0.14189824 -0.42029688 -0.5127383 -0.5542393 -0.3724183 -0.43050778
-0.44286045 -0.27569333 -0.3118534 -0.22852163 0.078821674 0.020400863 0.21028955 0.13374388
0.3654325 -0.042500626 -0.16823287 0.072959304 -4.563352e-05 -0.52574784 -0.22529426 -0.39992854
-0.26718172 -0.08045906 -0.009087661 0.418562 0.15305713 0.082326904 -0.1368333 0.38345447
0.15132046 -0.124038 -0.18765478 -0.06915123 0.23513982 0.16729651 -0.28551382 -0.13096982
0.3145093 0.4548689 -0.03516277 -0.0024113879 -0.17593502 0.39518523 0.0013724656 0.34901705
-0.2401453 0.124699526 -0.18828206 -0.27226093 -0.16242978 -0.2954881 -0.08973726 0.0823711
0.23317055 0.2448088 0.8323975 0.3321799 0.09877973 0.1387079 -0.11112269 -0.018094888
-0.018953836 -0.032774374 -0.14383256 -0.22099388 -0.33102843 0.039095055 0.019960213 -0.07840547
-0.08683477 0.062326074 -0.00545386 -0.405617 -0.06592361 0.12516952 0.027811363 0.01597334
-0.14190885 0.034390535 0.22411767 -0.10672745 0.24267079 0.10569037 0.24879973 0.12204535
-0.3555403 -0.2699916 -0.17009237 -0.3655098 -0.22180477 0.33874285 -0.08246384 0.099538654
0.31703004 -0.051358037 0.23795629 0.30272093 0.0110784685 -0.10999669 -0.2907218 0.1669592
-0.07764498 -0.22133486 0.047017355 0.2796002 0.3867621 0.0038915726 -0.26482818 -0.12324568

fcn_block.enc_blocks.0.conv1.bias f4 [32]
00000000: 57d9 753e 3d1f a83e dad7 3b3e f260 a23e
00000010: de9b 25bc 9b10 e73d 448b c4bd 55ff a53d
00000020: 6c65 553e eb02 8f3e 1b30 8d3b 8f60 38be
00000030: 3630 6bbe 4509 45be e131 cc3d b496 9dbe
00000040: cec9 bbbb 07a5 82bd 6540 6bbe ab69 15be
00000050: cda6 34be 0102 4cbe 0b09 253e acc2 053e
00000060: d0ad aebc b436 873e 3c6c 733e 3792 9bbe
00000070: 7e09 963e 4aa2 873e ad47 84be befc 9c3d
0.2400869 0.32836333 0.1834406 0.31714588 -0.010107962 0.11282464 -0.09596875 0.08105341
0.2083947 0.27931914 0.004308713 -0.18005584 -0.2296761 -0.19241817 0.09970451 -0.3077904
-0.005730844 -0.06379133 -0.22973783 -0.1459109 -0.17641754 -0.1992264 0.16116731 0.13062543
-0.021323115 0.26408923 0.23771757 -0.3038499 0.29304117 0.26491004 -0.25835934 0.07665394

fcn_block.enc_blocks.0.batch_norm.weight f4 [32]
00000000: ce2a 953f a01a 653f a771 393f e90c 373f
00000010: 4ff7 4a3f 7026 4b3f fa80 473f 280c 803f
00000020: 122e 5a3f 9c05 813f bd14 973f 6a0f 193f
00000030: 33e7 363f 1d34 423f 277c 1d3f 4ddf 233f
00000040: b19d 053f 1755 763f 383e 193f 3b16 5b3f
00000050: 7330 143f 4aee 7d3f 4e4a 3e3f 4615 f43e
00000060: e09b 1e3f 3b16 853f 57a9 6b3f 84e2 bf3f
00000070: ac30 973f 646f a23f 1a21 9b3f 55e2 863f
1.1653688 0.8949375 0.72439045 0.71504074 0.7928361 0.79355526 0.7793118 1.000371
0.8522655 1.0079837 1.1803204 0.59789145 0.7144653 0.7586077 0.61517566 0.64012605
0.52193743 0.96223587 0.59860563 0.85580796 0.5788643 0.99191725 0.7433213 0.4767248
0.61956596 1.0397409 0.9205527 1.4991002 1.1811728 1.2690244 1.2119477 1.0537821

fcn_block.enc_blocks.0.batch_norm.bias f4 [32]
00000000: 18d3 1fbe 7d84 98be e64b 75be 10ab 2ebe
00000010: b38d 5ebe 90a2 5abe 2af5 42be 8888 47be
00000020: 2bd7 6ebe 3fb2 b4bb f1ff e83c 75f8 66be
00000030: 7b1d 53be 2057 47be 360b 06be 2857 acbe
00000040: 7f97 89be 112d 79bd b9b1 e9bd e0eb 46be
00000050: a81b cebe cac3 9dbe 50e4 6abe 61de 83be
00000060: 8551 3ebe 362f 0ebe 6fd5 f6bd 7e19 12be
00000070: 23e3 1cbe 1987 7dbe deb3 4bbe 7597 3bbe
-0.1560787 -0.2978858 -0.23954734 -0.17057443 -0.21733741 -0.21351075 -0.19038835 -0.19485676
-0.23324268 -0.0055144127 0.028442355 -0.22555716 -0.20616715 -0.1946683 -0.13090214 -0.33660245
-0.26873395 -0.060833994 -0.11410851 -0.19425917 -0.40255475 -0.30813438 -0.22938657 -0.257556
-0.18585785 -0.13885197 -0.12052428 -0.14267537 -0.15321021 -0.24758567 -0.19892833 -0.18319495

fcn_block.enc_blocks.0.batch_norm.running_mean f4 [32]
00000000: bbf7 6b3e 8e17 f33e a6de 2c3f 30dc 993a
00000010: cbf8 72be 8e0a a13e dd42 3a3e a5f2 533e
00000020: 09c7 a43e b510 2a3e 5a8a debc ea6a 33bf
00000030: f050 7dbd d329 c5be abc9 58bd 3cf6 693d
00000040: 615a 3abf d1c7 9fbd 9c94 29bf d287 123d
00000050: cbb5 f6bc 399d 8dbe 65e5 223f e149 a6bd
00000060: b020 19be 13f6 a83e 6084 873e f34f 8cbe
00000070: 4f10 783e 5c27 d33e 81a7 c3bd bab1 193e
0.2304372 0.47478908 0.67527235 0.0011738595 -0.2372772 0.31453365 0.18189569 0.2069803
0.32183102 0.16607936 -0.02716558 -0.7008501 -0.061844766 -0.38508472 -0.0529267 0.057119593
-0.7279416 -0.07801784 -0.66242385 0.03577406 -0.030115983 -0.27659014 0.6363128 -0.0811956
-0.14953876 0.3300024 0.26468182 -0.27404746 0.24224971 0.41240966 -0.09553433 0.15009204
