results/models/MLP.pth (torch, 147088 bytes, 14 tensors)

linear_relu_stack.0.weight f4 [80, 180]
000000 20 1b 5e bd 71 13 5f 3c 10 95 e6 3b ca 10 51 bc
       -0.054225087 0.013615475 0.0070368126 -0.0127603505
000010 3b 06 8b bc 00 41 f9 bd 4c eb 1a be f9 8d af bd
       -0.016970744 -0.12170601 -0.15128821 -0.08572001
000020 c4 7b 14 be 35 a2 1e be 50 55 b5 bd 97 da 2c be
       -0.14500338 -0.15491565 -0.08854163 -0.1688026
000030 b4 49 aa bd 06 77 32 be 45 fe 0a be d8 05 cd bd
       -0.08314839 -0.17428216 -0.13573559 -0.1001088
000040 58 02 d5 bd 66 5a d3 bd bd 1e 83 bd 25 61 01 be
       -0.10400838 -0.103199765 -0.06402347 -0.12634714
000050 0b 32 3a bd 01 b5 5b 3d 78 c5 cf 3d 8a b9 30 3e
       -0.04545788 0.053639416 0.10145086 0.17258278
000060 4f 82 a8 3e 10 09 e8 3e e1 44 e8 3e dd 44 bd 3e
       0.32911918 0.45319414 0.4536505 0.369666
000070 d6 52 d3 3e 30 08 a3 3e 93 28 41 3e be be 7a 3d
       0.41274136 0.31842184 0.18863134 0.061217062
000080 be 9c e6 bc 9c 7f f4 bd b4 17 86 be e8 14 26 be
       -0.028150912 -0.11938402 -0.2618996 -0.16218913
000090 e2 5f 15 be 24 99 06 be 33 0c 70 bd a7 9a 80 ba
       -0.14587358 -0.13144356 -0.058605384 -0.0009811715
0000a0 75 8e ac 3d c2 d2 64 3e b4 a7 81 3e 71 8e 88 3e
       0.08425609 0.22346023 0.2532326 0.26671174
0000b0 c8 c2 89 3e 6f 75 41 3e cc 29 0a 3e 9e 66 0b 3d
       0.2690642 0.18892454 0.13492507 0.03403341
0000c0 ad fb 80 3c 62 c2 66 bd 24 26 3d be d1 71 97 be
       0.015745008 -0.05633772 -0.1847158 -0.29579023
0000d0 59 45 92 be d7 8c a1 be 86 0b 90 be 91 c2 b3 bd
       -0.28568533 -0.31552765 -0.28133792 -0.08777345
0000e0 ea f2 12 be 3b 35 df 3b 8c 34 e1 3d aa f1 e6 3d
       -0.14350477 0.0068117655 0.10996351 0.112765625
0000f0 5d 46 e1 3d 8f 3d 37 3e 3c a2 88 3d ba c5 80 3d
       0.10999749 0.17894576 0.06671569 0.06287713
000100 c0 68 bc 3c 2a 65 4f bc 67 4e 60 3d 54 9e 58 3c
       0.022999167 -0.012658397 0.05476227 0.013221342
000110 05 b0 94 bd 7b 9a 24 be e2 0b 2e be f5 4b 17 be
       -0.072601356 -0.16074555 -0.1699672 -0.14775069
000120 11 9e 04 be 2f 89 4b be 77 77 51 be 93 b7 2e be
       -0.12950923 -0.1987655 -0.20455728 -0.17062216
000130 34 58 60 be e2 0f 6e be 62 82 22 be 36 cd 96 be
       -0.21908647 -0.23248246 -0.1587005 -0.2945344
000140 5f d2 67 be b7 4b 7a be 68 c4 5f be ff 54 83 be
       -0.22638844 -0.24442945 -0.21852267 -0.25650784
000150 68 7d 95 be ae 1e 2a be 58 d8 1f be c4 f3 db bd
       -0.2919724 -0.16613266 -0.15609872 -0.10739854
000160 5b 39 dd bc c1 0f e2 bd 3e 13 22 3c c4 75 bd 3d
       -0.027004888 -0.11038161 0.009892283 0.09250978
000170 bf 04 8b 3d 28 61 a4 3d 08 42 7d 3d 4e 28 0b 3e
       0.067880146 0.080263436 0.06183055 0.13589594
000180 c9 e7 08 3d 04 3e be 3d 97 cd 32 3d 31 f4 7b 3d
       0.033424173 0.09289172 0.043653097 0.061512176
000190 45 38 50 3d 95 da 89 ba 3b 04 d5 bc 40 7a 76 3d
       0.050834913 -0.0010517413 -0.026002994 0.06017518
0001a0 e9 b9 a1 3d 70 44 43 bd 7d d9 1e bd 93 93 f1 3c
       0.07896788 -0.04767269 -0.03878163 0.029489314
0001b0 cb 35 81 bd 41 f4 7d bc ee ab 41 3c 62 8c 96 bb
       -0.06309088 -0.015500129 0.011820776 -0.0045943717
0001c0 db ba 0e be 2d 92 02 be d4 f3 06 be 8c df 9e bd
       -0.13938467 -0.12751074 -0.1317895 -0.07757482
0001d0 26 b4 9e bd d1 7e ad bd af a5 9e bd cf 3b b5 bd
       -0.07749204 -0.08471454 -0.077464454 -0.08849298
0001e0 f7 90 11 be 11 f2 14 be 67 dd 17 bd 33 f7 29 be
       -0.14215456 -0.14545466 -0.03707638 -0.16598205
0001f0 5e 36 22 be 0c 91 e3 bd 7c 24 98 bd 3f e9 cc bd
       -0.15841052 -0.1111165 -0.07428834 -0.10005426
000200 c7 15 3a bd 83 7a c4 bd 2d fc 6b bc 70 9d 3c bc
       -0.045430925 -0.0959368 -0.014403385 -0.011512145
000210 bc cb a8 bc 86 bb 6d bd d5 6b 00 bd aa 70 63 bd
       -0.02060496 -0.058040164 -0.031352837 -0.055527367
000220 04 b0 fe bd 56 7b 72 bd e9 92 27 bc 39 ba 40 bd
       -0.12435916 -0.059199654 -0.010227897 -0.047052596
000230 5c 0c dd bb 04 29 b7 bd 1e 5a c7 bd ef 06 d7 bd
       -0.006745858 -0.0894337 -0.09733985 -0.10499369
000240 fd de d4 bd f8 71 b4 3c 04 23 81 bd ce 56 33 3a
       -0.10394094 0.022027 -0.06305507 0.0006841243
000250 38 72 78 bc 89 24 23 bd f7 38 47 39 5c f1 b2 bc
       -0.015163951 -0.039829765 0.0001899934 -0.021843605
000260 03 19 e4 bc 28 b4 81 bd 4b 2f 29 bd bd c1 40 3d
       -0.027843958 -0.0633319 -0.041304868 0.047059763
000270 14 a0 69 3d b7 9b 4e 3a a7 4d 5c 3d 8a 9c f0 bc
       0.057037428 0.00078814797 0.053784993 -0.029371519
000280 07 3c a3 3c a2 e9 02 3d b9 b3 0f bd a0 85 8e bd
       0.019926084 0.03196109 -0.035083506 -0.06959081
000290 cf e7 bb 3b d4 98 8f bd b9 5f 71 3d 93 12 55 3d
       0.005734421 -0.070115715 0.05892918 0.052019667
0002a0 70 36 4e bc 22 29 22 3d 6f e7 6b bb 58 b4 69 3d
       -0.012586221 0.03959001 -0.00359961 0.057056755
0002b0 b3 31 79 3d f1 d5 7b 3d 17 a3 32 3d 5f 50 bb 3c
       0.060838412 0.061483327 0.043612566 0.022865472
0002c0 06 87 4a 3d 46 34 79 3d 5a 5e d0 3c f4 01 58 3d
       0.049445175 0.060840867 0.025435615 0.052736238
0002d0 51 58 05 bc 4b 92 8b bd 51 f6 29 3d ad 99 83 3c
       -0.008138732 -0.068150125 0.04149467 0.01606449
0002e0 72 a0 39 3d 5e 8a e7 3d 15 22 55 3e 9c a4 62 3e
       0.04531903 0.11305688 0.20813783 0.22133106
0002f0 d9 73 4e 3e 27 9b 7d 3e b1 bc dd 3e 97 10 b1 3e
       0.2016138 0.24766217 0.43308023 0.3458297
000300 04 58 d4 3e 07 1c 10 3f 83 4d 04 3f 1f 0f bc 3e
       0.414734 0.56292766 0.51680773 0.36730286
000310 76 9f ca 3e f2 42 5b 3e 7a 5c 93 3c ac ac 80 bd
       0.39574784 0.21412256 0.017988432 -0.062829345
000320 1c ed f5 bd 67 f2 f7 bd 1d 5a 8a be aa 2d 34 be
       -0.12008116 -0.121067815 -0.27021876 -0.17595544
000330 c0 7a 0f be e5 b8 36 bd 1a 88 ba 3d 54 2b 93 3e
       -0.14011669 -0.044609923 0.091079906 0.28743994
000340 2c c9 a0 3e 5c 4e aa 3e b7 2c c8 3e 56 61 41 3e
       0.31403482 0.33262908 0.39096615 0.18884787
000350 37 10 20 3d d0 c8 3f bd 1c 82 0c be ba 6f 6d be
       0.039077964 -0.04682237 -0.13721508 -0.23187152
000360 aa b2 9e be b0 8c b7 be f6 1a 5a be 00 6f 20 be
       -0.30995685 -0.35849524 -0.21299347 -0.15667343
000370 af 77 be bd 80 05 55 3d a1 11 e2 3d be fe 0c 3e
       -0.093001716 0.0520072 0.11038519 0.13769051
000380 0b 34 16 3e a5 aa ea 3d c8 c2 92 3d 46 3f b1 bb
       0.1466829 0.11458329 0.07166058 -0.005409154
000390 60 6b 62 bd 51 72 13 be 78 50 1f be 9b 8b 7d be
       -0.055278182 -0.14399077 -0.1555804 -0.24760287
0003a0 8b e0 9e be ad b5 88 be e2 c0 80 be 9d 07 1a be
       -0.31030688 -0.26701108 -0.25147158 -0.15041967
0003b0 a0 60 82 bd 35 dd af 3c 86 f0 1e bb e0 f4 2e bc
       -0.06366086 0.021467784 -0.002425225 -0.0106785
0003c0 1f 09 0b 3d d6 ef 06 3e 65 a6 13 3e 91 38 c8 3d
       0.033944245 0.13177428 0.14418943 0.09776414
0003d0 b8 b4 13 3d 41 ef 17 bd 73 15 ee 3c 34 f0 4a bc
       0.03606102 -0.037093405 0.029062962 -0.01238637
0003e0 3f fa c0 bd 04 ff 5c bc 3c 1d b2 bc b5 a1 23 be
       -0.09422731 -0.013488535 -0.021742456 -0.15979655
0003f0 1b 19 27 be 77 1d 2e be 71 f0 54 bd dc 88 0d bd
       -0.1631817 -0.17003427 -0.051987115 -0.034554347

linear_relu_stack.0.bias f4 [80]
000000 e7 aa 6b 3d bc 57 4d bd 0e f3 62 3d aa cc 52 bd
       0.057536032 -0.0501325 0.055407576 -0.051464714
000010 5d b7 85 bd 7b 8a 13 3d 8a fe ba 3c 20 64 41 3b
       -0.065291144 0.036020737 0.022826452 0.0029509142
000020 c8 82 90 bd 93 cd 35 bd b0 46 83 bb f4 c8 48 bd
       -0.070561945 -0.044385504 -0.0040062293 -0.04901977
000030 a2 9f 58 3d b9 5a e9 3b fb fe 63 bd 0d 4c 80 bd
       0.052886613 0.0071214107 -0.05566309 -0.062645055
000040 04 ca 43 bd d4 c2 17 3c db 5e 5a 3c c5 3d 1b bd
       -0.04780008 0.009262759 0.013328279 -0.037900705
000050 dc 43 ed bc ed e6 28 3d a7 39 12 3d ba 25 4c 3d
       -0.028963022 0.041235853 0.035699513 0.049840666
000060 47 31 16 3d 0a 3d 63 3d 1d d1 f8 bc bb 73 11 3d
       0.03666809 0.055478133 -0.03037315 0.03551076
000070 77 e0 25 bd 91 29 9c bc 09 0d 23 3d 0e 3e 60 bd
       -0.04049727 -0.01906279 0.039807353 -0.05474668
000080 fe 34 bf bc 2c cc f5 3b 06 85 f3 bc 5e 91 da bc
       -0.023340698 0.007501146 -0.029726516 -0.026680645
000090 34 73 7f 3c 9a 1d a9 bb 24 06 2f bd 14 2c 75 bb
       0.015591431 -0.0051609995 -0.042730466 -0.0037410306
0000a0 93 35 7a 3c 79 81 d1 3b 98 e4 6c 3d 8a 1f 48 bd
       0.015271562 0.006393608 0.05783519 -0.048858203
0000b0 5f ad f0 bc 36 61 79 3d 50 6b 59 bd bf ed 86 bd
       -0.029379545 0.060883723 -0.053080857 -0.06588315
0000c0 da 13 94 bd 9d 8d 9e 3c fd 71 a6 bd d0 3a 85 bd
       -0.07230349 0.019354636 -0.0812721 -0.06505358
0000d0 ae 4e 99 3c ce 26 12 bd cd eb 64 3d 2a 01 67 3d
       0.018714275 -0.03568154 0.05588894 0.056397595
0000e0 24 e9 8c bd b0 cf 8d bd d0 12 54 3d 11 88 7b bd
       -0.068804055 -0.06924379 0.051775753 -0.06140906
0000f0 86 e8 81 3d 25 3b 69 bd 0e c9 56 bd b4 e1 5b 3b
       0.063431785 -0.05694117 -0.052437834 0.0033551278
000100 72 00 63 3d 61 94 a8 3c dd 14 1a bd 03 b4 8c bd
       0.055420347 0.020578565 -0.037617553 -0.06870272
000110 62 d4 43 bd df 33 60 bd fc c3 87 3d cd bb 93 3d
       -0.047809966 -0.054736968 0.06629178 0.072135545
000120 40 f1 8d 3d 13 39 8b 3c 89 8e 07 bc 0c fd 5b 3d
       0.069307804 0.016994989 -0.008273729 0.05370812
000130 3f 85 61 3d e0 b5 45 3d 22 80 c7 3c eb cb e9 bc
       0.055058714 0.048269153 0.02435309 -0.028539618

linear_relu_stack.1.weight f4 [80]
000000 d6 b0 89 3f d6 8c 81 3f cf 90 8b 3f f2 f1 95 3f
       1.0757091 1.0121105 1.0903567 1.1714461
000010 de 40 48 3f 5b 34 8c 3f 1d 79 8e 3f 3c 57 7a 3f
       0.7822398 1.0953478 1.1130711 0.9778936
000020 57 38 86 3f c9 64 90 3f 61 3f 92 3f 9f bd 7c 3f
       1.0485944 1.1280757 1.1425592 0.9872684
000030 26 47 82 3f 9f 8b a8 3f 26 38 80 3f 57 aa 96 3f
       1.0177963 1.3167609 1.0017135 1.1770734
000040 53 06 8d 3f c8 08 a8 3f 90 0e 87 3f 33 aa 74 3f
       1.1017555 1.312768 1.0551319 0.95572203
000050 d3 be 9a 3f 6a c4 90 3f 5c 35 9f 3f 67 88 68 3f
       1.2089485 1.1309941 1.2438159 0.90833133
000060 4a f1 98 3f a6 96 90 3f da 55 86 3f ce 16 86 3f
       1.1948636 1.1295974 1.049495 1.047571
000070 22 31 82 3f 79 d0 47 3f bf 0c 6b 3f 62 a8 82 3f
       1.0171244 0.7805248 0.91816324 1.0207636
000080 9b 92 86 3f 2e 19 84 3f fe 90 8a 3f 72 8a 75 3f
       1.051349 1.0320184 1.0825498 0.95914376
000090 23 cf 7d 3f d9 03 83 3f 5f 29 90 3f c2 f3 89 3f
       0.9914419 1.0235549 1.1262625 1.0777514
0000a0 b4 15 74 3f 61 95 88 3f 8d 75 c3 3f 0e 89 96 3f
       0.95345616 1.0670587 1.5270249 1.1760576
0000b0 98 83 8f 3f df 82 90 3f 33 19 9e 3f 6e 45 a3 3f
       1.1212034 1.1289939 1.235144 1.2755563
0000c0 f6 8d 87 3f 2e 59 8d 3f 51 df a0 3f 73 f9 8e 3f
       1.0590198 1.104284 1.2568151 1.1169876
0000d0 ae 39 80 3f ff 05 89 3f 7b 8f 9a 3f 5a e2 90 3f
       1.0017602 1.0704955 1.2075037 1.1319077
0000e0 17 a6 8b 3f 02 07 91 3f 5f cc 96 3f 7e 06 8c 3f
       1.0910062 1.1330264 1.1781119 1.0939481
0000f0 66 23 b1 3f dc 6b 64 3f a6 74 a2 3f 8f ae 8c 3f
       1.3838928 0.8922708 1.2691848 1.0990771
000100 d1 80 70 3f 18 e2 77 3f 3e 3c 8f 3f 6a 78 88 3f
       0.9394656 0.96829367 1.119026 1.0661747
000110 d2 39 96 3f a4 e3 8c 3f ca dc 8e 3f b1 97 90 3f
       1.1736395 1.100697 1.116113 1.1296293
000120 f5 d5 89 3f d2 da 6b 3f 2e fd 90 3f 0a f2 84 3f
       1.076842 0.9213077 1.1327264 1.0386364
000130 63 a9 8c 3f b6 97 91 3f 82 6d 7c 3f 11 34 69 3f
       1.0989193 1.1374424 0.98604596 0.9109507

linear_relu_stack.1.bias f4 [80]
000000 72 ac 7a 3d a4 62 5b 3d fc 96 df bd 79 35 af bd
       0.061199613 0.053560868 -0.1091747 -0.08555121
000010 19 19 4e 3e cc 9b 29 bd 22 ce f3 bd 5e d8 a3 3b
       0.20126761 -0.041408345 -0.11904551 0.005000158
000020 6c 89 6a 3e ee 36 fb 3d 75 f9 a0 bd cb d7 55 3d
       0.22903985 0.122663364 -0.0786008 0.05220775
000030 d3 95 6b 3e 27 7e 6e be bf be bb 3e e3 00 0e 3f
       0.23006372 -0.23290311 0.36668965 0.55470103
000040 66 5f 0f 3e 91 fd 80 be 93 ed 2a 3e 0e 4c cf 3d
       0.14001235 -0.25193456 0.1669219 0.10121928
000050 27 a0 9e 3d f5 89 98 3e 3f 0c 43 bd 59 bb d4 bd
       0.077453904 0.29792753 -0.0476191 -0.10387296
000060 22 32 5e be 47 0c 2e 3d c2 a2 1f 3d 4e 65 c9 bd
       -0.21698812 0.042492177 0.038973577 -0.098337755
000070 45 86 18 bd d0 a5 db 3d 87 a6 d6 3c bf ff ce 3c
       -0.037237424 0.107249856 0.026202453 0.025268434
000080 48 1f 90 bd 93 07 8e be 4a 3c 80 3e ef 85 96 3e
       -0.070372164 -0.27740154 0.25045997 0.29399058
000090 c0 0d a3 bd 5a 59 86 3d b7 72 15 3e 68 29 1e be
       -0.07961607 0.06560011 0.14594541 -0.15445483
0000a0 1e 4d b7 3e 68 35 b5 3e bb 82 4c 3e 85 dc 08 bd
       0.35801023 0.35392308 0.19971745 -0.03341343
0000b0 db b1 cd bb d6 1f 35 3e a2 b7 94 bd e9 02 bd bd
       -0.0062773055 0.17687926 -0.07261588 -0.09229071
0000c0 e0 65 a3 bd d5 ff 10 3d fd 10 ca bc 79 37 82 bd
       -0.079784155 0.03540023 -0.024666304 -0.06358237
0000d0 4e 0e a4 be a8 b7 b8 3d 1b 35 18 be 74 7e 14 be
       -0.32042164 0.09019405 -0.14864008 -0.14501363
0000e0 78 3e 39 be 9a 1f 49 3c 58 56 40 3d db 99 47 bd
       -0.18090236 0.012275601 0.046957344 -0.048730712
0000f0 d7 bc e3 bc b6 6c 52 3e 7c 1e 19 3e 9b fb ce 3d
       -0.027800007 0.20549282 0.14953035 0.10106584
000100 91 a5 8a 3c 88 31 e6 3d 87 77 d2 3c 6f 3f 98 bd
       0.016924651 0.11239916 0.02569176 -0.07433974
000110 07 56 b8 bd 30 72 8b 3c 4b e9 85 3e 90 17 43 bd
       -0.090007834 0.017022222 0.2615455 -0.047629893
000120 b9 5f 91 3d ad 45 78 3e 97 88 22 be 49 8b 0b 3f
       0.07098336 0.24245329 -0.15872417 0.5450941
000130 fd 20 c5 bd 5f 0d 00 3d b4 55 8c 3e 98 cc a4 3e
       -0.09625433 0.03126275 0.27409136 0.32187343

linear_relu_stack.1.running_mean f4 [80]
000000 1b 88 12 3f 3c 32 10 bf 13 99 3c bf 34 86 9a bf
       0.5723893 -0.5632665 -0.7367107 -1.2072206
000010 60 b7 c7 3e 18 6f 49 40 df b9 b2 3f e3 97 94 3f
       0.39007092 3.1474056 1.3962973 1.1608852
000020 55 c8 42 bf d5 3e 19 3f fb 81 2f 3f 56 5b e9 3e
       -0.7608693 0.598615 0.6855771 0.45577496
000030 d0 4e 11 40 93 34 00 3f f8 de 95 3f c6 c2 d3 3f
       2.2704353 0.5008022 1.170867 1.6543815
000040 78 34 00 40 68 0d 32 bf d0 7b 76 3f c5 a5 55 40
       2.0032024 -0.69551706 0.9628267 3.3382428
000050 16 cd 30 bf cb 93 97 3f 60 4c 29 3f 12 92 a3 be
       -0.69062936 1.1841978 0.66132164 -0.3194738
000060 cd ee 7a be f2 51 b3 3f 78 cb 1b 40 22 ec 42 40
       -0.24505158 1.4009383 2.4342937 3.0456624
000070 c8 23 fd bf c4 fe 84 3d 74 35 09 40 d8 7a 8d c0
       -1.9776545 0.06493905 2.1438875 -4.4212456
000080 5e 0a ba 3f af 58 b6 bf f4 eb d1 3f ef 29 89 40
       1.4534414 -1.4245814 1.6400132 4.286369
000090 51 30 fd 3e 92 c7 00 40 da 89 24 40 52 8a f9 bf
       0.49450925 2.0121808 2.5709138 -1.9495337
0000a0 14 0a 2b 40 96 65 84 3f 28 bc 69 3f 18 31 8c 40
       2.6724901 1.0343502 0.9130273 4.380993
0000b0 1a 16 18 3f 6d 60 51 40 f2 8e 55 bf b9 38 c2 bf
       0.59408724 3.2715104 -0.8342124 -1.517356
0000c0 09 82 95 3f 1a d2 89 3e e3 c7 4c 40 7f 15 e4 3f
       1.1680309 0.26918107 3.1997 1.781906
0000d0 fe 44 c0 bf e9 e8 ae c0 e5 bc bf bf 32 0b 83 c0
       -1.5021055 -5.4659314 -1.4979521 -4.0951166
0000e0 60 01 08 bf 50 6c 2a 40 ce ce b1 bd a2 b8 f0 3e
       -0.531271 2.6628609 -0.08682023 0.47015864
0000f0 d8 ab 88 3f fd 6b aa 3f 6d ab 17 40 97 62 b4 3f
       1.0677443 1.3314205 2.369838 1.4092587
000100 2b 78 2a 40 57 25 40 3f 0a 8d af bd 5f 5e 51 3f
       2.6635845 0.75056976 -0.08571823 0.81784624
000110 c0 0b a6 3e d9 11 15 3f 96 ab b8 3f 46 61 55 3f
       0.3243084 0.5823036 1.4427364 0.8335155
000120 68 3f d3 3e fa bc 40 40 f0 5e 35 40 0b 89 15 3e
       0.41259313 3.0115342 2.8339195 0.14603059
000130 92 76 1d 40 e6 b3 56 40 9b ac 56 3e 34 00 16 be
       2.460362 3.3547301 0.20964281 -0.14648515

linear_relu_stack.1.running_var f4 [80]
000000 34 f9 5b 3f b7 c6 8a 3e ec f5 48 3e 71 a4 a6 3e
       0.8592713 0.27104732 0.19625062 0.32547334
000010 b6 23 6c 3e 5f 3d 81 3e f8 9b cc 3e 00 4d 97 3f
       0.23060498 0.25242135 0.39962745 1.1820374
000020 a5 bf a4 3e c8 7c cb 3e 9f fe 11 3f c0 9e 5d 3f
       0.32177463 0.39743638 0.57029146 0.8657036
000030 b7 fc 71 3e 0f 20 f2 3d d7 ad 9f 3f 98 4d d1 3e
       0.2363156 0.11822521 1.2474927 0.40879512
000040 34 96 82 3e 69 c1 ab 3e 55 51 99 3e 1d 47 bb 3e
       0.2550522 0.33545998 0.29944864 0.36577693
000050 3f 3f 85 3e 9a 98 ab 3d d5 c3 01 3f 61 6d 4c 3f
       0.26024815 0.08378716 0.5068944 0.798544
000060 55 e5 92 3f a1 27 a4 3e 2a 0e 56 3e 37 3f 38 3f
       1.1476237 0.32061484 0.2090384 0.7197146
000070 d5 97 6a 3f b4 4b 0c 3f 75 6c 0f 3f c3 b1 0c 3f
       0.9163793 0.54803014 0.5602487 0.5495874
000080 30 f3 86 3e 33 de ab 3e 97 b8 7b 3e 4b d3 6e 3e
       0.26357412 0.33567962 0.24582134 0.2332279
000090 74 df 6f 3f e8 10 44 3f 3e 1a a9 3e f4 1f 45 3e
       0.9370034 0.76588297 0.33027834 0.1925047
0000a0 11 1d 1e 3f 6d 8d 42 3e df 98 ce 3d 68 7e 84 3e
       0.617631 0.18999262 0.100877516 0.2587769
0000b0 cf f0 ba 3f 8c df eb 3e 85 80 53 3f 05 f9 5b 3e
       1.4604739 0.4606899 0.8261798 0.21481712
0000c0 ca 19 f3 3e f8 70 ed 3e 2d 12 6a 3e 0d a1 9e 3e
       0.47480613 0.4637525 0.22858496 0.30982247
0000d0 aa 6c 46 3f a0 30 76 3f e3 9a d7 3d 32 23 9f 3f
       0.7750956 0.96167946 0.10527589 1.2432616
0000e0 c0 88 4a 3f 94 ae 82 3e 1d ce ed 3d 1a d0 da 3e
       0.79114914 0.25523818 0.116115786 0.42736894
0000f0 f8 92 f8 3d 2f 50 9c 3e a8 18 2d 3e 7a 2a 82 3e
       0.12137407 0.30529925 0.16903937 0.25423032
000100 46 ef a5 3f cc f1 9b 3f 8d ca 0c 3e c6 bf 3c 3f
       1.2963645 1.2183166 0.13749142 0.73730123
000110 c2 2d 6a 3e 80 2d 55 3f 85 cc 55 3e ef e7 a5 3e
       0.22869018 0.8327255 0.208788 0.32403514
000120 42 fc 9c 3e 26 22 87 3e 33 f8 8c 3e 17 f9 cb 3e
       0.30661207 0.2639324 0.2753311 0.39838478
000130 d4 8b 99 3e c1 ba 56 3e 2a 2f cc 3e 4f 62 2e 3e
       0.29989493 0.20969678 0.39879733 0.17029689

linear_relu_stack.3.weight f4 [80, 80]
000000 f1 ad 41 3d 3f 4b 3e 3e 08 e5 e2 bd fc 75 05 bd
       0.047285024 0.18583392 -0.110788405 -0.03258322
000010 2a 54 22 bd 25 fa 22 3d 90 10 3d be d6 0b dd 3e
       -0.039631046 0.039789338 -0.1846335 0.43173093
000020 39 3f e3 3d 60 1b f2 bc 70 cc ef bd 70 39 3c 3d
       0.11096043 -0.029554069 -0.11708915 0.045953214
000030 dd 9a 85 3d ff 16 22 3e 1c 86 db bd 19 b6 4e bd
       0.065236785 0.15829085 -0.10718939 -0.05046663
000040 16 0f fc 3d 38 a8 b3 be 3c 2b b7 3d b9 93 21 be
       0.12307565 -0.35089278 0.08943793 -0.15779008
000050 be 98 9a be 2b e3 3c 3d 5e 0a ee bc e3 9c d9 bd
       -0.30194658 0.04611508 -0.029057678 -0.10625627
000060 79 ac 9f be d4 32 02 3e 8b 2a ae 3d f4 5f 39 bd
       -0.31186274 0.12714702 0.08504208 -0.045257524
000070 59 1c 17 be be 02 09 3e 5b 9a e9 bd 98 22 9c 3d
       -0.14756908 0.13379952 -0.11406394 0.07623786
000080 05 ed 38 be cb 9a cb 3d da a2 ee 3d 85 80 ea 3d
       -0.18059166 0.09941634 0.11652155 0.114502944
000090 9e 03 22 bd 67 1b 07 3d 9e a7 08 bd 69 1c 0a 3e
       -0.03955423 0.032985117 -0.033362977 0.134874
0000a0 1b ba 2c 3e e9 34 88 3d e4 59 25 3e 62 5a 33 be
       0.16867869 0.06650717 0.16147572 -0.17514947
0000b0 89 e2 86 3d 81 bc 9c bc 02 95 db bd 11 0a 91 be
       0.06586177 -0.019132854 -0.1072178 -0.28327993
0000c0 d9 20 18 3d bf 95 5d be 3d 72 8f be 60 7b c4 bd
       0.0371407 -0.21639155 -0.28016844 -0.095938444
0000d0 2b 77 c3 bc a0 22 38 bd 62 a7 fa bd 16 09 df bd
       -0.023860535 -0.044954896 -0.12238957 -0.10890405
0000e0 e8 19 b4 bc 17 42 fc bd 59 56 96 3e b5 d5 4d be
       -0.02198501 -0.12317293 0.29362753 -0.20101054
0000f0 de 04 4b be b5 6f 84 3d 1a 68 92 bd 8d c2 17 3e
       -0.19826075 0.06466619 -0.07148762 0.14820309
000100 48 a9 5a 3e 7e ab 75 3d 82 f3 08 be 3c fa b8 bd
       0.21353638 0.059978 -0.13374141 -0.090321034
000110 c9 44 da 3d 29 71 35 3e 01 1b 95 bd 01 55 ee bd
       0.10657651 0.17718948 -0.07280541 -0.11637307
000120 26 f4 ad 3d 2b f0 ab 3e 0c e0 60 3d 45 9f cd bd
       0.08493833 0.3358167 0.054901168 -0.10040144
000130 e8 db a3 3b 1d e7 4c 3d ff bd a7 3c 17 45 e2 bc
       0.00500058 0.050025094 0.02047634 -0.027620835
000140 b0 d7 38 3e 2d 7e 86 3e ef 5c df bd d1 c1 cd 3d
       0.18051028 0.2626814 -0.109063976 0.10046733
000150 1e 2a 97 3e 24 ed f1 3d 34 b4 a8 bd 95 61 5c 3e
       0.2952432 0.11812809 -0.08237496 0.215216
000160 3a d4 9f be a6 c9 0e 3d 67 7c 53 be 3c 58 46 be
       -0.31216604 0.034860276 -0.20652924 -0.19369596
000170 f4 76 6e bd 7d 5c 7b 3e 0b eb 9f 3e b0 04 9f 3e
       -0.05821891 0.24547 0.3123401 0.31058264
000180 09 65 84 bd ab df ba be 64 b2 3c 3d 84 31 25 3d
       -0.064645834 -0.3649877 0.046068564 0.040330425
000190 76 6e 81 be c9 49 24 3e a2 ce 7f be 62 3d 37 3d
       -0.25279588 0.16043772 -0.24981168 0.044736274
0001a0 05 71 e0 be ca 47 c6 3e 4d 6f a0 3e a1 7e bb bd
       -0.43836227 0.38726646 0.31334916 -0.09155012
0001b0 e8 a0 04 be 8c 64 57 3e 93 eb 6e bd 66 5c 8f bd
       -0.12952006 0.2103445 -0.05833013 -0.070000455
0001c0 a1 08 8b be 6d 07 a5 3d 2c 50 96 3e 8f f1 8f 3e
       -0.2715502 0.08058057 0.2935804 0.28113982
0001d0 30 9a b0 bd 45 2e 0d 3e 76 75 1a 3d 0d ff b2 3d
       -0.08623159 0.13787182 0.037709676 0.08740053
0001e0 1a ef 13 3e 9f ed 6c 3e 96 f9 79 3e 3b 96 97 3e
       0.14446679 0.2313752 0.24411616 0.29606804
0001f0 c6 6b 02 3c 33 2b 5e 3e cc b0 7a bd 56 da 97 be
       0.0079602655 0.21696167 -0.061203763 -0.29658765
000200 9e 00 9e be fa c6 b9 be 2b 9e 1a be cb c9 b0 bd
       -0.30859846 -0.3628462 -0.15099399 -0.08632239
000210 26 aa 90 bd b7 22 f8 bd b8 cf e7 3c 98 2f 58 3e
       -0.07063703 -0.12115996 0.02829729 0.21111906
000220 2e 4c d0 be 9d 84 6e bd 90 75 1f 3e 70 1e 1c be
       -0.4068312 -0.05823194 0.1557219 -0.15245986
000230 bd 22 f7 bd 74 2d 3e 3e b0 19 c9 3e bf 9a 16 bd
       -0.12067173 0.18572026 0.3927741 -0.03676867
000240 df 4e 4f bc 05 18 2f 3e 96 f8 df bd e1 98 ab 3d
       -0.012653082 0.17099006 -0.10936086 0.08378769
000250 45 51 ce 3d 45 0d 39 bc 49 44 03 3f 97 c1 a2 be
       0.10074095 -0.011294668 0.5127607 -0.31788322
000260 0a 21 23 3e c3 73 30 3d ee 0b 14 3e 97 d8 39 3e
       0.15930572 0.04307915 0.14457676 0.18149029
000270 b5 6d 8d 3d 39 47 03 3f 21 26 8b 3e be 87 1d 3e
       0.069056906 0.5128055 0.27177528 0.15383813
000280 c7 35 9f be f1 5f 87 bc f6 61 51 3d de a5 72 be
       -0.31095716 -0.01652524 0.051118813 -0.23696086
000290 5e c0 16 be 07 67 0b 3e 1d f8 96 3e b6 52 da be
       -0.1472182 0.1361352 0.2948617 -0.42641228
0002a0 29 5d 47 be 8e e0 09 bf 8d 7c df 3e 9b 25 13 be
       -0.19469132 -0.5385827 0.43649712 -0.14369814
0002b0 bc 0b 83 bd 07 45 33 be b3 8c 7f 3d b0 1a 2a bd
       -0.063987225 -0.175068 0.06239004 -0.041529357
0002c0 3a 05 0c 3e 97 f5 23 3d 81 83 d5 be 63 f4 8e 3d
       0.13673869 0.040029135 -0.41701892 0.06980207
0002d0 b7 82 b9 bd 69 5a 64 3e 0b 80 15 bd 75 63 a9 bb
       -0.09058135 0.22300114 -0.036499064 -0.005169327
0002e0 6e 67 20 3e 46 91 42 3d 86 a7 a9 bc 6c f8 37 3e
       0.15664455 0.047501825 -0.020709764 0.17965859
0002f0 17 b0 86 3e 7c 4d aa 3d 98 1e 36 3e 9f 46 37 3d
       0.2630622 0.0831556 0.17785108 0.044745084
000300 a4 74 03 3e 13 a9 3d 3e 28 d0 91 be 10 0e 97 be
       0.12837464 0.18521528 -0.28479123 -0.29502916
000310 25 44 67 3e 78 a3 33 bd 75 46 93 bd 49 cf a7 3d
       0.22584589 -0.043857068 -0.07191173 0.081938334
000320 bd f3 3c 3c c3 52 60 bd 11 3d 19 be 7c 2c 97 3c
       0.011532721 -0.054766428 -0.14964701 0.018453829
000330 c6 d4 80 3e 0d e4 43 3e 96 27 fa bd 4f fb c1 3d
       0.25162333 0.19129963 -0.12214582 0.094717614
000340 b6 a4 80 3c 74 c3 9a 3e ad 92 28 bd 6e 2b 10 be
       0.01570354 0.30227244 -0.041155506 -0.14079067
000350 f4 d6 4d 3d 0b 6b c5 3c ae b0 60 3e 14 ff ab 3c
       0.050253823 0.024098894 0.21942398 0.020995654
000360 7f 50 14 bd 2e 80 5a 3d f4 85 c9 bc 50 53 5c 3e
       -0.03620958 0.053344898 -0.024600007 0.21516156
000370 ef 13 8f 3e de 6c 99 be 76 d9 00 bf ab c1 c7 bd
       0.27944896 -0.29965872 -0.5033182 -0.09753736
000380 bc 7a 16 3e d9 bf ef be 8a 70 d3 ba 27 7d 84 3e
       0.14695257 -0.46826056 -0.0016131562 0.25876734
000390 3f 5e ae bd 4a 60 d8 bd 92 95 9e be 37 50 02 3f
       -0.0851407 -0.10565241 -0.30973488 0.5090365
0003a0 58 ee 37 3d e9 45 11 be c1 10 35 bd 91 71 b7 bd
       0.044905037 -0.14186825 -0.04420543 -0.08957208
0003b0 fc c0 c4 3d fa 9a 18 3d fe 3b 62 bd 46 93 b2 ba
       0.09607121 0.037257172 -0.055232994 -0.0013624213
0003c0 48 4d 40 3e 56 0a 19 be 83 36 80 bd d5 3c ce bd
       0.1877948 -0.14945349 -0.06260397 -0.100701965
0003d0 3a 4c 4e 3d 79 1b 31 3d 91 36 38 be 81 45 d7 3d
       0.050365664 0.04323909 -0.17989565 0.10511304
0003e0 0b 4b 9e 3e 9a 6e 70 bd ac 80 78 bd fb 6c ac 3e
       0.30916628 -0.058699228 -0.060669586 0.33676895
0003f0 72 8b e4 3d 52 39 33 3e 5d 32 f0 3e 98 80 5d 3e
       0.111594096 0.17502335 0.46913424 0.21631086

linear_relu_stack.3.bias f4 [80]
000000 fa b0 87 3e fb 9a a1 3e 78 78 f4 bb c0 f9 86 3e
       0.2650221 0.31563553 -0.00746065 0.2636242
000010 3a 10 65 3e 0e 94 13 be a7 1a 23 3e d9 29 1e 3f
       0.22369471 -0.14411947 0.15928136 0.61782604
000020 e0 4c 66 bd a2 d4 0a 3e bb d1 58 3e 98 c5 73 be
       -0.056225657 0.13557675 0.21173756 -0.23805845
000030 d5 2f 71 be dc 6f 94 3d fd 17 b4 3d 8d a2 9b bb
       -0.23553403 0.07247898 0.08793638 -0.004749602
000040 e5 a4 f5 bc 69 6a 77 bb f2 b3 c8 3c c0 9d c5 3c
       -0.029985854 -0.0037752634 0.024499867 0.024123073
000050 df 50 90 bc 59 fd 8b 3d 1f 20 f6 bd 74 bb 15 bd
       -0.017616687 0.068354316 -0.12017845 -0.036555722
000060 53 17 83 bd 47 9c c9 3b a8 51 10 bd 25 ee ef 3d
       -0.06400933 0.006152663 -0.035234123 0.11715344
000070 4f 6a c0 be 7b 73 ec 3d 3d 0b 4f 3e af 38 a2 bd
       -0.37581107 0.11545464 0.20219131 -0.07920968
000080 bc 76 20 3e 1d 27 ef 3d d0 79 db 3d e6 bd 93 3e
       0.15670294 0.11677382 0.10716593 0.2885582
000090 42 10 13 be b6 a6 35 be 5d 4c 22 bd 9b de 80 3e
       -0.1436167 -0.17739376 -0.039623607 0.25169834
0000a0 65 3e 4e 3e 3b 08 27 be 29 cf 7b bd 2e d1 4f 3e
       0.20140989 -0.16311733 -0.06147686 0.2029464
0000b0 75 6a e6 3d 35 84 a3 3d db 21 04 3d 29 83 20 be
       0.11250774 0.07984201 0.03225885 -0.15675034
0000c0 f3 28 3c 3e f4 97 85 bd d2 6d e2 bd 20 97 6c 3d
       0.18374996 -0.065231234 -0.11056103 0.05776131
0000d0 e6 79 bc bd 90 a4 64 3e a9 f9 8e 3d b4 b0 3b 3e
       -0.09202938 0.223284 0.06981213 0.18329126
0000e0 8f f4 0f 3e 34 7d 85 3e 94 9e 92 3e 97 10 5f bd
       0.14058135 0.26072085 0.2863661 -0.05445918
0000f0 74 ef 83 3e 93 04 a5 bd 84 75 fb bd 58 67 00 3e
       0.25768626 -0.08057513 -0.12278274 0.12539423
000100 34 91 82 3e e7 97 0b 3e 85 38 45 be 3b b0 f9 3a
       0.25501406 0.13632165 -0.19259842 0.0019049713
000110 8f 3d ab 3e 68 29 00 3e e4 2d b8 3d 84 13 22 bc
       0.33445403 0.12515795 0.08993128 -0.009892348
000120 22 7a 84 3d bb 89 28 bc ce ac e5 3d 19 40 0a be
       0.064686075 -0.010286744 0.112146005 -0.13501014
000130 44 07 50 3e 41 10 c9 bd be f2 47 be 7d 2f 11 3e
       0.20315272 -0.09817553 -0.19526193 0.14178272

linear_relu_stack.5.weight f4 [80, 80]
000000 f1 ad 41 3d 3f 4b 3e 3e 08 e5 e2 bd fc 75 05 bd
       0.047285024 0.18583392 -0.110788405 -0.03258322
000010 2a 54 22 bd 25 fa 22 3d 90 10 3d be d6 0b dd 3e
       -0.039631046 0.039789338 -0.1846335 0.43173093
000020 39 3f e3 3d 60 1b f2 bc 70 cc ef bd 70 39 3c 3d
       0.11096043 -0.029554069 -0.11708915 0.045953214
000030 dd 9a 85 3d ff 16 22 3e 1c 86 db bd 19 b6 4e bd
       0.065236785 0.15829085 -0.10718939 -0.05046663
000040 16 0f fc 3d 38 a8 b3 be 3c 2b b7 3d b9 93 21 be
       0.12307565 -0.35089278 0.08943793 -0.15779008
000050 be 98 9a be 2b e3 3c 3d 5e 0a ee bc e3 9c d9 bd
       -0.30194658 0.04611508 -0.029057678 -0.10625627
000060 79 ac 9f be d4 32 02 3e 8b 2a ae 3d f4 5f 39 bd
       -0.31186274 0.12714702 0.08504208 -0.045257524
000070 59 1c 17 be be 02 09 3e 5b 9a e9 bd 98 22 9c 3d
       -0.14756908 0.13379952 -0.11406394 0.07623786
000080 05 ed 38 be cb 9a cb 3d da a2 ee 3d 85 80 ea 3d
       -0.18059166 0.09941634 0.11652155 0.114502944
000090 9e 03 22 bd 67 1b 07 3d 9e a7 08 bd 69 1c 0a 3e
       -0.03955423 0.032985117 -0.033362977 0.134874
0000a0 1b ba 2c 3e e9 34 88 3d e4 59 25 3e 62 5a 33 be
       0.16867869 0.06650717 0.16147572 -0.17514947
0000b0 89 e2 86 3d 81 bc 9c bc 02 95 db bd 11 0a 91 be
       0.06586177 -0.019132854 -0.1072178 -0.28327993
0000c0 d9 20 18 3d bf 95 5d be 3d 72 8f be 60 7b c4 bd
       0.0371407 -0.21639155 -0.28016844 -0.095938444
0000d0 2b 77 c3 bc a0 22 38 bd 62 a7 fa bd 16 09 df bd
       -0.023860535 -0.044954896 -0.12238957 -0.10890405
0000e0 e8 19 b4 bc 17 42 fc bd 59 56 96 3e b5 d5 4d be
       -0.02198501 -0.12317293 0.29362753 -0.20101054
0000f0 de 04 4b be b5 6f 84 3d 1a 68 92 bd 8d c2 17 3e
       -0.19826075 0.06466619 -0.07148762 0.14820309
000100 48 a9 5a 3e 7e ab 75 3d 82 f3 08 be 3c fa b8 bd
       0.21353638 0.059978 -0.13374141 -0.090321034
000110 c9 44 da 3d 29 71 35 3e 01 1b 95 bd 01 55 ee bd
       0.10657651 0.17718948 -0.07280541 -0.11637307
000120 26 f4 ad 3d 2b f0 ab 3e 0c e0 60 3d 45 9f cd bd
       0.08493833 0.3358167 0.054901168 -0.10040144
000130 e8 db a3 3b 1d e7 4c 3d ff bd a7 3c 17 45 e2 bc
       0.00500058 0.050025094 0.02047634 -0.027620835
000140 b0 d7 38 3e 2d 7e 86 3e ef 5c df bd d1 c1 cd 3d
       0.18051028 0.2626814 -0.109063976 0.10046733
000150 1e 2a 97 3e 24 ed f1 3d 34 b4 a8 bd 95 61 5c 3e
       0.2952432 0.11812809 -0.08237496 0.215216
000160 3a d4 9f be a6 c9 0e 3d 67 7c 53 be 3c 58 46 be
       -0.31216604 0.034860276 -0.20652924 -0.19369596
000170 f4 76 6e bd 7d 5c 7b 3e 0b eb 9f 3e b0 04 9f 3e
       -0.05821891 0.24547 0.3123401 0.31058264
000180 09 65 84 bd ab df ba be 64 b2 3c 3d 84 31 25 3d
       -0.064645834 -0.3649877 0.046068564 0.040330425
000190 76 6e 81 be c9 49 24 3e a2 ce 7f be 62 3d 37 3d
       -0.25279588 0.16043772 -0.24981168 0.044736274
0001a0 05 71 e0 be ca 47 c6 3e 4d 6f a0 3e a1 7e bb bd
       -0.43836227 0.38726646 0.31334916 -0.09155012
0001b0 e8 a0 04 be 8c 64 57 3e 93 eb 6e bd 66 5c 8f bd
       -0.12952006 0.2103445 -0.05833013 -0.070000455
0001c0 a1 08 8b be 6d 07 a5 3d 2c 50 96 3e 8f f1 8f 3e
       -0.2715502 0.08058057 0.2935804 0.28113982
0001d0 30 9a b0 bd 45 2e 0d 3e 76 75 1a 3d 0d ff b2 3d
       -0.08623159 0.13787182 0.037709676 0.08740053
0001e0 1a ef 13 3e 9f ed 6c 3e 96 f9 79 3e 3b 96 97 3e
       0.14446679 0.2313752 0.24411616 0.29606804
0001f0 c6 6b 02 3c 33 2b 5e 3e cc b0 7a bd 56 da 97 be
       0.0079602655 0.21696167 -0.061203763 -0.29658765
000200 9e 00 9e be fa c6 b9 be 2b 9e 1a be cb c9 b0 bd
       -0.30859846 -0.3628462 -0.15099399 -0.08632239
000210 26 aa 90 bd b7 22 f8 bd b8 cf e7 3c 98 2f 58 3e
       -0.07063703 -0.12115996 0.02829729 0.21111906
000220 2e 4c d0 be 9d 84 6e bd 90 75 1f 3e 70 1e 1c be
       -0.4068312 -0.05823194 0.1557219 -0.15245986
000230 bd 22 f7 bd 74 2d 3e 3e b0 19 c9 3e bf 9a 16 bd
       -0.12067173 0.18572026 0.3927741 -0.03676867
000240 df 4e 4f bc 05 18 2f 3e 96 f8 df bd e1 98 ab 3d
       -0.012653082 0.17099006 -0.10936086 0.08378769
000250 45 51 ce 3d 45 0d 39 bc 49 44 03 3f 97 c1 a2 be
       0.10074095 -0.011294668 0.5127607 -0.31788322
000260 0a 21 23 3e c3 73 30 3d ee 0b 14 3e 97 d8 39 3e
       0.15930572 0.04307915 0.14457676 0.18149029
000270 b5 6d 8d 3d 39 47 03 3f 21 26 8b 3e be 87 1d 3e
       0.069056906 0.5128055 0.27177528 0.15383813
000280 c7 35 9f be f1 5f 87 bc f6 61 51 3d de a5 72 be
       -0.31095716 -0.01652524 0.051118813 -0.23696086
000290 5e c0 16 be 07 67 0b 3e 1d f8 96 3e b6 52 da be
       -0.1472182 0.1361352 0.2948617 -0.42641228
0002a0 29 5d 47 be 8e e0 09 bf 8d 7c df 3e 9b 25 13 be
       -0.19469132 -0.5385827 0.43649712 -0.14369814
0002b0 bc 0b 83 bd 07 45 33 be b3 8c 7f 3d b0 1a 2a bd
       -0.063987225 -0.175068 0.06239004 -0.041529357
0002c0 3a 05 0c 3e 97 f5 23 3d 81 83 d5 be 63 f4 8e 3d
       0.13673869 0.040029135 -0.41701892 0.06980207
0002d0 b7 82 b9 bd 69 5a 64 3e 0b 80 15 bd 75 63 a9 bb
       -0.09058135 0.22300114 -0.036499064 -0.005169327
0002e0 6e 67 20 3e 46 91 42 3d 86 a7 a9 bc 6c f8 37 3e
       0.15664455 0.047501825 -0.020709764 0.17965859
0002f0 17 b0 86 3e 7c 4d aa 3d 98 1e 36 3e 9f 46 37 3d
       0.2630622 0.0831556 0.17785108 0.044745084
000300 a4 74 03 3e 13 a9 3d 3e 28 d0 91 be 10 0e 97 be
       0.12837464 0.18521528 -0.28479123 -0.29502916
000310 25 44 67 3e 78 a3 33 bd 75 46 93 bd 49 cf a7 3d
       0.22584589 -0.043857068 -0.07191173 0.081938334
000320 bd f3 3c 3c c3 52 60 bd 11 3d 19 be 7c 2c 97 3c
       0.011532721 -0.054766428 -0.14964701 0.018453829
000330 c6 d4 80 3e 0d e4 43 3e 96 27 fa bd 4f fb c1 3d
       0.25162333 0.19129963 -0.12214582 0.094717614
000340 b6 a4 80 3c 74 c3 9a 3e ad 92 28 bd 6e 2b 10 be
       0.01570354 0.30227244 -0.041155506 -0.14079067
000350 f4 d6 4d 3d 0b 6b c5 3c ae b0 60 3e 14 ff ab 3c
       0.050253823 0.024098894 0.21942398 0.020995654
000360 7f 50 14 bd 2e 80 5a 3d f4 85 c9 bc 50 53 5c 3e
       -0.03620958 0.053344898 -0.024600007 0.21516156
000370 ef 13 8f 3e de 6c 99 be 76 d9 00 bf ab c1 c7 bd
       0.27944896 -0.29965872 -0.5033182 -0.09753736
000380 bc 7a 16 3e d9 bf ef be 8a 70 d3 ba 27 7d 84 3e
       0.14695257 -0.46826056 -0.0016131562 0.25876734
000390 3f 5e ae bd 4a 60 d8 bd 92 95 9e be 37 50 02 3f
       -0.0851407 -0.10565241 -0.30973488 0.5090365
0003a0 58 ee 37 3d e9 45 11 be c1 10 35 bd 91 71 b7 bd
       0.044905037 -0.14186825 -0.04420543 -0.08957208
0003b0 fc c0 c4 3d fa 9a 18 3d fe 3b 62 bd 46 93 b2 ba
       0.09607121 0.037257172 -0.055232994 -0.0013624213
0003c0 48 4d 40 3e 56 0a 19 be 83 36 80 bd d5 3c ce bd
       0.1877948 -0.14945349 -0.06260397 -0.100701965
0003d0 3a 4c 4e 3d 79 1b 31 3d 91 36 38 be 81 45 d7 3d
       0.050365664 0.04323909 -0.17989565 0.10511304
0003e0 0b 4b 9e 3e 9a 6e 70 bd ac 80 78 bd fb 6c ac 3e
       0.30916628 -0.058699228 -0.060669586 0.33676895
0003f0 72 8b e4 3d 52 39 33 3e 5d 32 f0 3e 98 80 5d 3e
       0.111594096 0.17502335 0.46913424 0.21631086

linear_relu_stack.5.bias f4 [80]
000000 fa b0 87 3e fb 9a a1 3e 78 78 f4 bb c0 f9 86 3e
       0.2650221 0.31563553 -0.00746065 0.2636242
000010 3a 10 65 3e 0e 94 13 be a7 1a 23 3e d9 29 1e 3f
       0.22369471 -0.14411947 0.15928136 0.61782604
000020 e0 4c 66 bd a2 d4 0a 3e bb d1 58 3e 98 c5 73 be
       -0.056225657 0.13557675 0.21173756 -0.23805845
000030 d5 2f 71 be dc 6f 94 3d fd 17 b4 3d 8d a2 9b bb
       -0.23553403 0.07247898 0.08793638 -0.004749602
000040 e5 a4 f5 bc 69 6a 77 bb f2 b3 c8 3c c0 9d c5 3c
       -0.029985854 -0.0037752634 0.024499867 0.024123073
000050 df 50 90 bc 59 fd 8b 3d 1f 20 f6 bd 74 bb 15 bd
       -0.017616687 0.068354316 -0.12017845 -0.036555722
000060 53 17 83 bd 47 9c c9 3b a8 51 10 bd 25 ee ef 3d
       -0.06400933 0.006152663 -0.035234123 0.11715344
000070 4f 6a c0 be 7b 73 ec 3d 3d 0b 4f 3e af 38 a2 bd
       -0.37581107 0.11545464 0.20219131 -0.07920968
000080 bc 76 20 3e 1d 27 ef 3d d0 79 db 3d e6 bd 93 3e
       0.15670294 0.11677382 0.10716593 0.2885582
000090 42 10 13 be b6 a6 35 be 5d 4c 22 bd 9b de 80 3e
       -0.1436167 -0.17739376 -0.039623607 0.25169834
0000a0 65 3e 4e 3e 3b 08 27 be 29 cf 7b bd 2e d1 4f 3e
       0.20140989 -0.16311733 -0.06147686 0.2029464
0000b0 75 6a e6 3d 35 84 a3 3d db 21 04 3d 29 83 20 be
       0.11250774 0.07984201 0.03225885 -0.15675034
0000c0 f3 28 3c 3e f4 97 85 bd d2 6d e2 bd 20 97 6c 3d
       0.18374996 -0.065231234 -0.11056103 0.05776131
0000d0 e6 79 bc bd 90 a4 64 3e a9 f9 8e 3d b4 b0 3b 3e
       -0.09202938 0.223284 0.06981213 0.18329126
0000e0 8f f4 0f 3e 34 7d 85 3e 94 9e 92 3e 97 10 5f bd
       0.14058135 0.26072085 0.2863661 -0.05445918
0000f0 74 ef 83 3e 93 04 a5 bd 84 75 fb bd 58 67 00 3e
       0.25768626 -0.08057513 -0.12278274 0.12539423
000100 34 91 82 3e e7 97 0b 3e 85 38 45 be 3b b0 f9 3a
       0.25501406 0.13632165 -0.19259842 0.0019049713
000110 8f 3d ab 3e 68 29 00 3e e4 2d b8 3d 84 13 22 bc
       0.33445403 0.12515795 0.08993128 -0.009892348
000120 22 7a 84 3d bb 89 28 bc ce ac e5 3d 19 40 0a be
       0.064686075 -0.010286744 0.112146005 -0.13501014
000130 44 07 50 3e 41 10 c9 bd be f2 47 be 7d 2f 11 3e
       0.20315272 -0.09817553 -0.19526193 0.14178272

linear_relu_stack.7.weight f4 [80, 80]
000000 f1 ad 41 3d 3f 4b 3e 3e 08 e5 e2 bd fc 75 05 bd
       0.047285024 0.18583392 -0.110788405 -0.03258322
000010 2a 54 22 bd 25 fa 22 3d 90 10 3d be d6 0b dd 3e
       -0.039631046 0.039789338 -0.1846335 0.43173093
000020 39 3f e3 3d 60 1b f2 bc 70 cc ef bd 70 39 3c 3d
       0.11096043 -0.029554069 -0.11708915 0.045953214
000030 dd 9a 85 3d ff 16 22 3e 1c 86 db bd 19 b6 4e bd
       0.065236785 0.15829085 -0.10718939 -0.05046663
000040 16 0f fc 3d 38 a8 b3 be 3c 2b b7 3d b9 93 21 be
       0.12307565 -0.35089278 0.08943793 -0.15779008
000050 be 98 9a be 2b e3 3c 3d 5e 0a ee bc e3 9c d9 bd
       -0.30194658 0.04611508 -0.029057678 -0.10625627
000060 79 ac 9f be d4 32 02 3e 8b 2a ae 3d f4 5f 39 bd
       -0.31186274 0.12714702 0.08504208 -0.045257524
000070 59 1c 17 be be 02 09 3e 5b 9a e9 bd 98 22 9c 3d
       -0.14756908 0.13379952 -0.11406394 0.07623786
000080 05 ed 38 be cb 9a cb 3d da a2 ee 3d 85 80 ea 3d
       -0.18059166 0.09941634 0.11652155 0.114502944
000090 9e 03 22 bd 67 1b 07 3d 9e a7 08 bd 69 1c 0a 3e
       -0.03955423 0.032985117 -0.033362977 0.134874
0000a0 1b ba 2c 3e e9 34 88 3d e4 59 25 3e 62 5a 33 be
       0.16867869 0.06650717 0.16147572 -0.17514947
0000b0 89 e2 86 3d 81 bc 9c bc 02 95 db bd 11 0a 91 be
       0.06586177 -0.019132854 -0.1072178 -0.28327993
0000c0 d9 20 18 3d bf 95 5d be 3d 72 8f be 60 7b c4 bd
       0.0371407 -0.21639155 -0.28016844 -0.095938444
0000d0 2b 77 c3 bc a0 22 38 bd 62 a7 fa bd 16 09 df bd
       -0.023860535 -0.044954896 -0.12238957 -0.10890405
0000e0 e8 19 b4 bc 17 42 fc bd 59 56 96 3e b5 d5 4d be
       -0.02198501 -0.12317293 0.29362753 -0.20101054
0000f0 de 04 4b be b5 6f 84 3d 1a 68 92 bd 8d c2 17 3e
       -0.19826075 0.06466619 -0.07148762 0.14820309
000100 48 a9 5a 3e 7e ab 75 3d 82 f3 08 be 3c fa b8 bd
       0.21353638 0.059978 -0.13374141 -0.090321034
000110 c9 44 da 3d 29 71 35 3e 01 1b 95 bd 01 55 ee bd
       0.10657651 0.17718948 -0.07280541 -0.11637307
000120 26 f4 ad 3d 2b f0 ab 3e 0c e0 60 3d 45 9f cd bd
       0.08493833 0.3358167 0.054901168 -0.10040144
000130 e8 db a3 3b 1d e7 4c 3d ff bd a7 3c 17 45 e2 bc
       0.00500058 0.050025094 0.02047634 -0.027620835
000140 b0 d7 38 3e 2d 7e 86 3e ef 5c df bd d1 c1 cd 3d
       0.18051028 0.2626814 -0.109063976 0.10046733
000150 1e 2a 97 3e 24 ed f1 3d 34 b4 a8 bd 95 61 5c 3e
       0.2952432 0.11812809 -0.08237496 0.215216
000160 3a d4 9f be a6 c9 0e 3d 67 7c 53 be 3c 58 46 be
       -0.31216604 0.034860276 -0.20652924 -0.19369596
000170 f4 76 6e bd 7d 5c 7b 3e 0b eb 9f 3e b0 04 9f 3e
       -0.05821891 0.24547 0.3123401 0.31058264
000180 09 65 84 bd ab df ba be 64 b2 3c 3d 84 31 25 3d
       -0.064645834 -0.3649877 0.046068564 0.040330425
000190 76 6e 81 be c9 49 24 3e a2 ce 7f be 62 3d 37 3d
       -0.25279588 0.16043772 -0.24981168 0.044736274
0001a0 05 71 e0 be ca 47 c6 3e 4d 6f a0 3e a1 7e bb bd
       -0.43836227 0.38726646 0.31334916 -0.09155012
0001b0 e8 a0 04 be 8c 64 57 3e 93 eb 6e bd 66 5c 8f bd
       -0.12952006 0.2103445 -0.05833013 -0.070000455
0001c0 a1 08 8b be 6d 07 a5 3d 2c 50 96 3e 8f f1 8f 3e
       -0.2715502 0.08058057 0.2935804 0.28113982
0001d0 30 9a b0 bd 45 2e 0d 3e 76 75 1a 3d 0d ff b2 3d
       -0.08623159 0.13787182 0.037709676 0.08740053
0001e0 1a ef 13 3e 9f ed 6c 3e 96 f9 79 3e 3b 96 97 3e
       0.14446679 0.2313752 0.24411616 0.29606804
0001f0 c6 6b 02 3c 33 2b 5e 3e cc b0 7a bd 56 da 97 be
       0.0079602655 0.21696167 -0.061203763 -0.29658765
000200 9e 00 9e be fa c6 b9 be 2b 9e 1a be cb c9 b0 bd
       -0.30859846 -0.3628462 -0.15099399 -0.08632239
000210 26 aa 90 bd b7 22 f8 bd b8 cf e7 3c 98 2f 58 3e
       -0.07063703 -0.12115996 0.02829729 0.21111906
000220 2e 4c d0 be 9d 84 6e bd 90 75 1f 3e 70 1e 1c be
       -0.4068312 -0.05823194 0.1557219 -0.15245986
000230 bd 22 f7 bd 74 2d 3e 3e b0 19 c9 3e bf 9a 16 bd
       -0.12067173 0.18572026 0.3927741 -0.03676867
000240 df 4e 4f bc 05 18 2f 3e 96 f8 df bd e1 98 ab 3d
       -0.012653082 0.17099006 -0.10936086 0.08378769
000250 45 51 ce 3d 45 0d 39 bc 49 44 03 3f 97 c1 a2 be
       0.10074095 -0.011294668 0.5127607 -0.31788322
000260 0a 21 23 3e c3 73 30 3d ee 0b 14 3e 97 d8 39 3e
       0.15930572 0.04307915 0.14457676 0.18149029
000270 b5 6d 8d 3d 39 47 03 3f 21 26 8b 3e be 87 1d 3e
       0.069056906 0.5128055 0.27177528 0.15383813
000280 c7 35 9f be f1 5f 87 bc f6 61 51 3d de a5 72 be
       -0.31095716 -0.01652524 0.051118813 -0.23696086
000290 5e c0 16 be 07 67 0b 3e 1d f8 96 3e b6 52 da be
       -0.1472182 0.1361352 0.2948617 -0.42641228
0002a0 29 5d 47 be 8e e0 09 bf 8d 7c df 3e 9b 25 13 be
       -0.19469132 -0.5385827 0.43649712 -0.14369814
0002b0 bc 0b 83 bd 07 45 33 be b3 8c 7f 3d b0 1a 2a bd
       -0.063987225 -0.175068 0.06239004 -0.041529357
0002c0 3a 05 0c 3e 97 f5 23 3d 81 83 d5 be 63 f4 8e 3d
       0.13673869 0.040029135 -0.41701892 0.06980207
0002d0 b7 82 b9 bd 69 5a 64 3e 0b 80 15 bd 75 63 a9 bb
       -0.09058135 0.22300114 -0.036499064 -0.005169327
0002e0 6e 67 20 3e 46 91 42 3d 86 a7 a9 bc 6c f8 37 3e
       0.15664455 0.047501825 -0.020709764 0.17965859
0002f0 17 b0 86 3e 7c 4d aa 3d 98 1e 36 3e 9f 46 37 3d
       0.2630622 0.0831556 0.17785108 0.044745084
000300 a4 74 03 3e 13 a9 3d 3e 28 d0 91 be 10 0e 97 be
       0.12837464 0.18521528 -0.28479123 -0.29502916
000310 25 44 67 3e 78 a3 33 bd 75 46 93 bd 49 cf a7 3d
       0.22584589 -0.043857068 -0.07191173 0.081938334
000320 bd f3 3c 3c c3 52 60 bd 11 3d 19 be 7c 2c 97 3c
       0.011532721 -0.054766428 -0.14964701 0.018453829
000330 c6 d4 80 3e 0d e4 43 3e 96 27 fa bd 4f fb c1 3d
       0.25162333 0.19129963 -0.12214582 0.094717614
000340 b6 a4 80 3c 74 c3 9a 3e ad 92 28 bd 6e 2b 10 be
       0.01570354 0.30227244 -0.041155506 -0.14079067
000350 f4 d6 4d 3d 0b 6b c5 3c ae b0 60 3e 14 ff ab 3c
       0.050253823 0.024098894 0.21942398 0.020995654
000360 7f 50 14 bd 2e 80 5a 3d f4 85 c9 bc 50 53 5c 3e
       -0.03620958 0.053344898 -0.024600007 0.21516156
000370 ef 13 8f 3e de 6c 99 be 76 d9 00 bf ab c1 c7 bd
       0.27944896 -0.29965872 -0.5033182 -0.09753736
000380 bc 7a 16 3e d9 bf ef be 8a 70 d3 ba 27 7d 84 3e
       0.14695257 -0.46826056 -0.0016131562 0.25876734
000390 3f 5e ae bd 4a 60 d8 bd 92 95 9e be 37 50 02 3f
       -0.0851407 -0.10565241 -0.30973488 0.5090365
0003a0 58 ee 37 3d e9 45 11 be c1 10 35 bd 91 71 b7 bd
       0.044905037 -0.14186825 -0.04420543 -0.08957208
0003b0 fc c0 c4 3d fa 9a 18 3d fe 3b 62 bd 46 93 b2 ba
       0.09607121 0.037257172 -0.055232994 -0.0013624213
0003c0 48 4d 40 3e 56 0a 19 be 83 36 80 bd d5 3c ce bd
       0.1877948 -0.14945349 -0.06260397 -0.100701965
0003d0 3a 4c 4e 3d 79 1b 31 3d 91 36 38 be 81 45 d7 3d
       0.050365664 0.04323909 -0.17989565 0.10511304
0003e0 0b 4b 9e 3e 9a 6e 70 bd ac 80 78 bd fb 6c ac 3e
       0.30916628 -0.058699228 -0.060669586 0.33676895
0003f0 72 8b e4 3d 52 39 33 3e 5d 32 f0 3e 98 80 5d 3e
       0.111594096 0.17502335 0.46913424 0.21631086

linear_relu_stack.7.bias f4 [80]
000000 fa b0 87 3e fb 9a a1 3e 78 78 f4 bb c0 f9 86 3e
       0.2650221 0.31563553 -0.00746065 0.2636242
000010 3a 10 65 3e 0e 94 13 be a7 1a 23 3e d9 29 1e 3f
       0.22369471 -0.14411947 0.15928136 0.61782604
000020 e0 4c 66 bd a2 d4 0a 3e bb d1 58 3e 98 c5 73 be
       -0.056225657 0.13557675 0.21173756 -0.23805845
000030 d5 2f 71 be dc 6f 94 3d fd 17 b4 3d 8d a2 9b bb
       -0.23553403 0.07247898 0.08793638 -0.004749602
000040 e5 a4 f5 bc 69 6a 77 bb f2 b3 c8 3c c0 9d c5 3c
       -0.029985854 -0.0037752634 0.024499867 0.024123073
000050 df 50 90 bc 59 fd 8b 3d 1f 20 f6 bd 74 bb 15 bd
       -0.017616687 0.068354316 -0.12017845 -0.036555722
000060 53 17 83 bd 47 9c c9 3b a8 51 10 bd 25 ee ef 3d
       -0.06400933 0.006152663 -0.035234123 0.11715344
000070 4f 6a c0 be 7b 73 ec 3d 3d 0b 4f 3e af 38 a2 bd
       -0.37581107 0.11545464 0.20219131 -0.07920968
000080 bc 76 20 3e 1d 27 ef 3d d0 79 db 3d e6 bd 93 3e
       0.15670294 0.11677382 0.10716593 0.2885582
000090 42 10 13 be b6 a6 35 be 5d 4c 22 bd 9b de 80 3e
       -0.1436167 -0.17739376 -0.039623607 0.25169834
0000a0 65 3e 4e 3e 3b 08 27 be 29 cf 7b bd 2e d1 4f 3e
       0.20140989 -0.16311733 -0.06147686 0.2029464
0000b0 75 6a e6 3d 35 84 a3 3d db 21 04 3d 29 83 20 be
       0.11250774 0.07984201 0.03225885 -0.15675034
0000c0 f3 28 3c 3e f4 97 85 bd d2 6d e2 bd 20 97 6c 3d
       0.18374996 -0.065231234 -0.11056103 0.05776131
0000d0 e6 79 bc bd 90 a4 64 3e a9 f9 8e 3d b4 b0 3b 3e
       -0.09202938 0.223284 0.06981213 0.18329126
0000e0 8f f4 0f 3e 34 7d 85 3e 94 9e 92 3e 97 10 5f bd
       0.14058135 0.26072085 0.2863661 -0.05445918
0000f0 74 ef 83 3e 93 04 a5 bd 84 75 fb bd 58 67 00 3e
       0.25768626 -0.08057513 -0.12278274 0.12539423
000100 34 91 82 3e e7 97 0b 3e 85 38 45 be 3b b0 f9 3a
       0.25501406 0.13632165 -0.19259842 0.0019049713
000110 8f 3d ab 3e 68 29 00 3e e4 2d b8 3d 84 13 22 bc
       0.33445403 0.12515795 0.08993128 -0.009892348
000120 22 7a 84 3d bb 89 28 bc ce ac e5 3d 19 40 0a be
       0.064686075 -0.010286744 0.112146005 -0.13501014
000130 44 07 50 3e 41 10 c9 bd be f2 47 be 7d 2f 11 3e
       0.20315272 -0.09817553 -0.19526193 0.14178272
